models/mnist_vae_dims_128/vae_2d.pth (torch, 946842 bytes, 14 tensors)

encoder.network.1.weight f4 [128, 784]
00000000: bac5 983c 8a69 763c 323b 073d 352f f83c
00000010: 8a84 f2bc 2e59 913c 9c8b 08bc 7ce0 6f3c
00000020: 5a7b d5bc c587 173c d226 05bd 856c 07bc
00000030: 375e 3fbc 0f3f 03bd 58e0 01bd 2573 3c3a
00000040: 8587 09bc 65b9 8a3c b12b ef3c 3728 0bbd
00000050: ca3a 123d 6544 8fbb 677d a1bc 01f8 7bbb
00000060: 6685 093d ac49 a9bc c7db 0cbd e362 fdbc
00000070: c194 da3b d82b 7c3c 3d65 0d3d ae6f 403c
00000080: cac8 3abc 44f2 04bd c57d 83bc 19ef 82bd
00000090: 25bf 88bc 6d9e 303d 23dc 7f3d bcd8 c03c
000000a0: 6a92 d33d d1e8 6e3d f614 80bc 8e9a 09bc
000000b0: a8a1 8d3d 00b6 cb3d e0c9 dfbc 512f ec3c
000000c0: 5220 963d eb11 bfbb 1ae6 b2bc e835 0ebd
000000d0: ee25 c33c bc90 d83c 373c d8bc bed9 bf3c
000000e0: 38d3 763c a592 3f3c 57cd 8fbc eed5 99bc
000000f0: 1892 b3bc 4a10 46bd 96ca 243c 27f0 11bc
00000100: c8cb 4a3d cefd 1a3d 7c78 9d3c 647d 95bc
00000110: 1fc3 9bbd ae25 053c 21e7 84bd d534 14be
00000120: c89b aabd 768a 8fbb 303d 853c 0478 b73c
00000130: 5a9d 80bc 65e2 1a3d 0e02 23bd 952e 8ebd
00000140: e931 bfbd 3b94 9fbd 2ae0 d93c 2e32 e43b
00000150: 0aa3 f2bc 5c16 b2bc 08f5 41bd b6fe 61bd
00000160: 2295 563d c588 363d 2daa 243d dda8 84bc
00000170: 90e3 f4bc 8395 32be a655 3cbe 152a ddbd
00000180: 8f41 23bd 5635 f9bc 8d20 14bd 5a05 943a
00000190: a294 ccbb 3bdb db3d d81b 8f3d 3926 053e
000001a0: 058a e13c 9b9b 26be 511c 0abe b070 b7bd
000001b0: 4330 b83c 7169 373d b746 a63d 258b eb3a
000001c0: 5a56 b5bc 2e71 70bd 40d2 f5bc 5115 4cbd
000001d0: 9c31 763d b9d5 b93d 0d52 1ebc 142d 09bb
000001e0: 07d7 bfbd d6bd 22be 65ec 8abe cb7e a8be
000001f0: 1ec7 76be af18 bcbd aef5 adbd 2061 1abe
00000200: 3813 57bd 7ed4 153c d76e 19bd c846 ccbd
00000210: cb9f 9fbc f5ce cfbd 4c64 e9bd dae1 64bc
00000220: 699f 433e 22b1 923d e1ab ad3b 9731 5f3d
00000230: d5ec a43c 3134 bfbc e481 73bd 0909 9a3d
00000240: 570b ff3c 1588 8c3c d2d0 4d3d 7e85 78bd
00000250: 0852 e9bc cb71 07be c927 38be 5eef 1ebe
00000260: fccf 96bd e9bd c9bd d484 b8bc 714a 9ebc
00000270: 688a 88bd 9332 fc3c 7b2f 84bd 5e7a b5bd
00000280: ac70 efbc b6b9 a4bc 155c 20bd e710 4f3d
00000290: 292e b33d 61fc 623e 1b38 043e e8ba d4bd
000002a0: bb4c 07bd 1245 533c a9a1 8d3b a52d 483d
000002b0: 184b cfbd cfbf 87bd 05b2 3dbd 2f51 0bbe
000002c0: 028e 00be 19a3 cebd 7b02 a0bd 846a 3f3d
000002d0: e224 af3d 3ddb 563d 5f66 883d 3213 b43d
000002e0: 6db8 103d 913f 5c3d 23c3 8b37 9e7b 49bd
000002f0: f194 cc3c d09b b3bc 57eb 163d 8ff1 883d
00000300: fd4b c93d 0b86 253e eef7 4b3e c851 53bd
00000310: 2248 11bb 71dd 063d 3f60 5b3d bc77 253d
00000320: 2de0 9e3c 3d0c abbc 3c44 54bd 0e76 1bbe
00000330: 44ac 6bbd 4beb 47bd e212 4bbd 7e83 b53c
00000340: 11bd d63c 35b1 b6bc 29ff c13b 850c e93c
00000350: ce97 1f3d e685 e83d 24cf 393d b041 b9bc
00000360: 2656 b4bc ab7c e13b e9e5 15bc a784 af3d
00000370: 2408 633e d252 ba3e 311f 923e 1df3 b43b
00000380: 7ff6 73bc a310 6ebc f82a debd 1669 5bbd
00000390: 2cf7 69bd 7e4b 76bd 8e45 6ebc 887e e1bd
000003a0: 6667 58bd 2e00 90bd 681f 04bd 942b 11bb
000003b0: fdef 13bd 47bb 44bd d1b0 a4bc d60b 23bd
000003c0: 0504 ad3b 457e ae3d bde6 9c3d 6488 83bd
000003d0: aca1 ccbd b2cd 00bd 0f4d 10bc 51ed 0a3e
000003e0: a4ed 4f3e 51d8 ae3e 582c 973e ad37 c03d
000003f0: 2f32 0bbd 45af 07bd 7af1 bebd 10cb 47be
0.01864897 0.015039811 0.033015437 0.030295948 -0.029604215 0.01774272 -0.008334067 0.014640924
-0.026059795 0.009248679 -0.032507725 -0.008265619 -0.011680177 -0.03204256 -0.03170809 0.0007188789
-0.008394127 0.016934106 0.029195638 -0.0339739 0.035700597 -0.004372167 -0.019713117 -0.0038447382
0.033574484 -0.020665012 -0.034389284 -0.030930942 0.006670565 0.015391313 0.034520376 0.0117453765
-0.011400411 -0.032457605 -0.016051183 -0.063932605 -0.016692707 0.043119837 0.062465798 0.023540847
0.10330661 0.0583275 -0.015634995 -0.008398665 0.06915599 0.09946823 -0.027317941 0.028831156
0.07330383 -0.0058309934 -0.021838237 -0.034719378 0.023821797 0.026436202 -0.0263959 0.023419257
0.015065007 0.011692678 -0.017553968 -0.018778767 -0.021920249 -0.04835538 0.010058066 -0.008907354
0.049510747 0.037839703 0.01922249 -0.018248267 -0.07605576 0.008126659 -0.06489397 -0.14473279
-0.08330494 -0.0043805195 0.016264528 0.022396095 -0.015700031 0.037813563 -0.03979688 -0.069424786
-0.093356915 -0.077919446 0.026596148 0.0069639897 -0.029618759 -0.021739177 -0.04735282 -0.055174552
0.052388318 0.044564027 0.040201355 -0.016193802 -0.029893667 -0.17439847 -0.18392047 -0.10799042
-0.039857443 -0.03042094 -0.036163855 0.0011293099 -0.0062433043 0.10735174 0.06987733 0.13002862
0.027531633 -0.16270296 -0.13487364 -0.0895704 0.02248395 0.04477829 0.081189565 0.0017970545
-0.022135902 -0.058701687 -0.030007482 -0.049825016 0.060105905 0.090739675 -0.009663117 -0.002093141
-0.09367185 -0.15892729 -0.2713348 -0.32909235 -0.24099395 -0.091843955 -0.08494125 -0.15076113
-0.052508563 0.0091449 -0.03745922 -0.09974438 -0.019485375 -0.10146896 -0.11396083 -0.013969863
0.19103779 0.07162692 0.0053000306 0.054490652 0.020132462 -0.023340316 -0.059450045 0.075212546
0.031133337 0.017154733 0.050247975 -0.060674183 -0.028481498 -0.13227002 -0.17983927 -0.15520999
-0.073638886 -0.098506756 -0.022524275 -0.019322606 -0.06667024 0.030785834 -0.06454369 -0.0886123
-0.02922853 -0.020108085 -0.039150316 0.05055323 0.08749039 0.22166587 0.12912028 -0.10387212
-0.03303216 0.012894886 0.00432225 0.048871655 -0.10121745 -0.066283815 -0.04631235 -0.13605188
-0.12554172 -0.10089702 -0.07812973 0.04673244 0.08551957 0.052455176 0.06660151 0.08792724
0.035332132 0.05377156 1.6660959e-05 -0.049190156 0.024973365 -0.021924883 0.03684553 0.06686699
0.09828947 0.16164415 0.19918796 -0.051591665 -0.0022168239 0.032926027 0.053558584 0.04039739
0.019394005 -0.02087986 -0.051822886 -0.15181753 -0.057537332 -0.048808377 -0.049578555 0.022157427
0.0262132 -0.022301296 0.00592031 0.028448353 0.03896313 0.11353664 0.04536356 -0.02261433
-0.022013735 0.0068813167 -0.009149053 0.08570223 0.22171074 0.36391312 0.28539422 0.0055221454
-0.014890312 -0.014530334 -0.108480394 -0.053567015 -0.057120487 -0.06013059 -0.01454295 -0.11010462
-0.052832983 -0.07031284 -0.032256514 -0.0022151219 -0.036117543 -0.048030164 -0.020103844 -0.03980621
0.00528002 0.08520178 0.07661197 -0.06422499 -0.09991774 -0.031446166 -0.008807435 0.13567092
0.20305496 0.3414941 0.2952602 0.09385619 -0.033983406 -0.033126134 -0.09323402 -0.19511056

encoder.network.1.bias f4 [128]
00000000: 23c5 393e 9dcd 4e3d a2f3 433c 24d3 8b3c
00000010: ad5c e83e 6588 0e3d eeb8 033e 6a89 03bd
00000020: 39ce 563e 5265 1cbd 4600 2f3e c19c 0d3e
00000030: e6a2 dfbb 120e 92bc 26fa 883e 2a54 083e
00000040: d53b 593f 867d 01bd 12b1 323b 36b4 8d3d
00000050: c494 5c3e a456 863d ef50 3c3e 8467 443f
00000060: 4294 c13e 7cc9 503e bcc3 6d3e 292b da3e
00000070: 6fcc 3f3e 51b5 a53e 48f6 383e a09d 22bd
00000080: d9ca c73e 2b01 25bb 6ee6 b03e c906 d8bc
00000090: 68f6 333e 7e28 a9bc e7d3 173d 58b6 c33e
000000a0: 5024 c13d 3692 973d 25b2 a43e bed0 493e
000000b0: 5991 de3e 139e 623c 450d 833e 8141 2a3e
000000c0: 8df1 fd3e acc5 c73c 3a8d 413e 50c1 8f3e
000000d0: 5183 533c 5f95 3a3e 637e 6a3e e99d 933d
000000e0: ada3 8f3c e684 9d3e 52f6 3abd c525 32bd
000000f0: 2c78 143e fcf2 51bc 2db7 f43d 199d 833e
00000100: 511d 383e 7ee9 aa3c ed0e 493d a775 5c3e
00000110: d1e3 9fbc f478 1a3e 4633 853e 5deb 963d
00000120: cd99 2fbd e29c 7f3e 50c4 e3bc 021e 02bd
00000130: 2c03 713e 7a8e c93d 60b2 8d3e 037e 9b3e
00000140: 51db f6bc 4fb0 493e 0521 cd3d c417 c83e
00000150: e000 c63e 1085 b63c 655a 3a3c de63 453c
00000160: 451d 8bbc a8e3 ac3e bfdf a63e e17c 7f3e
00000170: 5431 45bb 494a 2abd 97c9 86bd fdb2 763e
00000180: 897f 853e e4c9 813e 2d4a bd3e e8be c13b
00000190: b7df b83d 441c 883c 092a 353f 807f 533e
000001a0: 21e8 77bd 8c8f b23e 4d5f 1b3a 5545 023f
000001b0: 997f 4c3f 7a78 683e 8ff3 3e3e 2e6a c83c
000001c0: 853c 9b3e d4e1 25bd 25f3 293d 3d96 27bd
000001d0: 408c e9bc 3889 323e e4b8 c1bc 103e 543e
000001e0: 7c21 8f3d 1838 c43d 5c00 613e 0ce0 3b3c
000001f0: e82c 383e e8c5 8d3e 67dd b03e fdae 0e3d
0.18141608 0.050489057 0.011959942 0.017068453 0.45383206 0.034798045 0.12863514 -0.03211347
0.20977105 -0.038182564 0.17089948 0.13829328 -0.006824839 -0.017828975 0.26753348 0.13313356
0.8485692 -0.03161385 0.0027266187 0.06919138 0.21541125 0.06559494 0.18390249 0.7672045
0.37808424 0.2038936 0.23219198 0.42611054 0.18730329 0.32364896 0.18062699 -0.039701104
0.39021948 -0.0025177698 0.34550804 -0.026370423 0.17574465 -0.020649191 0.03706732 0.38225055
0.09430754 0.074009344 0.32167163 0.19708535 0.43470266 0.013831633 0.2559606 0.1662655
0.4959835 0.02438625 0.1890153 0.28077173 0.012909726 0.18221043 0.22899775 0.07207853
0.017534101 0.30765456 -0.045645066 -0.04349305 0.14498967 -0.01281428 0.119490005 0.25705793
0.17979933 0.02086329 0.0490865 0.21529256 -0.019517811 0.15085202 0.2601568 0.07369111
-0.042871285 0.2496219 -0.02780357 -0.0317669 0.23536366 0.098416284 0.27675152 0.30369577
-0.030133875 0.19696163 0.100160636 0.39080632 0.38672543 0.022280246 0.011374091 0.012047736
-0.01698173 0.33767438 0.3259258 0.24949981 -0.0030089216 -0.04157475 -0.06581419 0.24091716
0.26073864 0.25349343 0.36970654 0.0059126504 0.09027045 0.01661504 0.70767266 0.20654106
-0.06052411 0.34875143 0.00059269817 0.5088704 0.798822 0.22702208 0.18647598 0.024464693
0.3031961 -0.04049857 0.041491646 -0.040914763 -0.02850926 0.17435157 -0.023647733 0.207268
0.069888085 0.095810115 0.21972793 0.011466991 0.1798588 0.27690053 0.34543917 0.03483485

encoder.network.3.weight f4 [128, 128]
00000000: 76d2 f43c 38ec 343d 65ab a13d 141c adbd
00000010: 4940 08bd 273f 98bd 9883 82bd 3b6a 15bd
00000020: 5572 e8bd 7d5e a13d b523 8abc d4e3 b1bc
00000030: b926 453d 21b5 0dbb 70ca 5a3c 0b19 5d3c
00000040: 04c9 173d 3912 703d d62e 15bc a467 71bd
00000050: 419b 92bd c66f 89bd 30ce 8d3c 734f 87bd
00000060: 9ace f4bc 39f2 913d 3c5f ec3c 9abe 06bd
00000070: c4ba 623c d7ca 5f3c e21e 293d 1e1d a6bd
00000080: b4a9 2e3d 2fa1 093d 817a 87bd c015 e13c
00000090: 6ad5 6ebd d2d6 f5bb bcd3 863d 2336 3cbb
000000a0: 5715 8a3d 7d9f 5fbd a24a 973d e131 fe3c
000000b0: d385 be3b a374 c3bc dac1 baba 3e81 1b3d
000000c0: 76d1 703d 99f4 80bd 37a9 bcbd 3f6f abbd
000000d0: b1b8 1abc 432d 0abc e709 813c d7cd adbd
000000e0: 81c5 e73c 09f8 7a3d 455f a23d ef9a 2fbc
000000f0: 8d13 c3bb 68ee 84bb 6a57 6b3d 9bfd b8bd
00000100: c997 98bc a6c4 8b3d 4790 ecbd 7880 343a
00000110: 5336 5dbd 9928 923d e045 203d aeee 7c3d
00000120: 5435 013c c2a7 cbbd 1c71 8b3c 149c 0bbe
00000130: d520 20bd 30ab f6bc e61e 843c a589 f0bc
00000140: 7bb7 133d dd6b 4fbd 6ab0 383d 798c 523d
00000150: 01a6 22bd f4d9 813d e14a ac3c 2ec0 9d3d
00000160: de05 113d 4f5f 03be 8197 74bd a24e da3b
00000170: 7e0a 9ebd 7961 89bc bfcb 79bd 5180 f9bc
00000180: 0a0f 82bd cb66 cdbd c485 843d c55a 123d
00000190: b0f5 89bd e6b2 9cbd d3d0 1cbe 667c 96bd
000001a0: 9e5a e6bd dfb0 bfbd 7ae2 e33b 5605 27bd
000001b0: ecb8 47bd 9d7d 22bd 09a1 91bd 7f45 29bc
000001c0: a718 25bb 5ba0 333d 3125 c2bd 62cb 573c
000001d0: 7205 203d 7233 46bd 6d61 f13c 44ec dcbd
000001e0: 6f23 cebb 44ea 623d cab0 06bd 257d babd
000001f0: 50cf dcbc 3c54 973c e648 3cbd 1245 f4bd
00000200: ecf0 5ebd 6043 3bbd 73f0 af3d ca0f 873d
00000210: ff7f dbbd 5a97 36be 9c55 853d 616b b2bd
00000220: 40b9 4e3a cdc3 c83c 7fba 1abd 6ff6 b83c
00000230: 29c0 993d f2c1 d2bc f031 f33c fcf1 21bc
00000240: ed28 0fbe 80ab 813d d80f 42bc 2671 87bd
00000250: a764 59bd 4e54 253d 16ad 09bc 811a e3bd
00000260: 54b4 55bd 34bd 39bb 63e8 a13d 7a88 053d
00000270: ee0b 9abd e7dd b03c ae93 80bc 785c 813d
00000280: 73d2 03bd 58f2 95bc 5602 b6bd 61a2 96bd
00000290: e105 fabc 1eb6 313d d2d9 0ebb 04f9 57bd
000002a0: 31e4 0abd a4ee 78bd 8768 713d 8bd0 ecbb
000002b0: 6c85 0e3c 8e50 a33d e484 4b3d 9462 5c3c
000002c0: 8eb0 66bb 9f85 c73d 7851 3a3d 444b 893d
000002d0: 7658 883d ff6c 65bc 3927 05bd 7abc 653c
000002e0: 59a6 a53c fe06 d3bc 488d 973d bb20 ebbc
000002f0: 18a2 9abd 655e 9fbd 52c2 7fbd d6d5 993d
00000300: 233b a0bc 5819 653d a68c ff3c bf8b bfbc
00000310: b261 c83c f297 533b c009 bcbd 02fd 68bd
00000320: 9aa7 b73d 03f1 1bbd 34eb 433d 9ec7 a03d
00000330: 15ed 86bd 69bf 1339 f4d8 06bd 20f7 973d
00000340: 5be3 b7bc 8078 a0bc d7ca a63d 8837 aa3c
00000350: 77bf 91bd 54f5 533d d6dc 8abc 680b 433d
00000360: c984 183d 687c 553d ded8 04bb 8a47 27bd
00000370: b880 6a3d cdc0 8cbd a165 813d 250a 3b3d
00000380: e91a 523c d2ad b0bd 7e5d 0dbd 85ef 7f3d
00000390: a397 ce3b 9554 2cbc 1d74 9ebd cd81 143d
000003a0: c52c a43b 1218 acbd 2666 b53c d5cb 29be
000003b0: 88bd e3bb 48ad 87bc 514d 8e3d 66b2 883d
000003c0: d29d 133a 01cb 8b3d 8e77 653c 53ef 0dbd
000003d0: 0277 4fbd 2a36 afbb 78c3 c43d ca9e a9bc
000003e0: 8779 473d 38cb 013d 36b2 5cbd 9573 8fbd
000003f0: 2e63 b13c 9d89 b2bd 865c 9dbd aeed 16bd
0.029885512 0.04417059 0.07894019 -0.08452621 -0.033264432 -0.0743392 -0.06372756 -0.036478262
-0.11349932 0.0787935 -0.01686273 -0.021715082 0.048132632 -0.0021622854 0.013353929 0.01349474
0.037056938 0.05861113 -0.009105405 -0.05893673 -0.071585186 -0.06710772 0.017310232 -0.066069506
-0.029883672 0.071262784 0.028854005 -0.032896616 0.013838474 0.013659201 0.041289218 -0.081110224
0.04264231 0.033600982 -0.06615163 0.027476192 -0.058308996 -0.007502415 0.06583354 -0.0028718791
0.067423515 -0.05459546 0.07387282 0.031029643 0.005814293 -0.023859328 -0.0014248446 0.03796505
0.058793508 -0.06296653 -0.09211963 -0.08370828 -0.009443448 -0.008433643 0.015751792 -0.084865265
0.02829242 0.0612717 0.079283275 -0.010718091 -0.0059532584 -0.0040567406 0.05745641 -0.090327464
-0.018627064 0.06824617 -0.11550956 0.00068855984 -0.054006886 0.0713665 0.039129138 0.06175106
0.00788625 -0.09944107 0.017021708 -0.13633758 -0.03909381 -0.030110925 0.016128015 -0.029362509
0.036063652 -0.050639976 0.045090117 0.051403496 -0.039709095 0.063403994 0.021031799 0.07702671
0.035405986 -0.12829326 -0.059714798 0.006662206 -0.07716845 -0.016770111 -0.060985323 -0.030456694
-0.06350525 -0.10029372 0.06470826 0.035731096 -0.06736314 -0.0765131 -0.15314035 -0.07347946
-0.112477526 -0.09359907 0.0069544883 -0.040776573 -0.04876034 -0.039670575 -0.07110793 -0.010331511
-0.0025191696 0.0438541 -0.0947975 0.013171049 0.039067693 -0.048388906 0.029465402 -0.107872516
-0.006290845 0.055399194 -0.032883443 -0.09105901 -0.026954323 0.018472783 -0.04596796 -0.119272366
-0.05442898 -0.04571855 0.08590784 0.065948084 -0.10717773 -0.17831174 0.06510469 -0.08711887
0.0007885881 0.024507428 -0.037775513 0.022578446 0.07507355 -0.025727246 0.029686898 -0.009884354
-0.13980456 0.06331539 -0.011844598 -0.06613378 -0.053074505 0.040363602 -0.008403083 -0.110890396
-0.052173927 -0.0028341534 0.079056524 0.032600857 -0.07521807 0.021590186 -0.01569542 0.06316465
-0.032183122 -0.018304035 -0.08887164 -0.0735519 -0.030520381 0.04338657 -0.0021797311 -0.052727714
-0.033909027 -0.06077446 0.058937576 -0.0072270087 0.008698802 0.07974349 0.04968728 0.013451237
-0.003520045 0.09742283 0.04548785 0.06703809 0.066574976 -0.0140030375 -0.03250811 0.014021987
0.020220922 -0.02576017 0.07399994 -0.02870213 -0.07550448 -0.07781676 -0.062441178 0.07511489
-0.019559449 0.055932373 0.031194996 -0.023382066 0.024460647 0.0032286611 -0.09181547 -0.056881912
0.08967514 -0.038071644 0.04783173 0.07850574 -0.065881886 0.00014090318 -0.032921746 0.07420182
-0.022447279 -0.019588709 0.081441574 0.020778432 -0.07116597 0.051747635 -0.016951006 0.0476183
0.03723601 0.052120596 -0.0020270864 -0.04083971 0.057251662 -0.06872711 0.06318212 0.04566397
0.012823799 -0.086269036 -0.03451299 0.062484283 0.0063046976 -0.010518213 -0.077369906 0.0362566
0.0050102198 -0.084030285 0.022143435 -0.16581662 -0.006950084 -0.01656212 0.06948341 0.06674652
0.0005631122 0.06825829 0.014005555 -0.034652065 -0.050650604 -0.005347033 0.09607595 -0.0207056
0.048699882 0.031687945 -0.053880893 -0.070044674 0.021653738 -0.08717654 -0.07683663 -0.036847763

encoder.network.3.bias f4 [128]
00000000: 9c4b f1bd d18f cd3c 8016 8abc 1ce1 d8bd
00000010: 7891 733e 519d 153e 764e cc3c 4f96 9dbd
00000020: f6fb c43d ec8c 88bd df47 093e 8abe 8e3e
00000030: 42d6 4ebd 481b 923e 9681 a03e 28cc 3c3d
00000040: cfc6 133d 90eb cf3e cce0 053d cdb6 a03d
00000050: 46d4 13be c320 c53d d173 f6bc ffa2 163e
00000060: c873 7e3d 3484 45bc 46e8 5d3e 7d08 343d
00000070: fef7 863c 1c66 d83e 2e6e ddbd ad7b 083f
00000080: aca9 e0bd 06fb 603e eef5 fbbe 23ed 7c3e
00000090: 03e7 b9bc c1a1 943d 322b 7c3e e8be 013e
000000a0: 21b9 03bd 2731 863e e1f6 d8bd b0ab 413e
000000b0: b662 95be 79b3 b8be 426e 573e a151 db3e
000000c0: e95c 053e 328d 7abd 8672 ad3e 9d80 d2bd
000000d0: 727d f8bd de37 5f3e 54fc d03e ba0f c83d
000000e0: a064 ae3d 1f44 a93e 32ea 3f3e bcaf e53d
000000f0: 6b21 463d 1a16 8f3e e748 0e3f 6d42 ad3c
00000100: 05a9 653e 9388 a13c 8fc5 b5bd 8d67 8e3e
00000110: 9edb b7bd 8a60 653e 56c8 d1bd 6aa4 983b
00000120: a5c1 673e 21b0 863d b3fb 99bd 3e46 683d
00000130: 0c53 a8bc a814 bdbd 50d6 0c3c 121f 853c
00000140: 50f9 a1bd e429 243d 8c6f 9d3e a911 023e
00000150: aab5 a53d 878f 21bd 9a2a 35be d7c1 ea3d
00000160: d0b4 843e 4972 f7bd 8c6d e33c 11b0 a3bd
00000170: 563b 943e b45b edbc eec1 413e 6d0f 8a3d
00000180: 2c4e b53e 5b7d f63e c7d5 183e dd26 9d3e
00000190: 89d0 d5bd b7bf 8e3d 76b0 603e 4279 603e
000001a0: 7833 c83e 4ae4 fc3d baa5 d83d ca39 e03d
000001b0: 8fb3 dabd bd0e 2cbd 6bdd 1d3e 75f3 b3bd
000001c0: 4ab5 7fbd 33f5 153d 2361 da3c 7158 fe3c
000001d0: 750c 693d 3997 c93d 5649 3d3e f07e 9bbe
000001e0: 38c3 963e a1ee eebd 8dca b13d b0cd 95ba
000001f0: 0423 0f3e 0480 8abc 8fe9 1d3e 3570 013d
-0.117819995 0.025092991 -0.016856432 -0.10589811 0.2378596 0.14610793 0.024939757 -0.07694685
0.0961837 -0.06667504 0.13406323 0.27879745 -0.0504973 0.2853644 0.31348866 0.046093136
0.03607827 0.40609407 0.032685086 0.078473665 -0.14436445 0.096253894 -0.030084522 0.14710616
0.062122136 -0.012055445 0.21670637 0.043953408 0.016475674 0.42265403 -0.10812031 0.53313714
-0.10969862 0.21970758 -0.49211067 0.24699835 -0.022693163 0.072574146 0.24625853 0.12670481
-0.032158975 0.26209375 -0.105939634 0.1891315 -0.29176873 -0.36074427 0.21038154 0.42835715
0.13023724 -0.06116981 0.33876437 -0.10278437 -0.12133302 0.21798655 0.4081751 0.097686246
0.085152864 0.33059785 0.18741682 0.11215159 0.048371714 0.2794655 0.5557999 0.021149838
0.22427757 0.019718444 -0.08875572 0.27813378 -0.089774355 0.22400108 -0.10243289 0.0046582716
0.22632463 0.06576563 -0.07518711 0.056707613 -0.020547412 -0.092324555 0.008596018 0.016250167
-0.07908881 0.040079013 0.30749166 0.1270205 0.0809129 -0.03944352 -0.17692032 0.11462753
0.259192 -0.12082345 0.027762197 -0.079925664 0.2895152 -0.028974392 0.18921635 0.067412235
0.35411203 0.48142514 0.149253 0.30693713 -0.104401655 0.069701605 0.21942315 0.21921256
0.39101768 0.1234823 0.10578485 0.109485224 -0.10678779 -0.042006243 0.15416496 -0.0878667
-0.06242875 0.036610793 0.026657647 0.031048032 0.056896646 0.098432966 0.18485007 -0.30370283
0.29445815 -0.116666086 0.086812116 -0.0011429098 0.13978201 -0.016906746 0.15421127 0.03160115

encoder.output1.weight f4 [2, 128]
00000000: 66d6 38bc 655d 403c 1346 303d dafb e13d
00000010: 785f b9be 9c03 1c3e a6b4 7abd a760 c13c
00000020: 62a2 473c 3720 d6bc 8840 b13d f7f0 893d
00000030: ccd5 733c 78bf eb3d d4ec 28be 6d83 413c
00000040: 5680 a03d 908d 74be 4590 40bd deca d53d
00000050: 5b48 493b 302b 063e 25ad 5dbb 82dc 923d
00000060: fccb 3fbd 7b6b 5abb 3175 c83d 64cd 043d
00000070: e5d3 8c3b 2d5c e43a 88b7 2dbc a42c cbbe
00000080: 135f dd39 dd2d 59bd 3abc 303d eee3 4cbd
00000090: d95b 78bc 0357 7d3d 5b8a 113f 1f2f b53e
000000a0: 914e 663c 0069 f63e 0729 6a3c 7b31 0d3e
000000b0: 08eb 0ebf 1aaa c83c bc3d cc3e 8589 5d3c
000000c0: c576 67bd 60f8 d5bc 0b6f 4a3e adff 033d
000000d0: 0867 94bc 1fdf c23d 2b34 a73e 054a 0ebd
000000e0: cd94 573d 8475 163e 63e2 babc 8815 8d3e
000000f0: c7db 0a3c 761f 0dbe 55a2 87bc 7203 b3bd
00000100: 8f11 35bd 3162 293d 1f61 ea3c 3a54 87bb
00000110: b0e2 913d 9ba1 e7bd a144 43bd 251a 2f3d
00000120: 77c8 46bc 83a0 893e d3da 0dbd 80c1 68bd
00000130: f44d c23d 5263 1b3d d76a 46bd 6de4 623d
00000140: f38a a8bd 254b 0c3d 08d2 e83c cc8b a43d
00000150: 8e9f 763e 685f 253d d28e 3dbe 5aa5 8bbd
00000160: f3a9 8f3d 0efb 3e3d 9481 7c3e 3d6e c7bc
00000170: 8fa3 64bd 04e9 983d 8ea0 7f3d fa07 803e
00000180: 43d2 37be b39c 85bd 492c c63d 3a63 93bc
00000190: d597 ec3c bc89 29bc 7543 56bd 30b4 c6bd
000001a0: d4e6 31bd 6512 e3bd 7939 ccbd 7e3e 123c
000001b0: 3dd0 0fbc 6330 16bd 5a29 59be 7a36 5b3d
000001c0: 44b7 f93b bc7a 95bd e145 4ebc 0b8d 7abd
000001d0: a314 06be df04 a8bd 2866 a63d 2188 843e
000001e0: 848e 99bd 7f3d 183e 4620 643c 139e d1bb
000001f0: a5dc 96bc 3684 153d 279d 003e 8616 87bd
00000200: b510 683d 6a45 57ba 92f9 6dbd 5dd3 7e3d
00000210: db89 e73d 08ba 13be 61d6 7d3d 075a 803b
00000220: f961 e83c cdc5 423c ad7c bcbd 4851 f2bd
00000230: 3f9c b3bb 38d2 01be 80ae 55be 467f 013c
00000240: c8c9 553a c09b ad3e a7a7 903d 52ee 0ebe
00000250: a9d5 6a3d 572a 9bbd 4750 93bc 31f8 19bd
00000260: c1f6 9d3d 7526 9abd 1ce6 8b3d 9f6d fa3c
00000270: 1019 ebb9 18d8 013b 6285 a0bb 92e2 a43e
00000280: 6b5d 723b 2cde d7bc 5348 15bc 10f4 66bd
00000290: 0f26 0f3d bc9a 77bd f8e7 bc3e 9d93 963d
000002a0: c468 c8bc 2aea 913e 216d b93c 0932 76bd
000002b0: 5869 a0be c155 e0bd 05b8 a13e 7604 5bba
000002c0: 134d 57bd cd5c 58bd d7eb ac3e 095d 5d3d
000002d0: 9778 42bc cf7e 71bd cf2a b03e 713c 8abd
000002e0: 51a4 183c d8e5 89bd afd8 d4bd a609 5dbc
000002f0: 7e5b 6b3d dc40 893e 2fc6 383c d0f4 603d
00000300: 85a1 963c c0be 0ebd 4a6b 1ebd 5d5e c7ba
00000310: d5e7 cd3d ff6c 18be 8305 893b 89f2 ab3b
00000320: 66f2 953d 3978 d5bd 6f4b d1bc 0860 8b3c
00000330: 2c52 0cbc d550 9cbb 6de2 78bd cfad 06bc
00000340: 63b3 bbbc 615e 8dbd fa3a 023c 6734 863d
00000350: 42fc 343a a423 67bd 4737 f33d 5572 843d
00000360: 0e10 4abb 42d3 e9bb 16dc dabd 40c8 f3bc
00000370: 4fe0 c73e def3 71bd aef9 7f3d 7413 a93e
00000380: 559d 6f3d b831 b43e 8127 9cbd a02e 8d3c
00000390: 5b32 b13c 96c5 743d 4357 c23c 5ef4 91bd
000003a0: fc1e 56bc ec3b c8ba 343a ae3a 6f1b bfbd
000003b0: 160a 47bc 4cc1 963b 9c06 9bbd 72f4 1fbb
000003c0: d6c7 653d 769a bfbc c5c7 48bc 0d55 0a3a
000003d0: 8c04 a1bd f378 9bbc 0cf2 ccbd b283 333e
000003e0: fb4b 12be ee9d c73b 8863 f0bb 892a 9b3e
000003f0: 1906 9dbd 6041 0dbd b8ef 2abe a8d3 1cbc
-0.011281585 0.011741017 0.043035578 0.11034365 -0.3620565 0.15235752 -0.061207436 0.023605658
0.012184711 -0.026138408 0.086548865 0.067354135 0.014882516 0.11511129 -0.16496593 0.0118111195
0.07836978 -0.23882127 -0.047012586 0.104390845 0.0030713293 0.13102412 -0.0033825126 0.07170965
-0.046825394 -0.0033328224 0.097879775 0.03242244 0.0042977207 0.001742249 -0.010602839 -0.39682496
0.0004222324 -0.053022254 0.043148257 -0.05002206 -0.015158617 0.06185056 0.5685174 0.35387513
0.014056818 0.48126984 0.014292008 0.13788407 -0.5582738 0.024495173 0.3989085 0.013521557
-0.05650975 -0.026119411 0.19768922 0.032226253 -0.018115535 0.09515213 0.32656989 -0.03473856
0.05263214 0.14693266 -0.022813028 0.2755549 0.008475251 -0.13781533 -0.016556898 -0.087408915
-0.0442062 0.04135341 0.028610764 -0.0041299136 0.07123315 -0.11310121 -0.04767287 0.042749543
-0.0121327555 0.26880273 -0.034632515 -0.05682516 0.09487525 0.037936516 -0.048441734 0.055393625
-0.082296275 0.03425135 0.028420463 0.08034477 0.24084303 0.04037419 -0.18511513 -0.06818648
0.07014837 0.046626143 0.24658805 -0.024344558 -0.055820044 0.07466319 0.062408976 0.25006086
-0.17951302 -0.06524029 0.096764155 -0.01799165 0.028880993 -0.01034778 -0.052310426 -0.09702337
-0.043433025 -0.11087493 -0.099718995 0.008926032 -0.008777675 -0.03666724 -0.2120718 0.05351875
0.007620724 -0.072988 -0.012589903 -0.061169665 -0.1309381 -0.08204054 0.081249535 0.25885108
-0.07497886 0.14867209 0.01392371 -0.0063970177 -0.018415758 0.03650304 0.12559949 -0.06596093
0.056656558 -0.00082119426 -0.058099337 0.06221329 0.11305591 -0.14426434 0.061972026 0.003916982
0.02836703 0.01188798 -0.092034675 -0.118319094 -0.0054812725 -0.12677848 -0.20867348 0.0079038795
0.0008155373 0.3390789 0.07063227 -0.139581 0.05733267 -0.07576435 -0.017982615 -0.03759021
0.0771308 -0.07526866 0.06830999 0.03056985 -0.00044841366 0.001981264 -0.004898713 0.3220411
0.003698195 -0.026351057 -0.009111482 -0.0563851 0.034948405 -0.0604503 0.36895728 0.07352374
-0.024464019 0.28498966 0.022635045 -0.06010631 -0.3133037 -0.10953856 0.31585708 -0.0008354852
-0.052563738 -0.052822877 0.33773682 0.054043803 -0.011869571 -0.058958825 0.3440766 -0.067498095
0.00931652 -0.06733292 -0.103928916 -0.01349107 0.0574603 0.26807296 0.011277719 0.05492097
0.018387565 -0.034849882 -0.038676538 -0.0015210618 0.10053984 -0.14885329 0.0041815653 0.0052474183
0.073216245 -0.10423321 -0.025548665 0.017013565 -0.008564513 -0.004770378 -0.06076281 -0.00822015
-0.022912687 -0.06902767 0.007948631 0.06552964 0.00069040444 -0.056430474 0.11875778 0.064671196
-0.0030832323 -0.0071357796 -0.10686509 -0.029758573 0.3903832 -0.05907046 0.062493972 0.33022654
0.058499653 0.35194182 -0.07624722 0.017234147 0.021630457 0.059758745 0.02372325 -0.071266875
-0.013068911 -0.0015276647 0.0013292492 -0.093314044 -0.012148401 0.0046006795 -0.0756962 -0.0024407175
0.05609878 -0.023389082 -0.01225466 0.0005276956 -0.078621954 -0.018978572 -0.10007104 0.17530707
-0.14286797 0.0060918247 -0.007336084 0.3030589 -0.07667179 -0.034486175 -0.16693008 -0.009571947

encoder.output1.bias f4 [2]
00000000: 99c6 62bd d6cb ccbc
-0.05536518 -0.02499954

encoder.output2.weight f4 [2, 128]
00000000: 2f16 e3bc b79f 853d 24e9 71bc 687c cd3c
00000010: 3262 113d 9282 07bd 0aa7 bdbd 8b56 6a3d
00000020: b3e2 b8bd 176a 38bd b43f b4ba 7cff c2bd
00000030: 92f5 773d 906a 22bd c591 64be 0340 14be
00000040: 0599 223d c6e4 9c3d 1c82 353d a514 16ba
00000050: 1dc3 1d3e aaae 5e3d f2cb 363d c71a 0a3d
00000060: 913d 533d a675 2dbd 8fc5 c0be 525c 5f3d
00000070: d3e1 503b ee40 e6be 0de1 323d 952f 52bc
00000080: fbe0 16bd 0063 77bd 47e0 343f e940 133d
00000090: 55c6 f33c 8ef3 07be 9f19 d83a eb7a c83d
000000a0: b226 2ebd 5975 2ebe bb50 86bc 7027 8c3d
000000b0: 3601 a03d e73c 9e3e eea8 0dbd 05ac 9fbe
000000c0: bdac febd 1698 22bc 1a0a 18be 6711 98bb
000000d0: 5070 54bd 9c3b dabc 280d a8bd 023a 753d
000000e0: a3fb 8b3d a9b2 08bc 9970 ae3d a455 b53d
000000f0: aeba 50be c502 7c3d ef17 fabe 8384 eabd
00000100: b28d 4cbe 8ad9 983c fadd 453d f8d0 f6bd
00000110: b35b c73d af65 a83d ce78 253d b78b 5f3d
00000120: 42c7 a1be d5b0 953d 610a 61bd 91ae a3bd
00000130: 66c1 df3c b027 27bd 8a3f 5cbe f15f 84bd
00000140: 894c cfbc bc85 d9bd aac9 aabe e7ea 63be
00000150: 13ee 323e df05 50bd ca91 f03d 1fe4 5f3a
00000160: f2e3 d1be 7e6d 433d 9a69 55bc 49ea a23c
00000170: 0b04 35be 79c8 653d bde4 7cbe 39ec 433e
00000180: 22ab a6be ceb8 f4bd a701 2a3d 12bc 14be
00000190: 8139 373a 60c2 f5bc dcf9 7dbe c843 c43d
000001a0: e8e4 d6be cf53 a1be f302 f1bd 81f6 8f3d
000001b0: b30b a8bd 447d b2bd 6dac a33d 616e 09ba
000001c0: 8e7b 923c ae5c a83b a276 b5bc b1ef d9bd
000001d0: cb7b 8d3b cea2 a23d 751b 703d d784 6a3c
000001e0: 936d 88bd 82fc b93c 5c2b 2abe cde3 753c
000001f0: 41e1 ccbc e779 f2bd eb1e b3bc 58c2 bb3d
00000200: 91f0 1d3d bf90 66ba eaed adbd 219b 1c3d
00000210: c176 243e 3cfa 083d 98f6 23be 7022 9c3d
00000220: cf1a 40bd 9b06 e33c ada8 e3bc 767b 0fbc
00000230: df07 79bd 4598 133d 731e 5a3d ae69 e7bd
00000240: bbfc a23d 71c0 863e 3bab a3bd 1ffc 59bc
00000250: dffa cb3d a095 5bbc 08b7 6fbd c5ef c5bd
00000260: 654a 413c cd7d 0dbd f1a5 a9be f521 a63d
00000270: e8c0 2ebd 84aa 8fbe 87a5 74bc dcb3 b03d
00000280: 6ec4 7dbd cf5f 15be 9af9 f23e 4845 b2bd
00000290: 440b f4bd 40b8 1bbe 80a0 953d 4cd6 033e
000002a0: 8b04 82bd 2788 d13d 4b06 60bd 421c 8bbc
000002b0: 26bf a53e cc5f df3e 1a79 a9bc 7695 cdbe
000002c0: 1709 aebd e7c1 f83b feeb 2d3e 102d 673d
000002d0: 968a 1a3d a876 a83d cf10 87bd 4d3b abbd
000002e0: 4b83 713d 64a9 37be fb22 093d e3c7 02bd
000002f0: 0ddf d3bd 40c4 cf3d f379 76be f453 84bd
00000300: 0355 8bbe eb2a 09be d922 7d3d f18e a0be
00000310: 0135 c7bd 09b2 6c3d 78ae c2bc 75e0 7e3c
00000320: 3980 88be 99d8 303d fb5d 89bd bc6d b83c
00000330: 560b a83d a2df a23d 23ab 96bd 153e 873d
00000340: 9a04 37bd 72be 38be 40a6 bcbe 43dd bcbe
00000350: e259 23bc 9ecc 04be 1a02 613e 0c12 ac3d
00000360: ae2c bcbe 06cf 723d 4bc4 0c3d 88f0 cd3c
00000370: 0511 6d3e 2b4f ebb9 1bd2 98be f65b b03d
00000380: 4da2 05bf 7665 233e 7275 603d 4802 a4be
00000390: 2ca3 913b d20e abbd b84d 91bd 2696 ff3c
000003a0: 18f6 29bf c169 51be bf18 22be bffb b63d
000003b0: 718c 173d d043 f4bd ca4b b13c 6327 953c
000003c0: dc22 77bd 8174 893d 68e0 fdbc a9dd 58bd
000003d0: 386e a73d 5c93 9c3b 615c 483d 8fc9 523d
000003e0: df77 ab3d f258 bf3d d4c4 0fbe 2e44 413e
000003f0: 7b26 c43d 2fc8 f5bd 0e7d 623d 2717 863d
-0.027720539 0.06524604 -0.014765058 0.025083736 0.035494037 -0.033083506 -0.09260376 0.05721144
-0.090276144 -0.04502305 -0.0013751895 -0.09521386 0.06053693 -0.039652407 -0.22321232 -0.14477544
0.039696712 0.076608226 0.044313535 -0.0005725122 0.15406461 0.05436579 0.04462809 0.033716943
0.051572386 -0.042348526 -0.37650725 0.054531403 0.0031872883 -0.44971412 0.043671656 -0.012828727
-0.03683565 -0.060397148 0.7065472 0.035950575 0.029757658 -0.13276502 0.0016487128 0.0978907
-0.04251737 -0.17036952 -0.016395917 0.068434596 0.07812731 0.3090584 -0.034584932 -0.31185928
-0.12435291 -0.009923955 -0.14847603 -0.0046407464 -0.051864922 -0.026639752 -0.08205634 0.059869774
0.06835105 -0.008343377 0.0851757 0.08854225 -0.20383713 0.06152608 -0.48846385 -0.11451056
-0.19975927 0.018658418 0.048307396 -0.120515764 0.09734287 0.082225196 0.04039841 0.0545766
-0.31597334 0.07309119 -0.05494154 -0.0799228 0.0273139 -0.040809333 -0.21508613 -0.06463612
-0.02530505 -0.10621211 -0.33356982 -0.22257577 0.1747363 -0.05078685 0.11746557 0.00085407676
-0.4099422 0.04771184 -0.013025666 0.019887106 -0.17677324 0.05609939 -0.24696632 0.1913308
-0.3255244 -0.11949311 0.041505482 -0.14524868 0.0006989465 -0.029999912 -0.24802345 0.09583241
-0.41971517 -0.31509253 -0.11768141 0.07029439 -0.082053564 -0.08715299 0.07991872 -0.0005242583
0.017881181 0.0051380014 -0.022151295 -0.10641421 0.004317736 0.07941209 0.058619935 0.014313898
-0.066615246 0.022703413 -0.16618103 0.015007925 -0.025009753 -0.11839657 -0.021865329 0.091679275
0.0385595 -0.00087953726 -0.08492644 0.03823388 0.16060926 0.033441767 -0.16012037 0.07623756
-0.046900567 0.02771311 -0.027790392 -0.008757463 -0.060798522 0.036033887 0.053251695 -0.11299454
0.07958361 0.26318696 -0.07991644 -0.013304739 0.09959959 -0.013402373 -0.05852416 -0.09664873
0.011797522 -0.0345438 -0.33134416 0.081119455 -0.04266444 -0.2805978 -0.014932043 0.086280555
-0.061954908 -0.1458733 0.47456056 -0.087046206 -0.11916211 -0.15207005 0.073060036 0.12874717
-0.06348523 0.10231047 -0.0546935 -0.016981248 0.32372397 0.43627775 -0.020687629 -0.40153092
-0.084978275 0.0075914743 0.16984555 0.05643946 0.037729822 0.08225757 -0.06595003 -0.0836092
0.0589631 -0.17935711 0.033480626 -0.031928908 -0.10345278 0.101448536 -0.24069957 -0.06461325
-0.27213296 -0.13395278 0.06180081 -0.31359056 -0.097269066 0.057786975 -0.023764834 0.015556444
-0.26660326 0.043175314 -0.067073785 0.022513263 0.08205287 0.07952811 -0.073568605 0.06603638
-0.044682123 -0.18041399 -0.3684559 -0.3688756 -0.00997016 -0.1296868 0.21973458 0.0840188
-0.36752838 0.059279464 0.034366887 0.025139108 0.23151024 -0.00044881678 -0.29847798 0.0861129
-0.52200776 0.15956673 0.054799505 -0.3203299 0.0044445004 -0.08352436 -0.07094902 0.031199526
-0.66391134 -0.20450498 -0.15829752 0.089347355 0.03699917 -0.11926997 0.021642584 0.018207258
-0.06033598 0.067116745 -0.030990794 -0.052945767 0.081753194 0.004778309 0.048916224 0.051461753
0.08372473 0.09343137 -0.14039928 0.18873665 0.09577652 -0.120010726 0.055295043 0.06547385

encoder.output2.bias f4 [2]
00000000: 37e6 30be 0c60 82be
-0.1727532 -0.25463903

decoder.network.0.weight f4 [128, 2]
00000000: 3aab 2bbf fc98 b6bd 3153 01bf 331c 0cbf
00000010: 512f 1fbe ee7c 2d3f 86b1 393f c819 f5be
00000020: 9a90 a2bf 993e 023f 7aa3 1abe 43e6 f7bd
00000030: 6430 423d 5643 943d f28a e9bd 937e 7abf
00000040: 05e1 80bd 0a0b 0f3f 0b53 193f c79c 3f3f
00000050: 570e 0ebf 93f3 20bf 0f36 02bf 8274 623e
00000060: 6a45 323f c049 6d3f 4e84 0f3f 7627 11bc
00000070: 7e9e 3a3f d3a8 8fbf aa02 213f 59cf 0d3f
00000080: 766d 3b3f 7407 513f d41a 63bf a59b 773f
00000090: b50b ccbe 4474 1a3f 67c9 5cbf 1130 bfbe
000000a0: 8144 6d3c 3c94 70bf 3de4 83bf 7fe0 fabe
000000b0: 11cf 82be 009c 77bf 970e 4abe 44d7 8ebf
000000c0: 668c 5fbf 0f38 d5be e0bc 49bd 2d8c cf3e
000000d0: 8062 183f 57ca 3bbf 1c16 5cbf 8be1 4f3f
000000e0: d0eb 803e 6af5 4f3f e2b3 71bf 60d6 13bf
000000f0: 2dbb b5be 229b be3d d205 af3e 98a3 603f
00000100: b896 aebf 074b 90be d8aa 8dbf 4b0b bcbe
00000110: 7810 573f 0bab 07bf d39e 35bf 8b4c 0cbe
00000120: 1d85 bebe d1fd 143f 77c7 b8be 336b 0c3f
00000130: 0569 a33e ad10 753f e1f0 df3e dfc9 24bf
00000140: d922 28bf c95f 503f 5776 abbe 1fb5 b9be
00000150: 3565 01bf 0472 2a3f 0de9 bfbe 56de 77bf
00000160: d41e 573f ca3a 80bf 1863 2f3f e64c 33be
00000170: c36a 253f 3a40 6f3e 8ce7 5dbf fe2b 1ebf
00000180: 98b5 42bb 1d09 5c3f 4b3b c1be 269b 2abf
00000190: 1ddd 233e fd4e 04be 9302 883e 67e7 42bf
000001a0: 2e32 113f 2004 09bf cd8f bbbe 9902 453f
000001b0: 8834 10bf 5f2b 50bf 3a37 633f c3e4 3bbf
000001c0: 7e14 6abf 78c9 35bf b0ea 1f3f 729d 0e3f
000001d0: f92e 413f bdfd 533f 108d 683d b585 cabe
000001e0: 7e4a 51bf 01f9 60bf aea6 2f3f 0adc 333f
000001f0: 534d 8ebd 3453 dc3c 5ca9 a9be dd4b 99bf
00000200: 3a75 72bd 04d8 6abf faae fd3e be9f e53e
00000210: 5311 183d 132b 123f 1827 f9be 0b9a 383f
00000220: 8d34 193f 746e 383f 69ee 12be 5ef1 573f
00000230: 1df9 d03e 4c40 363f b17b 363f fd21 6e3f
00000240: 3fbe 7dbf 887c 233f 1300 5dbc f382 16bf
00000250: 1920 9dbe 4616 2d3f 5c87 c0be e322 92bf
00000260: f07f 8bbf 46ac 42bf ea86 483f 5df4 55bf
00000270: d02a 0a3d 100d aabc f2a5 34bf 4612 623f
00000280: 2912 493f 5b07 673e b025 35be c2ea edbd
00000290: 5df5 573f 32a4 3b3e 1c3d dabe 64ac 23bf
000002a0: 16b9 4cbf 330c 35bf daff 7bbf c70f 8a3f
000002b0: 2699 033f 56a8 0f3f 4610 393f 6a39 283d
000002c0: a702 64bf 2294 47bf b7e2 153e cd0c 16be
000002d0: 1fa1 f23e 827e 51bf c3a5 133f e922 47bf
000002e0: 04ce df3e 1ad4 0e3f 9e9b 233f 9aef 003e
000002f0: c33c fdbe 3a92 3f3f cdff 1c3e 2c33 af3d
00000300: abd4 3ebf e8b8 4ebf eb88 443f ed8d 90bf
00000310: dd75 433f 8d79 d0be 61b9 86bd a425 623f
00000320: 67db f93e 7864 aa3c 44e6 93be dee1 f03e
00000330: d097 4a3e bfa1 4f3f fb30 483f bf24 653e
00000340: 93ac 973f eeb4 00bf a07e 2fbf a1b4 55bf
00000350: 7575 8f3e 964d 233b 9abb d73d dbad 61bf
00000360: 30d1 513f 787e 0c3f c8b9 8bbe 2eef 463f
00000370: 63aa 81bf dd6b d2be 4774 2ebf 41b0 84be
00000380: e3da 293f ae6a cebd dee1 0e3f c3e7 353e
00000390: d30b 973e dd71 07bc 1d00 8fbe 665f 2f3f
000003a0: 2df3 3b3f 5651 773f 3da5 3fbf 6976 733f
000003b0: 842e 063f ac04 4dbf 88c7 a83d 6cbe 88bf
000003c0: 3df6 8f3f baa4 a93e 922f 24bf 5718 1bbe
000003d0: f17a 0c3f f3d3 2f3f 6ce1 c83e 4cae 0d3f
000003e0: be94 9cbf 5c20 a8bd af5a f3be ad0c 6a3f
000003f0: 7fc2 3bbf 85f3 6e3f 0f71 a83e c79f 523d
-0.67058146 -0.08915898 -0.50517565 -0.5473053 -0.15545394 0.6776875 0.72536504 -0.47871232
-1.2700379 0.50876766 -0.15101424 -0.12104466 0.04740943 0.07239406 -0.11403455 -0.97849387
-0.06292919 0.5587622 0.5989234 0.748486 -0.5549063 -0.62871665 -0.50863737 0.22114757
0.6963717 0.9269066 0.56061256 -0.008859506 0.7289809 -1.1223396 0.6289469 0.5539451
0.732139 0.81652 -0.8871281 0.9672187 -0.39852682 0.6033366 -0.86244816 -0.3734136
0.014481665 -0.9397619 -1.0304028 -0.48999402 -0.25548604 -0.9672241 -0.19732128 -1.1159444
-0.87323606 -0.41644332 -0.04925239 0.40536633 0.595253 -0.7335562 -0.85971236 0.81203526
0.2517991 0.8123385 -0.94415104 -0.57748985 -0.35494366 0.09306933 0.34184128 0.87749624
-1.3639746 -0.2818224 -1.1067762 -0.36727366 0.84009504 -0.52995366 -0.7094547 -0.13701074
-0.37210932 0.58199793 -0.3608968 0.54851073 0.3191606 0.9572857 0.43738464 -0.6437053
-0.65678173 0.81396157 -0.33488724 -0.36270997 -0.50545055 0.66580224 -0.3748249 -0.9682363
0.84031415 -1.0017941 0.6851058 -0.17509803 0.6461603 0.23364344 -0.8668144 -0.61785877
-0.002971029 0.85951406 -0.3774055 -0.6664299 0.16002317 -0.12920757 0.26564464 -0.7613434
0.56717193 -0.5352192 -0.3663315 0.7695709 -0.56330156 -0.8131618 0.88756144 -0.7339594
-0.9143752 -0.7101054 0.6246748 0.5570899 0.754623 0.8280905 0.056775153 -0.39555135
-0.8175429 -0.8787995 0.6861371 0.7025763 -0.06948342 0.026895143 -0.33137023 -1.1976277
-0.059193827 -0.91735864 0.4954756 0.44848436 0.037125897 0.57096976 -0.4866264 0.7211005
0.5984581 0.7204354 -0.14348759 0.8435267 0.40815058 0.7119186 0.7128249 0.9302061
-0.9911842 0.63861895 -0.013488787 -0.5879356 -0.3068855 0.6761211 -0.3760327 -1.1416897
-1.0898418 -0.7604412 0.7833086 -0.83575994 0.033732235 -0.020758182 -0.7056571 0.88309133
0.78543335 0.225614 -0.17690158 -0.11617042 0.8435877 0.18324354 -0.42624748 -0.6393492
-0.7996992 -0.7072174 -0.98437274 1.0786065 0.5140556 0.56116235 0.72290456 0.04107038
-0.8906655 -0.7796041 0.14637266 -0.1465332 0.4738855 -0.8183366 0.5767481 -0.77787644
0.43711865 0.5579239 0.6390933 0.125914 -0.4946042 0.748325 0.15331955 0.08554682
-0.74543256 -0.80750895 0.7677142 -1.1293312 0.7635172 -0.40717736 -0.06578327 0.88338685
0.48800203 0.02079986 -0.28886616 0.47047323 0.19784474 0.8110618 0.7819974 0.22377299
1.184954 -0.50276077 -0.6855259 -0.8347874 0.280193 0.002491807 0.10533829 -0.8815591
0.8195982 0.54880476 -0.27290177 0.7770871 -1.0130123 -0.41097918 -0.68146175 -0.2591572
0.6634962 -0.10078941 0.55813396 0.17764191 0.2950121 -0.008266893 -0.27929774 0.6850494
0.7341793 0.96608484 -0.7486151 0.95102555 0.5241473 -0.80085254 0.082411826 -1.0683112
1.1247021 0.3313349 -0.64135087 -0.15146004 0.54875094 0.68682784 0.39234483 0.5534408
-1.2232893 -0.08209297 -0.47530124 0.9142559 -0.7334365 0.9334033 0.32898757 0.051421907

decoder.network.0.bias f4 [128]
00000000: dfb5 143f 4517 a53e 2132 29bf 7e13 533e
00000010: bfa7 dcbe acce 5b3f eda6 633f 7585 5abf
00000020: d992 553f 0d6e abbe 6945 b03e f1d7 813f
00000030: af1b a3be fa2a 673f 030c dfbe 8212 0cbe
00000040: 830f d3be c232 d8be 3962 063e ef8f 9fbd
00000050: 4b72 d7be e40b 503d 035f 36bf f98e 3c3d
00000060: a211 2e3d 871b 453e ffea 0bbe b86b c5be
00000070: b993 0e3d ed8d 173e 5f91 253f 4ae9 e63e
00000080: 8663 52be 93f7 99bd ca9b 52bf 6d14 093f
00000090: fc52 cd3d 0aa6 f4be e415 8b3c 4f31 8c3e
000000a0: 7c0b abbe 953a 293e fba0 7fbe f2ba a83d
000000b0: 2715 d03e 59e1 fc3e 4902 03bf aa88 923e
000000c0: 6bb5 b33e 99f3 2e3f 75ec 523f 8087 1f3f
000000d0: c463 d73d 17d9 7ebe 95bb 913e 2136 2fbe
000000e0: 6340 8b3e 1b4d f0bd dd3b d9be 63e1 cb3e
000000f0: 3f89 023f ce3c 18be 29dd 9fbe 17d7 41bf
00000100: 9256 8cbf 9c7e 96bd 0b2f 4a3f 71bf 6ebe
00000110: 40d2 d4be b6b3 49bf c451 0dbe 11fe bebe
00000120: 242b 8d3e 8c04 213f 0359 1cbf 0588 4dbf
00000130: 6a6e 0ebc a535 ae3e 764b 81be 3dff c83d
00000140: 8f13 ddbe dd4f 5f3f 608c 61bf a7c3 0e3f
00000150: 8d0c f53e 8151 393e 8916 83be d5a9 a23d
00000160: fcaf 913e 5201 5e3f 1143 f73e bcd5 26be
00000170: 317d 5dbe 0fb3 2c3e 0f6d 8ebe 040a c93e
00000180: 9c84 d93e 8334 bbbe 8118 97be d3d5 b93e
00000190: 1e98 333f 0500 ccbe 3248 293f 49a4 273f
000001a0: f506 e7be 7aaf 19bf e372 2c3f 096a f3be
000001b0: 4a81 63be 129e 35bf c7dd 45bc 6616 173f
000001c0: 91a3 4dbf 34f0 4a3e 9979 813f b49f 3a3f
000001d0: d91d 9fbe 8517 b7be 02c1 003f 22ba eabe
000001e0: 98b6 15bf 7c01 5d3f 6cd6 73bd b307 183d
000001f0: b16a 8cbe 1f8a 7f3e e53f 213e 1aba aa3e
0.58090013 0.32244316 -0.66092116 0.20612904 -0.4309673 0.8586223 0.88926584 -0.8535989
0.83427197 -0.334824 0.34427956 1.0144025 -0.31857058 0.9029995 -0.43563852 -0.13678935
-0.41222772 -0.42226225 0.13123406 -0.07791125 -0.42079386 0.05079259 -0.71238726 0.046034787
0.042497285 0.19248782 -0.13663863 -0.38558745 0.034808848 0.14800234 0.64674944 0.4509986
-0.20545778 -0.07517924 -0.82268965 0.5354679 0.10025594 -0.47782928 0.016978212 0.2738137
-0.334072 0.16526254 -0.24963753 0.08238782 0.40641138 0.49390677 -0.5117536 0.2861989
0.35099348 0.6834045 0.82392055 0.6231613 0.10517076 -0.248875 0.28463426 -0.17110492
0.2719756 -0.11733457 -0.42428485 0.39820394 0.5099067 -0.14866945 -0.3122342 -0.75718826
-1.0963919 -0.073483676 0.7897803 -0.23315217 -0.41566658 -0.7878984 -0.13800722 -0.37303212
0.27571976 0.62897563 -0.6107332 -0.80285674 -0.008693317 0.34025303 -0.25252885 0.09814308
-0.43178985 0.87231237 -0.8810482 0.5576729 0.47861138 0.18097498 -0.2560313 0.07942549
0.28454578 0.86720765 0.48293355 -0.1629247 -0.21629788 0.1686518 -0.2781758 0.39265454
0.42483985 -0.365635 -0.29510882 0.36295947 0.7015399 -0.39843765 0.66125786 0.65485054
-0.45122495 -0.6003338 0.67362803 -0.47541836 -0.22217289 -0.7094432 -0.012076802 0.5901855
-0.8032771 0.19818193 1.0115234 0.7289994 -0.3107746 -0.3576013 0.50294507 -0.45845133
-0.5848174 0.8633039 -0.05953066 0.037116718 -0.2742515 0.24955033 0.1574703 0.3334511

decoder.network.2.weight f4 [128, 128]
00000000: 5f03 783d b3b2 1e3e 0031 313e 7d0b 8e3d
00000010: 0400 c4bd 063a 6c3d e3cb bc3d 0934 babe
00000020: 5cc2 0dbd 1e02 31bc 51d6 a13b cc28 853d
00000030: 3a49 8ebd 06d9 a8ba 782a bf3d d0f8 9abd
00000040: d1f7 f03d 346d 29be 9da4 e93d faf6 19bd
00000050: 7a58 353c 3a21 85bd b50f b0be 029d 4a3e
00000060: 0472 d9bc a45b 37bd 7dbc 273e 0daf 22be
00000070: b8ab dd3d b734 e93b 4a86 4a3d 69b6 26be
00000080: 7dad 4d3d de3e 963d 1e5f f3bd d359 76bd
00000090: e8da 7d3d 1efd 9dbd 7fb0 4c3e 87fc 553d
000000a0: 7694 0dbe 1565 233e 32d2 51be a3c6 873e
000000b0: 66c6 38bd b026 123e a2b2 a5bc 0365 a53d
000000c0: 4650 d4bd 7745 85bd 2f1c 4f3c e92a d43d
000000d0: 931a e73d 17f6 80be 0586 d23d e75a 2b3d
000000e0: 8fb4 72bd 8f01 00be 5d16 123e 93de 7c3c
000000f0: 5445 013c 0cf8 dbbd 1039 39bc e834 53be
00000100: 241c 14bf 488d 3cbe 2211 a7bd 361f 1d3d
00000110: 27ac 253d 9c1a 5d3e 98ab 013e 9333 6d3d
00000120: 037d 973c c0ea 473d 034f 003d 22b7 bcbe
00000130: d93c 55be 0d03 34bc c44c 97bd 2f79 223e
00000140: 0a36 39bd f6a7 f23d 4135 e8bd 89f6 9bbd
00000150: 0258 2c3e 6654 373e 4deb ba3d 2024 1e3d
00000160: 021e ed3b eb73 85ba 75b2 59bc 495f 1a3e
00000170: 92ed 82bd 9b2d bc3d 7891 fcbd 2505 803d
00000180: 9ac3 c43d 96ef 153d 34f9 203c ff71 2e3d
00000190: ab97 ce3d 450c ddbc 0133 debc c4d1 0e3d
000001a0: a029 1cbd ec3f e5bd d847 ab3c 6c59 33be
000001b0: 717e 8dbd 40b8 613e 09c6 45bd e500 803d
000001c0: 4deb ccbd 996d 663d 11de 32bb 0668 153d
000001d0: f9f1 91bd 073e 81bd ce40 733d 42f1 e43d
000001e0: bbcf 47bd 3dd4 603d 909a 88bd 51b7 10be
000001f0: cfd0 2e3e 5146 0d3d b725 213d cd61 183c
00000200: a1c9 fc3b 2d00 d73d 8d16 3bbd a361 bdbd
00000210: 41a5 62be 9fa8 c4bc 6c6c 133c a01a 8abe
00000220: f8c3 b03a a471 7a3d 0567 e73d 0cd8 9b3d
00000230: 5bde cf3d 9305 c33d 4347 d33c b0f6 7ebd
00000240: 049f c33d 1ff1 52bd 7808 1fbd 9d34 19be
00000250: df5f 883d ff32 b0bd 00da 5ebe 0bc6 83bd
00000260: 8692 8cbd 8134 a43d 5b73 513e 0170 23bd
00000270: fa5f a63c 6647 883d bc33 593d 32c7 e3bd
00000280: 0678 fcbd 0035 8abd ae32 e5bd 1909 1e3d
00000290: 5562 f23c bf41 13be 115b ba3c d878 af3c
000002a0: 8be9 c7bd 7376 1a3e 572d 06bc 70f1 133b
000002b0: d747 05bd ff71 e43d e981 a5bd 2be2 803d
000002c0: 2cc7 d03c 4817 b33d 6862 903d 3f4e 433b
000002d0: da9f 243e eb55 59be caee 133e 5f77 3a3e
000002e0: a3db 9bbc 2516 65bd dd4f c73d e9ae e83d
000002f0: 7c6b 5f3d da41 cbbc 50e8 803d affa 1dbe
00000300: 2b42 28bf 4604 5cbd 6d73 c0bd 0ddc 553c
00000310: 4e85 c83d fa2a 373e 9603 463d 3d35 05bd
00000320: 8857 0a3e fec0 c03c 2daa cdbb 70f5 85be
00000330: d05b a2bd 7f55 a4bc 538f d1bc 57b5 003e
00000340: 4859 a83d 7de1 7f3d acda 4fbe fcb5 b73d
00000350: 4cc6 173e 1166 143e df93 dd3d 7cfa 33be
00000360: 0528 d13d 76b4 853d 28e7 81bd b987 553e
00000370: 13ab 8f3d a6c9 813d 1efb 1bbe 6539 df3c
00000380: 2701 a83d 6cee 363d accf 0a3d 8f4b 14bd
00000390: dcac aa3d 03fc 87bd 4699 7cbc 476c 673d
000003a0: 38bf 5b3d 155c 3bbe 2810 11bd 597d 4fbd
000003b0: 35b5 c7bb e8b1 323d 4a72 c2bc dca7 7fbc
000003c0: 2268 13bd b21c 883c 0725 bc3c b48a efbc
000003d0: 372d adbd f8f7 ffbd 7643 223d 201f 5f3d
000003e0: 230e 593d e584 a3bd 82d5 04be a2a3 5fbd
000003f0: b6d3 a7bd ad83 3fbd 9039 843c 4cc0 483d
0.06055009 0.15497856 0.17303848 0.06935785 -0.095703155 0.057672523 0.09218576 -0.36367825
-0.034609184 -0.010803727 0.0049388786 0.06501922 -0.069475606 -0.0012882061 0.09334272 -0.075669885
0.11766017 -0.16545564 0.114083506 -0.03758905 0.011068458 -0.06500478 -0.34386984 0.19786456
-0.026543625 -0.04476513 0.16380496 -0.15887089 0.108237684 0.00711688 0.049444474 -0.16280521
0.05021428 0.0733621 -0.118833765 -0.060144257 0.061976343 -0.07714294 0.19989203 0.052242782
-0.13826165 0.15956528 -0.2049034 0.26518735 -0.045111082 0.1427257 -0.02022678 0.08075907
-0.103668734 -0.0650739 0.012640997 0.10359747 0.112843655 -0.25187752 0.102794684 0.041834738
-0.059254225 -0.12500595 0.14266343 0.015433925 0.007890064 -0.107406706 -0.011305109 -0.20625651
-0.5785544 -0.1841327 -0.08157565 0.038359843 0.04044738 0.21592182 0.12663114 0.057910513
0.018492227 0.04880786 0.03132535 -0.3685847 -0.20823993 -0.0109870555 -0.07387689 0.1586654
-0.04521755 0.11848442 -0.113382824 -0.07615382 0.16830447 0.17903289 0.09126911 0.03860867
0.007236243 -0.0010181641 -0.013287176 0.15075411 -0.06392969 0.09188386 -0.123324335 0.06250981
0.096076205 0.03660544 0.00982504 0.042589184 0.10087522 -0.02698339 -0.02712393 0.034868017
-0.038125634 -0.11193833 0.020908281 -0.1751458 -0.069088824 0.22042942 -0.048284564 0.062501706
-0.100058176 0.056256864 -0.0027293006 0.036476158 -0.07126231 -0.06310659 0.059387974 0.11178829
-0.04878209 0.054889906 -0.066701055 -0.1413243 0.17071842 0.034490887 0.03934261 0.009300661
0.0077144657 0.104980804 -0.045675803 -0.09247138 -0.22133352 -0.024006186 0.008998018 -0.26973438
0.0013486138 0.061143532 0.11298946 0.07609567 0.10149833 0.095225476 0.025790816 -0.06224698
0.09551814 -0.051499482 -0.038826436 -0.14961477 0.06658911 -0.08603477 -0.21762848 -0.06434258
-0.06863885 0.08017827 0.20454161 -0.039901737 0.020309437 0.06654243 0.053027853 -0.11121978
-0.1232758 -0.0674839 -0.11191307 0.038582895 0.029587904 -0.14380549 0.022748502 0.021419927
-0.09761342 0.15084247 -0.008189521 0.0022574328 -0.032539215 0.111545555 -0.08081419 0.06293138
0.025485598 0.08744675 0.070500195 0.0029801277 0.16076604 -0.21224181 0.1444656 0.18209599
-0.01902563 -0.05592932 0.097320296 0.113614865 0.054545864 -0.024811674 0.0629431 -0.1542766
-0.65725964 -0.053715013 -0.09397016 0.0130529525 0.09791051 0.17887488 0.048343264 -0.032521475
0.13509953 0.023529526 -0.00627639 -0.26163816 -0.07927668 -0.020060299 -0.025581038 0.12569176
0.08220154 0.0624709 -0.2029826 0.08970258 0.14821738 0.1449206 0.1081922 -0.17576021
0.10212711 0.06528561 -0.06342918 0.20852555 0.07015052 0.063372895 -0.15232512 0.027249048
0.08203345 0.04466097 0.033889458 -0.03620487 0.083337516 -0.06639864 -0.015417403 0.056499746
0.053649157 -0.18296845 -0.0354158 -0.05065665 -0.0060945996 0.043626696 -0.023736138 -0.015603986
-0.03598798 0.016615245 0.022966875 -0.029240943 -0.0845589 -0.12498468 0.039615117 0.054473042
0.052991997 -0.07984332 -0.12972072 -0.05459941 -0.081946775 -0.046756435 0.01614073 0.049011514

decoder.network.2.bias f4 [128]
00000000: f9a9 22bd 4edf 4e3d fcfd 713d 487f 8c3d
00000010: 0f66 963d fb03 3b3d 73e0 ab3b 7350 adbc
00000020: a5b6 b33d 0886 443d 553d 273d e8d0 213e
00000030: b86c f63d fb5d 973d 2e6e 803c 6b7a 4d3d
00000040: 448d fd3d 48f2 fe3c c2fb 09bd f20b 21bb
00000050: fd40 2b3c 6bd0 bcbc edea 1fbb 4257 183d
00000060: b741 6cbd c6ba 1f3e 79eb 0bbd 059f a3be
00000070: afb8 8ebb 494d 35bd ec75 afbc 8db5 303d
00000080: d1f3 4d3d f349 87b9 b7a7 47bd 4178 b33d
00000090: 84e4 5abd 1b58 b13d de5b 123b 826d 5a3e
000000a0: 2dd9 553d ba80 4f3d 2242 a93b b49a 6c3c
000000b0: 2b5d 23bd 8a2a 3cbd dd35 813d bb8c 033e
000000c0: c099 0d3d 81db 353e ee13 213d 36ca 883c
000000d0: 2674 983d 72dc 373e cbfc f83d 7e1d 103d
000000e0: 804b 053e 8ee9 9fbd 4113 e73c 6cf0 e5bb
000000f0: df77 653c 9188 f5bc 07de d4bc 468b 8f3e
00000100: b226 083e b67c 7abd cc08 89bd afff f03d
00000110: 81e2 0bbd 352d d2bb fb4a 543e 7ad7 aa3d
00000120: ad04 173a 396e 463b 5c87 64bd 8c3f ac3c
00000130: 16a6 1abd f21a 8abd fbda 903e 4f43 4d3e
00000140: 4a10 8c3d c58d 61bd f99f c83c 8694 d13d
00000150: c78e e73d 5af1 083d 24d5 8fbc 4993 003e
00000160: e6d4 a43d d609 13bd facc b7bd 8928 ca3c
00000170: 6ca2 043e 5852 5c3d 0471 463d 8ecf d33c
00000180: a557 87bb cfdb ce3d fbaa 203d 80f6 92bb
00000190: 361e dd3d 4e84 a43d ab4e f5bc ca5e 9e3d
000001a0: 825d 223e 06fe b8bc 1447 8e3c 3f15 aebd
000001b0: 2ded 51bd b5fd bb3d 14ed 2f3e d8ad 563d
000001c0: 9870 89bd f21f 0e3e c8a8 623c 91a8 e73c
000001d0: 29d8 87bd 92e6 143e 1791 1a3e c27c 4c3e
000001e0: ac11 3b3e bc22 513e d4ac 0c3e 9472 6f3d
000001f0: 9847 2b3d 1a04 2e3e c6ae 493d 8ade 4d3e
-0.03971288 0.05050593 0.05908011 0.068602145 0.07343685 0.045658093 0.0052452623 -0.021156525
0.08775071 0.047979385 0.040829975 0.15802348 0.12032455 0.07390972 0.015677538 0.050165575
0.1238046 0.031121388 -0.03368736 -0.002457377 0.010452506 -0.0230486 -0.0024401501 0.03719259
-0.057679858 0.15598592 -0.03416011 -0.3195726 -0.004355512 -0.044263158 -0.021418534 0.04314189
0.05028135 -0.00025804303 -0.04874393 0.08763171 -0.053440586 0.08659383 0.002233259 0.21330836
0.052209068 0.050659873 0.0051653543 0.014441181 -0.039883774 -0.045939006 0.06309102 0.12846653
0.034570456 0.17759515 0.039325647 0.016697984 0.074440286 0.17955187 0.121575914 0.035184376
0.13017082 -0.07808219 0.028207423 -0.007017186 0.01400563 -0.029972346 -0.025984777 0.28035945
0.13296011 -0.06115409 -0.06691131 0.11767518 -0.034151558 -0.0064140805 0.20731728 0.0834188
0.00057608896 0.00302781 -0.05579315 0.021026395 -0.03775605 -0.06743421 0.2829207 0.20045207
0.068390444 -0.055066843 0.024490343 0.10233407 0.113065295 0.033433296 -0.017557688 0.12556185
0.0804842 -0.035898052 -0.08974643 0.024677532 0.12952584 0.053789467 0.048447624 0.025855806
-0.004130321 0.10100519 0.03922556 -0.0044849515 0.10796778 0.080330476 -0.029944738 0.07732923
0.15855983 -0.022582065 0.017367877 -0.08500146 -0.05125158 0.0917925 0.17180282 0.052411884
-0.06710929 0.13879374 0.013834186 0.02827862 -0.06633026 0.1454108 0.1509441 0.19969466
0.1826846 0.20423406 0.13737804 0.05845888 0.041816324 0.16993752 0.049238943 0.20104423
