models/mnist_vae_dims_128/vae_9d.pth (torch, 957594 bytes, 14 tensors)

encoder.network.1.weight f4 [128, 784]
00000000: 5c71 603b 4a4a 50bc 4126 70bc bdf8 07bd
00000010: 9311 fcbb e514 abbc 6edb 0938 85a7 debc
00000020: d711 353c f88d 6cbc 62bb 00bd 1c27 a63b
00000030: 980f 08bd b02a d7bc b3ab 48bc eeda 8b3b
00000040: 7e20 9dbc b578 a3bc 0ec0 283c d3c6 dabb
00000050: 5cf1 0fbb 9315 7e3b f2e1 11bd 9c2b 433c
00000060: 6e89 583c 4a9b a5bc 4f71 0cbd a3ec a63c
00000070: 38f7 62bc 930e 3f3c 93ba 40bb 8317 ad3c
00000080: a57c c4bc 969d d7bc cd62 e93c 9dd0 f4bd
00000090: 8464 b7bd b49c bfbd 64d4 c5bd 54d1 09be
000000a0: c6ef 9bbd 554f 59bd 9cba 6dbd c2b4 9c3c
000000b0: b8c9 293d 6987 33bd 67b6 cabd 6978 b7bd
000000c0: 5ef3 9bbd d4c9 0ebd 6b31 b6bc 716f b8ba
000000d0: 05dd 1c3c fae8 aabc 3161 b6bc 937c 92bc
000000e0: e12a 683c 8568 093d 9b03 dabc a41a 493d
000000f0: fd58 cbba 742d 123d b6d8 a5bd 7c12 60bd
00000100: 4e78 b9bd 47cd 733b 6931 483b 31b2 943c
00000110: 73de 853c b76c 943c 6b28 b1bb b8f4 41bd
00000120: f197 9ebc a57b 6ebd fe70 b3bc 70c7 8fbb
00000130: 1ef9 fcbc 0458 f7bc 51bf b7bd d24b 86bd
00000140: dbc7 1cbd 4fc0 1c3d 4ab3 203b 710d e4bc
00000150: 7a0c d5bc 01a2 3dbb 9ed7 32bd e3c6 c7bc
00000160: ddaa b23b 06ff e9bd 20c9 13be 36bc b3bd
00000170: bf99 1e3b 9627 a33c 1a0e 953d ecf0 8b3d
00000180: cde4 283d 146c 513d ace8 78bc 0583 85bc
00000190: f769 27bd 40e0 6cbd bd7e 23be 8375 46be
000001a0: 23ff 3bbe 2847 98bd ed29 acbd 1ab0 ffbd
000001b0: 48f6 8ebd 33fd f3bc 9aea ebbb 33aa 2c3c
000001c0: 9375 fa3b 18fd 373d 5589 34bc 7d22 f0bc
000001d0: 015f ee3c ec51 a23c 0796 b7bc f45d efbc
000001e0: 2b00 533d 78a8 fa3c a43b 003d 1481 5c3d
000001f0: 4af5 063d f739 0dbc 700d 4b3a c822 38bc
00000200: beba 78bd adc0 cbbd 94ad 13be 5078 26be
00000210: 3bd4 7abe 9911 39be 9578 35be 68e2 ebbd
00000220: 5bce d0bd 506d 0dbd 1f68 8abd 9f8c 12bd
00000230: 788c ddbc 7cf7 69bc d745 bbbc 09b1 08bd
00000240: c14b 383d 3b7b 183d fccd 123c d66d 193d
00000250: f258 193d 7910 6e3d f097 1a3d 6e3d b13d
00000260: 1165 8f3d d266 763d 90fc 123c d23d fcbc
00000270: 99d5 8cbd 0ba7 afbd 5d1c f6bd 743a d4bd
00000280: 2f71 5dbe d6e5 80be 86cb 8bbe 75de 81be
00000290: 37d0 edbd 501b 8fbd 1199 6dbd 6349 dfbb
000002a0: 65d2 843c d833 753d 2ea0 6ebc a4ac 903c
000002b0: 07d6 9d3c feb3 e93b 875d e23c 775b 6c3d
000002c0: b4c1 8f3c 1c36 843c 97b8 2c3d 83f8 913d
000002d0: d6c3 6f3c 0b87 d43c 2ae4 dd3c 4b93 1dbc
000002e0: 1762 55bc 1d91 85bd aab6 b0bd fd50 d7bd
000002f0: 0d0c 2ebe c66b 67be fae3 74be 3500 66be
00000300: a074 22be 1feb 17be a1ec b8bc a514 843d
00000310: 2028 863d d67b c5bc 3ee3 9fbc e2d7 0f3d
00000320: ea6d 4c3c 5460 d33b 4bd9 05bc bc60 193d
00000330: be41 163c 5404 9fbb 955b 273d cfa8 1c3d
00000340: c1d6 293c 8e98 c6bb 1ec0 5e3d 4a37 143d
00000350: 8a74 31bb ceae 56bd 7688 01be 0c1b c0bd
00000360: 2d3e 13be 27f0 4abe 5865 42be 122f 51be
00000370: 806e 31be e6b2 0ebe b896 4c3d c9af 993c
00000380: 9686 cb3d 9423 6b3c e738 263b 9413 fcbc
00000390: c004 5c3c 2e52 24bd b656 7dbc 0149 bbbc
000003a0: 32b7 7ebc c02d b4bc ee2c f7bc 9696 6e3c
000003b0: a09d 9bba 03e6 ef3c b517 8a3d 4b43 9c3d
000003c0: 6070 123d 5c79 26bd c334 e2bd 4aab 1cbe
000003d0: b891 eabd 9a89 05be 022f 26be 4120 dabd
000003e0: 858c 33be 98c8 b6bd 0c0f 3abd c748 15bd
000003f0: adb8 483a 7482 cabb 7f5a 06bc 1f7b 333c
0.0034247255 -0.012713024 -0.014657558 -0.0331962 -0.0076925247 -0.020883987 3.2867705e-05 -0.027179489
0.011051617 -0.014438145 -0.031428702 0.00507058 -0.033217996 -0.026265472 -0.0122479675 0.004268042
-0.019180533 -0.019955019 0.010299696 -0.0066765337 -0.002196393 0.0038770183 -0.03561587 0.011912253
0.01321636 -0.02021565 -0.034287747 0.020376509 -0.013852887 0.01166119 -0.0029408082 0.021129375
-0.023985216 -0.02632026 0.028489495 -0.11953852 -0.08954719 -0.093560606 -0.09659651 -0.13458759
-0.076140925 -0.053054173 -0.058039293 0.01912916 0.04145214 -0.04383031 -0.09898072 -0.08958513
-0.07614778 -0.034860447 -0.022240361 -0.0014071298 0.00957418 -0.020863045 -0.022263141 -0.017881667
0.014170379 0.033546943 -0.026613047 0.049097672 -0.0015514191 0.03568788 -0.08097975 -0.054705128
-0.090561494 0.0037201212 0.003054703 0.018151375 0.016341424 0.018118246 -0.0054064295 -0.047352523
-0.01935956 -0.058223385 -0.021904465 -0.0043877885 -0.030880507 -0.030193336 -0.089720376 -0.0655743
-0.038276535 0.038269337 0.0024520927 -0.02783844 -0.026006926 -0.0028935673 -0.04366266 -0.024386829
0.0054524974 -0.11425595 -0.14432192 -0.08776133 0.0024200527 0.019916337 0.0727808 0.068330616
0.041233826 0.051128462 -0.015192192 -0.016297827 -0.04087254 -0.05783105 -0.15966316 -0.19380765
-0.18359046 -0.07435447 -0.08406434 -0.124847606 -0.06980568 -0.02978382 -0.0071995975 0.0105386255
0.0076434105 0.044919103 -0.011019071 -0.02931332 0.029098036 0.019814454 -0.022410406 -0.029219605
0.051513832 0.03059791 0.031306878 0.053834036 0.03294877 -0.008619777 0.0007745838 -0.011238761
-0.060724966 -0.09948859 -0.14421684 -0.16256833 -0.24495022 -0.18073119 -0.1772178 -0.11517793
-0.10195609 -0.034528077 -0.06758141 -0.035778638 -0.02704452 -0.014280196 -0.02286045 -0.03337196
0.04499412 0.037226897 0.008960243 0.037458263 0.03743834 0.05812118 0.037742555 0.08654295
0.07001699 0.06015665 0.008971348 -0.030791197 -0.06876678 -0.08576783 -0.120171286 -0.103627115
-0.21625207 -0.2517535 -0.27303714 -0.25365034 -0.116119795 -0.06987631 -0.058007304 -0.0068141683
0.016213605 0.059863895 -0.014564557 0.017660446 0.019267095 0.0071320524 0.027632488 0.057704415
0.01754842 0.016139083 0.042168226 0.07127478 0.014634093 0.0259433 0.027086336 -0.009617637
-0.013023875 -0.06521819 -0.086285904 -0.10513494 -0.16996785 -0.22599706 -0.23915091 -0.22461016
-0.15864801 -0.14835785 -0.022573771 0.0644925 0.06550622 -0.024106901 -0.019517537 0.03511799
0.012477377 0.006450692 -0.008169482 0.03744577 0.009170948 -0.004852811 0.040858824 0.038246926
0.010366143 -0.0060606664 0.054382436 0.03618554 -0.002707752 -0.0524128 -0.12649712 -0.09380159
-0.14379187 -0.19818173 -0.18983972 -0.20428112 -0.17327309 -0.13935432 0.049948424 0.018760579
0.099377796 0.014351744 0.0025363506 -0.030771054 0.013428867 -0.040117435 -0.015462568 -0.02286196
-0.015546607 -0.021994472 -0.030172791 0.01456227 -0.0011872537 0.029284483 0.06742803 0.076300226
0.0357517 -0.04064308 -0.1104522 -0.15299717 -0.11453575 -0.13040772 -0.1622887 -0.10650683
-0.17534073 -0.08924979 -0.045424506 -0.03644636 0.00076569134 -0.006180102 -0.008200287 0.010954647

encoder.network.1.bias f4 [128]
00000000: 533c 0b3d 104e 89bd 107c f93c 4a1b 793e
00000010: ad32 173f c813 2cbd 81fc b3bc d438 493e
00000020: 187b 0c3f 4b54 a73e 75b6 2d3f 5394 c93c
00000030: 436d 693d 67e7 593e 558f d1bc c675 cabc
00000040: 9661 963d 8167 d13e 36fe b9bc 1b03 933e
00000050: a1ae 0d3e 66fa 8cbc d119 14bd 0e36 063c
00000060: 05f7 253e 9aad 7b3d 1415 a63e 74c4 6c3e
00000070: b02e 1f3e 6cbf 5b3e e3bf 22bd a036 0bbd
00000080: 989b 00bd 8c67 663e d3f4 6abe 8544 083e
00000090: 4f7b 8b3e 8ce4 6abb 78d0 0fbd dce4 883e
000000a0: 83c3 5e3b 9d2a 9d3c ac6e 663e af8e a5bd
000000b0: 4630 a63e 3fd0 0ebd 351d 713d de3d 873e
000000c0: c99c 213e 9e22 ba3d 451d 0a3f 69d6 b5bb
000000d0: fb5d 133e 2fd7 80be 9dcb b73a 1569 c23d
000000e0: b181 443c f90e b33e 5fc0 0dbd 3c3d 113d
000000f0: 828d fe3d 0638 b83e 6d65 8b3e 212d 1fbd
00000100: 5b29 fe3b 0cc9 053e 3147 e73d c8e9 013f
00000110: 2c86 8dbc d321 20bc ebb4 98bc c267 063d
00000120: 7ca6 bcbc ec93 a8bc 0824 e8bd 691b ff3b
00000130: 76cd df3d 19fe 753e 17a5 173f 325f 8b3d
00000140: d887 56be 7f3f 1bbd fb53 8c3c 575b ed3b
00000150: 20a4 b93d 76d2 b33c 1690 523e b57e ad3e
00000160: 60da 07bd 08f5 ddbe 945a 953e 71fc 0fbd
00000170: 991f 8d3e ee6a 5f3e 418b 5cbd b8e8 9c3e
00000180: d2f8 00bd eba8 073d f897 6f3e 089a f53d
00000190: d2c1 fc3d 57d1 0a3e 896b 853b fa35 823e
000001a0: 1fd0 b83d 84bd 47be 52ac e13d f13b 913e
000001b0: 16ac 01be ed70 87bd dfec 633e b990 a73e
000001c0: 1a52 193e a665 95bb 0b00 7e3e 597d 8d3d
000001d0: 152d b13d c11b d73e 71da 02be f8d7 80be
000001e0: c2c9 fbbd 811b e1bc 9d93 afbd 3c20 2dbc
000001f0: 75f2 083e 13eb 483e 895d 6f3e 962e cdbc
0.033993077 -0.06704342 0.030454665 0.24326816 0.590617 -0.042011052 -0.02197099 0.19650584
0.54875326 0.32681498 0.6785653 0.02460686 0.056988966 0.21279679 -0.025581041 -0.024714362
0.07342832 0.4089928 -0.022704225 0.28713307 0.13836147 -0.017209243 -0.036157433 0.008191599
0.16207512 0.061444856 0.32437956 0.23121816 0.15545154 0.2145974 -0.03973378 -0.03398764
-0.031398386 0.22500437 -0.22944956 0.13307388 0.27242514 -0.003584179 -0.03511092 0.26737106
0.0033991046 0.019185359 0.22503155 -0.08083855 0.32458705 -0.034866568 0.058865745 0.26414388
0.15782465 0.09088634 0.5395091 -0.0055492413 0.1439132 -0.25164172 0.0014022473 0.09492699
0.0119938115 0.3497236 -0.034607287 0.03545879 0.12429334 0.35980242 0.2722582 -0.038861398
0.007756395 0.13064975 0.112928756 0.50747347 -0.017275892 -0.009773689 -0.018640956 0.032813795
-0.023028605 -0.020578347 -0.113349974 0.00778525 0.109278604 0.24022712 0.5923628 0.068052664
-0.20950258 -0.03790235 0.017129889 0.0072435546 0.090645075 0.021950942 0.20562777 0.33885732
-0.033167243 -0.43351007 0.29170668 -0.035152856 0.2756317 0.21818134 -0.05384374 0.306463
-0.031487294 0.033120077 0.23397815 0.1199227 0.12341656 0.1355642 0.004071657 0.25431806
0.09024071 -0.19505888 0.110191956 0.28366044 -0.12663302 -0.06613336 0.22258328 0.32727602
0.14972726 -0.0045592366 0.24804704 0.06908674 0.08651177 0.42013362 -0.12778641 -0.2516477
-0.122943416 -0.027478935 -0.08573077 -0.010566767 0.1337374 0.19620924 0.23375525 -0.025046628

encoder.network.3.weight f4 [128, 128]
00000000: 1097 b83d 7dcb 103e 72f2 023c 7cef 4bbd
00000010: 567f 8b3b 2d00 58bd 4d77 073d 2380 8cbd
00000020: 4b74 b83d cf27 eb3d 9611 4f3c 0331 61bd
00000030: 0c26 c93c 825b acbd 539d 7b3d 2d06 92bc
00000040: 01dd 0f3e 1f4c 8c3d 5f42 4ebd 2930 dfbc
00000050: 60d1 f7bd 05ba a5bc f1e3 c43c 677e d23d
00000060: bc3a 213d d490 1fbe dd25 283d 03da 9e3c
00000070: 71ed d53c 8141 a93d 21a5 cf3c 3989 1abd
00000080: 2c3a 08bd d095 373d ec95 40bd 29f4 8b3b
00000090: c5c2 a0bc 1c47 91bb 61d2 07bd 0770 cbbd
000000a0: 48b6 a9bd 5442 963c 9799 183e 573b 55bc
000000b0: 02b4 7fbd ea6e 99bd 17b1 953b 4ccd 8a3d
000000c0: 6ea0 f73c b282 a33d 89f9 e4bc a8e5 973d
000000d0: 6ca3 373e 6513 9cbb bb50 9c3d 46d8 27bd
000000e0: 6ec2 913c e887 0cbc 4553 7dbd c6b4 5abc
000000f0: 7ee8 843c 6c2e 823d 9ac3 913d 3d45 623d
00000100: 086f a93d 3b3d e7bb 4ac2 2d3d 0a8d 2a3d
00000110: 3e6f 5bbd 1fd4 8e3c 685e 40bd f7bf 8f3d
00000120: b64c 77bd 20ac a83d 1c3a b53c e24b 20bd
00000130: 88b9 283b 48ea 7bbb 80df f7bb 35c8 60bd
00000140: f95e e8bc 368f 4e3d 634d 42ba 151a 1e3b
00000150: dd30 dc3d bcfc e5bb ccb6 e7bd a099 183d
00000160: 49a5 c13b 6e4d d53c 4dc0 af3d cc04 35bd
00000170: e43d 2bbd d1ab 69bb 3fb3 a3bd 4e7c 073d
00000180: f54d 113d 1ebe fcbd 55d6 c63d c4a0 233d
00000190: ddf0 f3bd e8ed ab3d dc73 43bd 0b26 3b3e
000001a0: 568d b2bc ad83 41bd cb10 933d a5f6 893d
000001b0: 0811 93bd 443a 09be bd8e 2cbd 5c1f 5bbd
000001c0: cc90 503d 1574 3dbe 9bff 973d 02f7 31bd
000001d0: 1710 30bb c786 e3bd 4ccf 533d 7cfa 3dbc
000001e0: 746a ddbd 25f4 1bbd f44d a13c 2660 8dbc
000001f0: 5b69 cb3d 61bd 1bbd 30e9 90bb e293 afbd
00000200: a2db 05bd f47e f63c 478b 3abd 65f5 423b
00000210: 8130 2c3e 3754 443d bdac 0cbd 6abb 0cbd
00000220: 78b5 963e ab80 223e b97d 423d dcfd bc3d
00000230: ef99 04be 93aa 2a3d b5d6 adbc 260d 3f3c
00000240: fc12 d9bc 7b84 fc3c 0b4f ecbb 8ea7 5f3d
00000250: 78a3 663d 6192 92bd e5ba c7bc 0d86 b2bd
00000260: fd10 06be e6f7 9bbc f91f df3d d766 e33d
00000270: 47a6 22be f8a7 a73e db00 5abd 08b5 31bd
00000280: f358 603d 821e 173d aa8e fabc 38ce f8bc
00000290: 123a e53d b39b e7bc d4c4 c6bd f186 953e
000002a0: 9881 543d ae90 193d 4014 c13d 2ba0 bfbd
000002b0: bbff 903e 798a 6e3d da48 b93c 0386 2c3e
000002c0: 699d 1abe 572e 25bc 02cb 8abc c90e aa3d
000002d0: 622b 0ebe f323 a0bd 7b38 5cbc fd98 df3c
000002e0: 4143 833d 12bc 4e3e a49d 43bc ca47 6bbd
000002f0: d14c 1bbe e77e b13d 1ff9 a9bd 39f6 83bd
00000300: c271 843c 759c da3d 8817 fbbd a1f6 063e
00000310: 451f 9bbc 040a 173c 1b57 bcbd e901 b2bd
00000320: f193 a03c 7cba 973d 5e36 83bd afec 7abd
00000330: a9dc 1c3d 33a0 fcbd 3d3e 963d 074e 0bbc
00000340: 4d41 13be 4a0c 203d 2016 0e3d fbc5 90bd
00000350: 5316 123e 210b 4abd 6522 0bbe e80f b1bb
00000360: fa13 56bc 19de f5bd 15a0 82bd 01c8 8b3d
00000370: 154c eb3d ca43 a73c 4685 a1bc 4cf8 97bd
00000380: 8812 12bd a54c d2bd 4df2 b5bc 0428 b7bd
00000390: 6df0 c1bd 2ae8 0f3d e8ad 793d 4c3b 9e3c
000003a0: 49d9 a03c b1b7 273d 8c6a d73c a24b 3ebd
000003b0: 001f 843d cb55 28bc 469e c7bd 2297 8b3c
000003c0: 33f2 c33d a75a 83bc a197 95bb dae8 d6bd
000003d0: cb07 3cbd 570d 0ebe e4da e53c 7de6 dcbb
000003e0: 3779 8a3d 0433 0a3e 2d0a 1cbd 51c0 b53c
000003f0: bf0c 2fbd 73d7 a2bc 4a27 98bd a63c c13d
0.09013188 0.14140125 0.007992374 -0.049788937 0.004257123 -0.052734543 0.03307276 -0.06860378
0.09006556 0.11482202 0.01263847 -0.05497838 0.024554275 -0.08415891 0.061429333 -0.01782521
0.1404915 0.068504564 -0.050356265 -0.027244644 -0.12100482 -0.020230303 0.024034472 0.102780156
0.039362654 -0.15582591 0.041051734 0.019391065 0.026114197 0.08264447 0.025347294 -0.037728522
-0.033258602 0.044820607 -0.047017977 0.0042710495 -0.019624123 -0.0044335257 -0.033159617 -0.09933477
-0.082867205 0.018342175 0.1490234 -0.013014636 -0.06242753 -0.07491858 0.00456823 0.067774385
0.030227866 0.079839125 -0.027951019 0.0741685 0.17933434 -0.004763054 0.076325856 -0.04097774
0.017792907 -0.008577324 -0.06184699 -0.013348764 0.016224142 0.063565105 0.07117386 0.055241812
0.08273131 -0.00705686 0.042421617 0.04163841 -0.053572886 0.017435132 -0.046965033 0.07019036
-0.06037589 0.08235955 0.022122435 -0.039134867 0.002574535 -0.0038439203 -0.007564485 -0.054878432
-0.028365599 0.050429545 -0.0007412044 0.0024124433 0.107515074 -0.0070186537 -0.113141626 0.037255883
0.005909596 0.026037898 0.085816 -0.044194028 -0.04180707 -0.003565539 -0.07993173 0.03307753
0.035474736 -0.123409495 0.09708849 0.03994824 -0.119111754 0.083949864 -0.047717914 0.18276231
-0.02179591 -0.047244716 0.071809374 0.06736497 -0.07180983 -0.13401133 -0.042128313 -0.053496704
0.05091934 -0.18501313 0.074218 -0.043448456 -0.002686506 -0.11109691 0.051711366 -0.011595365
-0.1081132 -0.03807463 0.019690491 -0.017257761 0.09932204 -0.038022403 -0.0044223294 -0.08573128
-0.03268016 0.030089833 -0.04554298 0.0029748317 0.16815378 0.047931876 -0.034344424 -0.03435842
0.29435325 0.15869395 0.04748318 0.09228107 -0.12949346 0.04166658 -0.021220544 0.01166085
-0.02649831 0.03082489 -0.007211571 0.054603152 0.05630824 -0.07156826 -0.02438111 -0.087169744
-0.13092418 -0.019039106 0.1089477 0.111035995 -0.15883742 0.32745337 -0.053223472 -0.043385535
0.05477233 0.03689433 -0.030585606 -0.03037177 0.11192717 -0.028272485 -0.09705511 0.29204515
0.051881403 0.037491493 0.094276905 -0.093567215 0.28320107 0.058237527 0.022617746 0.16847996
-0.1509911 -0.010081849 -0.016942505 0.08303601 -0.13883737 -0.07819357 -0.0134412 0.02729463
0.06409312 0.2018893 -0.01193944 -0.05744151 -0.15166022 0.08666783 -0.08299469 -0.064434476
0.016167525 0.10674373 -0.122603476 0.13180019 -0.018935809 0.0092186965 -0.091963015 -0.086917706
0.019601794 0.07408616 -0.06406854 -0.061260875 0.038296375 -0.12335243 0.0733609 -0.00850249
-0.14380379 0.03907422 0.03468907 -0.07069012 0.14266329 -0.04932702 -0.13587339 -0.0054035075
-0.013066286 -0.120052524 -0.063781895 0.06825257 0.11489121 0.020418067 -0.01971687 -0.07420406
-0.035662204 -0.10268525 -0.022210265 -0.08943179 -0.09469686 0.03513352 0.060956866 0.019315384
0.01963486 0.040946666 0.026295923 -0.046458848 0.06451225 -0.010274361 -0.09746985 0.01703984
0.0956768 -0.016034437 -0.0045651947 -0.10493632 -0.04590587 -0.13872276 0.028058477 -0.0067413435
0.06761401 0.13496023 -0.038095642 0.02218643 -0.042736765 -0.019878125 -0.07429369 0.09435396

encoder.network.3.bias f4 [128]
00000000: 049a 373e af2c 30bd a32f f8bd 18a3 20bd
00000010: 1c86 643e 9bd8 853e 777d ab3d ddb3 373a
00000020: 1bf2 c4bd f1ed 233e bc1d 6dbe 461c 683e
00000030: 5f60 c33d 67be 6fbb d202 0dbd 4cef 913e
00000040: 5126 cebd ce25 e8bd e2bd 063e 3985 bb3e
00000050: 2849 b2bc a54b 4cbe 14fa 363e c75b 7dbe
00000060: 2fe9 9f3c 1f91 b8bc ad55 9e3e 8cb4 6abd
00000070: bf64 153c 3f9b 303e eddc 8a3d b0c0 f63d
00000080: e745 debd e487 033e 7cb7 d73c fa7f 123f
00000090: 0a3b 4fbd 2318 953e ff34 ac3e 4922 213e
000000a0: d745 a53d 3d23 193e 5154 45bb 1958 c63c
000000b0: 5ced ac3d e904 913e bcfb 9cbd db4f 253e
000000c0: 65fd 4ebe 5ba9 6d3e 9d56 50be 426c 883e
000000d0: f2c3 793d cbfd 903e 5e32 9bbc 5177 58bd
000000e0: 9c7f c3bd 4ce4 52bd 81d4 153f d841 5cbd
000000f0: 9eca d1be c2d5 c53e fc9a 5ebd 1cfc cdbd
00000100: d493 4c3e 4bae 0d3e 81a2 153f 3476 06be
00000110: 2ee8 c23d 4d21 813e 3059 e8bd e5e2 17be
00000120: 7a08 b73e e953 07bd ebea 1abe 279d 23bd
00000130: 4161 f0bc 75bb 323e e90c 123e afd6 c4bd
00000140: 0ccb cf3c 28b8 7ebe 1a07 dc3c 0d72 f83b
00000150: 06c6 fe3c 1421 ccbd f917 a03e 5f7f f2bc
00000160: d033 b5bd 71c2 c03d ef38 f93d c617 003e
00000170: 849f d73c cce1 963e 51d1 dbbd eb45 5c3d
00000180: 5438 b03d 7705 503e fff9 a33d 440b aa3c
00000190: 5d16 183e 9e2c a2bc f2fb b5bd 899b d03b
000001a0: 5f23 043e 2b23 7b3e 5967 1f3e 5e4a f0bb
000001b0: 15f1 8f3d c77b 2c3c cefe 633e e4bb 07bd
000001c0: 3fac 963e 1d41 a8bb e817 87bd 4c0d 21bd
000001d0: 0238 bb3d dc21 dc3d cb85 b0bd ea61 813e
000001e0: 9602 233d 36b4 023e 8557 02bd f5c6 803e
000001f0: e16b 11bd 5608 fdbc f417 403e 20b8 0e3d
0.17929846 -0.043011364 -0.12118461 -0.03921804 0.22316784 0.2614182 0.0837354 0.0007007698
-0.096164905 0.16008736 -0.23155874 0.22667035 0.09539866 -0.0036581995 -0.034426518 0.28502882
-0.10065902 -0.11335336 0.13158372 0.36625078 -0.0217634 -0.19950731 0.17868835 -0.24742042
0.01952037 -0.022530137 0.3092474 -0.05730109 0.009118258 0.17246722 0.067804195 0.12048471
-0.108531766 0.12844807 0.02633261 0.57226527 -0.050593413 0.29119977 0.33634183 0.15735735
0.080699615 0.14954849 -0.003011007 0.02421193 0.0844371 0.2832406 -0.07665202 0.16143744
-0.2021385 0.23209135 -0.2034554 0.26645094 0.060977884 0.2831863 -0.018944915 -0.052848164
-0.09545824 -0.051487252 0.5852738 -0.05377373 -0.40974897 0.38639647 -0.054347023 -0.10057852
0.19978267 0.13836019 0.58451086 -0.13131028 0.09516941 0.2522072 -0.11345136 -0.14832647
0.35748655 -0.033039007 -0.15128677 -0.039944794 -0.02934325 0.17454322 0.14262737 -0.0961126
0.025365375 -0.24874938 0.026858855 0.0075819553 0.031100284 -0.09967247 0.3126829 -0.02960175
-0.08847773 0.09412087 0.12169062 0.12509069 0.02632118 0.29469144 -0.10733283 0.053777616
0.08604494 0.20314585 0.08006667 0.020757325 0.14852281 -0.019796666 -0.088859454 0.0063661975
0.12904118 0.24525134 0.15566768 -0.007333084 0.070284046 0.010527558 0.22265169 -0.03313817
0.29428288 -0.0051347152 -0.06596357 -0.03931932 0.09141542 0.10748646 -0.08619269 0.25270015
0.039797388 0.12764058 -0.031821746 0.25151792 -0.035503272 -0.030887764 0.18759137 0.034843564

encoder.output1.weight f4 [9, 128]
00000000: a5e0 d93c 69c3 d13d d1c3 183e efb8 80bd
00000010: 9c20 99bd 4ac5 e73c fee7 603c f79a 70bd
00000020: 9763 dfbd 8d3f 8c3d 5b59 a63d b857 303d
00000030: cb1a a8be 21ff 033e e290 ad3c 48c9 033c
00000040: f885 a93d 4514 4b3d b09e eabc 76fc 943d
00000050: e064 8f3b 29ae 343d e3ca 88bd 4e99 df3c
00000060: 491f 9e3d 595a 17bd 1504 dbbc 14b1 5ebd
00000070: c003 923d 7921 bdbd b720 d1bc 9467 173d
00000080: a4c5 8fbd 3dc0 62bc e9a1 973d dc81 0a3d
00000090: b861 1fbd 1e72 bc3d 94ff b73c d580 4dbe
000000a0: f295 e33d 6d2d 16be 2089 8b3d 7dfd 87be
000000b0: a5ed 07bd bb25 5abc 9ab9 40bd 1b2e babb
000000c0: ad11 8cbd 7a3b b63d 1f0a c83d d226 883d
000000d0: e53d 40be 57b5 bdbe ee27 463e 2d06 a6bc
000000e0: a0ec e8bb dc45 d83c 3220 8dbe 34eb 2d3d
000000f0: e31c 253e a28f 2cbe 25e8 b6bc 281a b63c
00000100: 9a79 79bd 5167 14bc 0735 fbbd 2da4 dc3d
00000110: 261e d0bd 4c04 32be 8a3c 813e 1b2f fe3d
00000120: d61e 66be d924 2c3e e798 d3bd 1ed4 083c
00000130: 4687 1a3d 3199 06bc 69a8 96be 9a7f a6bd
00000140: 8985 c43d ac1b b33d d442 833d 77b7 a3bc
00000150: d8cb 1cbe 447e 873c 5618 ebbd 7dd0 31be
00000160: 8ea3 efbb daf5 883a f1da 75bd 7fd1 f23d
00000170: ea8a 353d 7ce3 aebb de00 4d3d 90af febc
00000180: b3df 78bd bd9e 563e 9cb0 76bd dd26 17be
00000190: 32dc ffbb cdd8 b1bd e03c 8dbc f055 0dbe
000001a0: 74e8 a5bc 3cf7 babb d57e 923d d39e 82bd
000001b0: f375 c9bd b19b 91bb 46b9 05be 6374 073c
000001c0: ed53 7c3d b846 f33d 4478 7c3d d1fb c33d
000001d0: 383f f9bd 3f98 8f3d 739d a6bc d8b8 42be
000001e0: c106 b8bd 1c26 66bc e0c2 ecbd d484 d03d
000001f0: 0623 a8bc 45f4 283d 66bc 14be 7a11 9e3a
00000200: a247 a13d a415 203e c345 e3bd f246 2d3d
00000210: 876f eabc 6a43 96bd 4a3b b13c b975 d43c
00000220: 0123 0bbe 5420 8bbc a1c2 32be be19 0dbc
00000230: 5e35 73bc 04d2 98bd 1b30 f53c 6dcd c93d
00000240: c45b d3bc 08b4 febb b380 f93c c06d 343c
00000250: 436c aa3c e34d 26be 123c adbd 233f a0bd
00000260: 8ca3 743d ba5c c9bc e668 f23b 93a9 5ebd
00000270: 0303 7abc 577f ec3d 80cd b43d d93e 01bd
00000280: b96c d33d 5133 543d b82c c9bd 15a0 4e3d
00000290: 7b2e c13d d849 e33d a722 063e 4657 7a3d
000002a0: fa57 aa3d a0de 623e 9fbc 7cbd d4e9 8fbd
000002b0: ec75 97bd 023d ed3d 431d b8bb 9ccb 84bd
000002c0: 5203 b3bd c696 32bd d60f 2bbd 78b8 b73e
000002d0: 9b51 ec3c f8c1 9c3d a9ed 02be adcf 34bc
000002e0: f789 1e3c d931 aebd 7c4d f73d 99ca 453d
000002f0: 8b2c b83c f7e6 bfbb 0741 4fbc 461e 44bd
00000300: fb8d b33d 2898 83bc 2246 4c3e bfdb 64bd
00000310: 701d 13bd f449 2d3c 4d1f 51bb 039c 88bd
00000320: 95b9 69bc 057a 8a3d 8a87 013e 26b8 323d
00000330: fa97 5e3d f9cc 2dbd 3d8d f53c d966 783d
00000340: e30a c5bd b061 84bc 1a22 383d 6195 6c3d
00000350: 4644 f4bc 1379 66bc 783f 68bc a55c 15be
00000360: 1161 bcbc 5abb 5fbe d255 c13d 7bdb d63d
00000370: 118a 323c c07f 843e 9176 d2bd 53a9 0a3d
00000380: b1b2 c2bc af01 5a3e 24d2 aebd 6604 08be
00000390: d500 f63d 217f 1dbe 29d3 f43c 53ab f73b
000003a0: f015 5c3e 5ba3 b23e 8eea 74bc 031a 083c
000003b0: e7a2 2f3d 98d0 6e3d 44a1 2b3d e375 2d3e
000003c0: cfe1 603e ad67 81bd 62dc debd 3c98 cc3c
000003d0: 7c09 163e 1103 efbc eb07 943d ecce 203e
000003e0: b4e0 3bbd 1926 2e3e 791a dbbd a99a 583e
000003f0: 1bde 543c 2040 b73c 256b 1ebe 883f 783b
0.026596377 0.1024235 0.14918448 -0.06285273 -0.07476923 0.028292317 0.013727186 -0.058741536
-0.10907667 0.06848059 0.08122512 0.043052405 -0.3283294 0.12890293 0.02118725 0.008043595
0.08277506 0.049579877 -0.028640121 0.072747156 0.004376039 0.044111405 -0.066793226 0.027294781
0.07720811 -0.036951397 -0.026735345 -0.054368094 0.071296215 -0.092349 -0.025528295 0.036964014
-0.07020119 -0.0138397785 0.07403929 0.03381525 -0.03891155 0.092014536 0.022460736 -0.20068677
0.11112584 -0.14665766 0.06813264 -0.26560584 -0.03318562 -0.01331466 -0.047052003 -0.0056817657
-0.06839309 0.08898063 0.097675554 0.066480294 -0.18773611 -0.37052414 0.1935117 -0.020266617
-0.007108286 0.026400499 -0.27563626 0.042460635 0.161243 -0.16851667 -0.022327492 0.02222927
-0.060906984 -0.009057836 -0.122659735 0.107735015 -0.10162 -0.17384452 0.252415 0.124113284
-0.224727 0.16810931 -0.10331898 0.008351354 0.037726663 -0.008215235 -0.29425362 -0.08129807
0.09595782 0.08745512 0.06409231 -0.019984944 -0.15312135 0.0165397 -0.11479251 -0.17364688
-0.0073131984 0.0010449246 -0.060023252 0.118563645 0.044321932 -0.005337177 0.050049655 -0.031089574
-0.06076021 0.20958991 -0.06022702 -0.14760919 -0.0078082317 -0.086839296 -0.017240942 -0.13802314
-0.020252444 -0.005705742 0.071530975 -0.063779496 -0.0983695 -0.0044436087 -0.13058957 0.008267495
0.061603475 0.11878723 0.06163813 0.095695145 -0.12170261 0.070114605 -0.02033875 -0.19015825
-0.08985663 -0.014047172 -0.11560607 0.10181585 -0.020524513 0.04124858 -0.14524993 0.0012059652
0.07874991 0.15633255 -0.1109729 0.042303987 -0.028617634 -0.07337077 0.021634717 0.02593504
-0.13587572 -0.016983189 -0.17457058 -0.008612094 -0.014844267 -0.07461932 0.029930165 0.09853635
-0.025800593 -0.0077729262 0.030456876 0.011012495 0.020803576 -0.16240649 -0.08458723 -0.078245424
0.059726283 -0.024580348 0.007397759 -0.054360937 -0.015259507 0.11547726 0.088282585 -0.031554077
0.103234716 0.05180675 -0.098229825 0.050445635 0.094326936 0.11098069 0.13099156 0.061118387
0.083175614 0.22155237 -0.06170332 -0.07027021 -0.07395539 0.11583902 -0.0056187226 -0.06484148
-0.08740868 -0.04360082 -0.04176315 0.35882926 0.028847506 0.07654184 -0.12785973 -0.011035842
0.009676448 -0.085056014 0.12075326 0.048288915 0.022482177 -0.0058563906 -0.012649781 -0.047880433
0.08767315 -0.016063765 0.19948629 -0.05587363 -0.035916746 0.010576714 -0.0031909526 -0.06670382
-0.014265438 0.06761555 0.1264936 0.04363265 0.054344155 -0.042431805 0.029974574 0.06064496
-0.09621217 -0.016159862 0.044954397 0.057759646 -0.029817712 -0.014066952 -0.014175288 -0.14586122
-0.022995504 -0.21848813 0.09440197 0.10491081 0.010897175 0.25878716 -0.10276521 0.033852886
-0.023766847 0.21289705 -0.08536175 -0.13282928 0.120118774 -0.15380527 0.029885845 0.0075582652
0.21492743 0.34890255 -0.0149485 0.008306983 0.042879965 0.0583044 0.04190184 0.16939501
0.21961139 -0.06318603 -0.108818784 0.024974935 0.14652056 -0.029176267 0.07228073 0.15703934
-0.04586859 0.1700672 -0.10698409 0.21152748 0.012992407 0.022369444 -0.1547056 0.0037879664

encoder.output1.bias f4 [9]
00000000: 8a1e 0cbe a99b ee3d 1c3a 8abd ee20 9b3d
00000010: 4cd0 ea3d 9dab 8e3d 9175 d13d 396b 983e
00000020: 1b78 5abd
-0.13683525 0.116507836 -0.06749365 0.0757464 0.11465511 0.069663264 0.10227502 0.29769304
-0.053337198

encoder.output2.weight f4 [9, 128]
00000000: ad3c 08bd 1856 163c 1fad 69bd c04c a83c
00000010: b599 31be 021b 20be 4a01 4b3d 2053 173d
00000020: f426 60bd 3723 b6bd 4c9a d83d 3005 42bd
00000030: 9e76 223e ee0a b3bd 5bcc 6dbd 0d4e 9ebd
00000040: 102a 21bc d0cf 913d 0ea4 03bd 0121 21be
00000050: 2e79 e2bc aa54 fdbc 6210 553d 3159 84bc
00000060: 39e6 253d 5fe1 153c 85bd b9bd a29f c1bc
00000070: 4eda 01be 0dda b5bd eff2 60bd a730 24bd
00000080: b5af 3dbd 40b9 5e3c b25d f73a c530 b9be
00000090: 14e1 4c3d 0170 e7bd e436 543d a38f 143d
000000a0: 3e77 47bd 9b9f c73d b46d 153d 4707 983d
000000b0: 0e1e 313d fcf9 ffbd a5b4 203d f328 fdbb
000000c0: 7522 0dbd bd53 85bb 1b83 443c 2913 bf3d
000000d0: 1ac0 f73d 86d8 ffbd ad09 20bd 8e24 583d
000000e0: ada0 8abd 6460 bb3d 32cd 91be a0d5 f5bc
000000f0: 7c7a d33c fe78 96bd a1b1 b73d 7998 6cbc
00000100: f301 e4bc 29ac 2dbc f6a2 b4be 04e7 843d
00000110: 989c 873d b440 71bc 2995 5ebd f2b0 6e3d
00000120: a8a7 4bbe 5a97 193d fab4 203b 0318 5bbd
00000130: 16cd 64bd ef0d 77bd ca65 e93d cf63 153d
00000140: dd8e d6b9 d1a8 083e b610 253d 78ba 133e
00000150: bc56 883d 90b1 403d 5203 0ebe d815 f23c
00000160: 3492 823c 7ba9 2ebd bc9c 42bc e774 30bb
00000170: 105b d0bd afb6 3cbe 6138 6d3d 6e4a 9fbd
00000180: 1c33 be3c 326b 77bc 9927 1bbd 1ff0 0d3d
00000190: 1488 4dbc 725e 3dbd af2a 673c 5a9e 143d
000001a0: 2f0b 0fbd 0c8d dd3c 8654 9fbc 6a9f 9e3c
000001b0: 7033 e13c 46db 99bc 8379 cfbd 3ec2 083d
000001c0: dc05 50bd 55a7 46bc 27d6 95bd 59df 2e3d
000001d0: 3bc3 403d 604b 25bd eb69 8ebb bc15 183d
000001e0: caf9 e33c d7e6 f6bd bbf9 f4bc 00f2 c8bc
000001f0: 6ac6 7f3d 335b af3c 84c0 fcbc 3d2c c1bc
00000200: ed5e b7bd d458 013d 8609 5e3d c6b6 d73c
00000210: b4de c8bd 36ab 4ebe aa0e e8bb f8f2 69bd
00000220: 43ac 7abc a017 d6bd a212 58bd 2f62 47bd
00000230: 587a a33d a73d d83c f207 973d dc06 8cbc
00000240: 0372 733d 698a e43d 9c62 0cbe cc0a 5bbe
00000250: 5282 2dbd 8536 473d 2826 e33b e9a5 783d
00000260: 4cc7 083e 6c32 7f3b 58c5 e2bd 9e06 453d
00000270: 377a 4abd e461 5ebd 25db 73bd 8266 103d
00000280: d073 8dbc b160 9f3c 2988 143d c6d5 adbe
00000290: d123 483d 8515 28be 7fcf 59be 678d 5e3b
000002a0: 28bc b3bd d059 8b3d 88b5 2c3d e585 4b3d
000002b0: 4196 5fbd b223 3ebd 5ec3 5cbc 6f34 b23b
000002c0: 5d67 f23d f7a3 403d 59ee 6ebd 564b db3e
000002d0: 9b58 c13c 2624 c8bd 26f7 b33c 7041 77bd
000002e0: cdc7 aaba 6ae9 8e3d fb1f d4be 2cc9 10bd
000002f0: 2174 8d3d f2b4 c3bd 6b03 6f3d ecc1 66bc
00000300: fd64 cfbd cfe2 163c 6701 15bf fbb4 74bd
00000310: c06e 133d 5c66 89bd 178d 0ebe 81b9 33bb
00000320: 6a84 dfbd 2293 953b 8f17 123d 2ecd 093c
00000330: 66c2 58bd b778 d9bd ead5 8ebd fc6d 1e3d
00000340: 4468 3e3c 398f af3d 89ea 0a3e 04d3 cd3d
00000350: b86d c6bc 1cfb 2d3d 182d 1abe d90d 0b3d
00000360: 85d4 a53d 6310 183e c1b5 8abd 1628 3d3d
00000370: 3dbf 96bc 86d2 3dbe f03b 14bc c6fc 5dbd
00000380: ccb7 cd3d 6a66 6c3d 66ed 0b3d 3874 ebbd
00000390: d048 52bc 0605 6fbc deb6 073d 571a 5f3b
000003a0: 3c8a bebc d06b 953d fd3d 133d a2f3 d4bb
000003b0: 7619 b9bd a0ff 3c3d dc3c 1cbe 0dbc 7b3d
000003c0: 9b79 f13c 9760 8abd e65e ba3c 999a d3bc
000003d0: 43ce 843d da7b 083d 1496 e43d 98f8 d4bc
000003e0: a2ee d83b ad32 5abd 8403 52bd 7178 dabd
000003f0: c07a d43d 62be 9bbd f268 fbbd d088 a63b
-0.03326099 0.0091758 -0.057049867 0.02054441 -0.17343791 -0.15635303 0.049561776 0.03694451
-0.05472465 -0.088934354 0.10576305 -0.04736823 0.15865561 -0.08742319 -0.058056217 -0.07729731
-0.009836689 0.07119715 -0.032138877 -0.15735246 -0.027645674 -0.03092416 0.052017577 -0.016155811
0.04050276 0.009147971 -0.09069351 -0.02363569 -0.12680933 -0.088794805 -0.05491918 -0.04008546
-0.046310145 0.013593972 0.0018872528 -0.3617002 0.05001934 -0.1130066 0.05181016 0.036269795
-0.048697703 0.09747239 0.036481574 0.07423263 0.043241553 -0.124988526 0.039234776 -0.007725829
-0.03445669 -0.0040688203 0.011994149 0.093298264 0.12097187 -0.124924704 -0.039071728 0.052769236
-0.06768928 0.091492444 -0.28476864 -0.03000909 0.025815241 -0.07347296 0.08969427 -0.014440649
-0.02783296 -0.010600128 -0.3528058 0.06489375 0.06621665 -0.014724899 -0.05434147 0.058274217
-0.19888175 0.037497856 0.0024521933 -0.053489696 -0.055859648 -0.060316022 0.11396368 0.036472138
-0.00040923702 0.13345648 0.04029914 0.14426601 0.06657168 0.047044337 -0.13868454 0.029551432
0.015938856 -0.042642098 -0.011878189 -0.0026925148 -0.10173619 -0.18429063 0.057915095 -0.07777868
0.02321773 -0.015101241 -0.03787956 0.034652825 -0.012544651 -0.04623265 0.014109298 0.03628383
-0.034922775 0.027044795 -0.019449484 0.019363124 0.027490348 -0.018781316 -0.101305984 0.03338837
-0.050786838 -0.012124856 -0.07316237 0.04269347 0.047061186 -0.040355086 -0.0043461225 0.037130103
0.02782907 -0.12055748 -0.029904237 -0.024529457 0.06244508 0.021405792 -0.030853517 -0.023580665
-0.089536525 0.031578854 0.0542083 0.02633227 -0.09808102 -0.201825 -0.007081826 -0.05711648
-0.015299859 -0.10453725 -0.052752145 -0.04867762 0.079823196 0.026396586 0.07374562 -0.017093115
0.059434902 0.11159212 -0.13709491 -0.21390837 -0.04236061 0.04863598 0.006932039 0.0607051
0.13357276 0.0038939966 -0.110727966 0.048102014 -0.04943296 -0.054292575 -0.059535164 0.03525401
-0.017267138 0.019455286 0.036262665 -0.3395216 0.048862282 -0.16414459 -0.2127056 0.0033958794
-0.08776122 0.0680424 0.04216531 0.04968824 -0.054586653 -0.04642076 -0.013474314 0.0054383795
0.11836121 0.04703137 -0.058332775 0.42830914 0.02360182 -0.0977252 0.021968435 -0.06036514
-0.0013029516 0.06978114 -0.4143065 -0.035348102 0.069069155 -0.09555997 0.05835287 -0.0140843205
-0.10126684 0.009209349 -0.58205265 -0.05974291 0.03599429 -0.067089766 -0.13921009 -0.0027423801
-0.10913928 0.0045646587 0.035667 0.008410735 -0.052919768 -0.10618728 -0.069743946 0.038679108
0.011621539 0.085722394 0.1356603 0.10050014 -0.02422224 0.042475805 -0.15056264 0.033948753
0.080971755 0.14850001 -0.06772948 0.046180807 -0.018401736 -0.1853734 -0.009047493 -0.05419614
0.10044822 0.057714857 0.034161948 -0.11496776 -0.012834743 -0.0145886 0.03313338 0.00340428
-0.023259275 0.07295954 0.03594779 -0.00649877 -0.090380594 0.04614222 -0.15257591 0.061458636
0.029476931 -0.06756704 0.02275033 -0.025830554 0.06484654 0.03332124 0.11161438 -0.025997445
0.006620244 -0.053270984 -0.051272884 -0.106675036 0.10374975 -0.07604672 -0.12275876 0.0050822273

encoder.output2.bias f4 [9]
00000000: 65f1 1bbe f2a2 adbe d019 79be 104c d1be
00000010: 2f20 efbc e830 61be 1c79 41be c037 6cbe
00000020: 675a c4be
-0.15228803 -0.3391338 -0.24326253 -0.40878344 -0.029190151 -0.21991313 -0.18893856 -0.23068142
-0.38350222

decoder.network.0.weight f4 [128, 9]
00000000: ac63 85be 7380 b53e 6bea b43e 83f1 083f
00000010: 45a7 04be 9674 413e 4a83 563e 9adc 43be
00000020: 32f7 f6bd 414c 3b3d a8d0 553e f22b abbe
00000030: 41bf 60bf 8efb 04be e83f abbd 0890 6cbe
00000040: c289 813e ce91 633f a16b 55be 7016 5cbe
00000050: 868f adbe 7854 cbbe 0973 2a3e 59ad 7bbe
00000060: 2408 69be 5543 edbd e724 5dbe f04a 4eba
00000070: 1fd1 32bf 211f 1abf a1b9 d5bd ef18 053f
00000080: 90db 113e b307 773e 9f2e a8bd 2316 b43e
00000090: 7183 563b bfa5 b7be 1f4c 233e 4dc7 0c3f
000000a0: c7a4 83bc 7fc3 8ebe 5a33 363e 18e4 8e3c
000000b0: abea afbe 895b 403e 7f8f 8bbd 4478 d83e
000000c0: 1114 eb3e f995 a43d 178f f0bd 5374 813d
000000d0: 8ca4 26be 4e61 debc ddac 2a3f 7a6e bb3c
000000e0: 17e0 a73d b994 01bf 01a5 d0bd 9da2 253e
000000f0: eabc e1be 2925 6f3f d35b 943d bd13 153d
00000100: 0a4c 5dbe 8bd0 8ebc 7a44 d2be 4c99 393f
00000110: edfc c63d 7028 33bf c6d1 79be b976 3c3c
00000120: 2da1 e2bc 1584 8b3c 28b1 0dbe 2cde d9be
00000130: 40a4 23be 9501 debb 5e7b 6d3f 9d55 653e
00000140: 5895 86bf cd2a 7c3e d4ee 0f3f 8021 593d
00000150: 5b90 293f 2b9a 30be bb8f 3abe b8ff 073f
00000160: 4212 be3e 429e ce3e fb37 4cbe f053 fb3e
00000170: b4c6 fd3e 1307 233f 0865 edbd f11d ac3d
00000180: 9bc0 f4be 91c0 23be daff 43bf 35b9 ff3d
00000190: 9c20 7a3e 5191 343e a685 123f f575 503e
000001a0: edd2 fabe 407e f83d 1de8 29be 4dc0 23bf
000001b0: 164c b7bc f88a 1dbd f1e4 6bbd 6fca aabe
000001c0: 71e4 fcbd 496c f83d 2ac9 3b3f e5ed bfbe
000001d0: 1c5b 273e 2e1d 9ebd 3aac adbd 9864 dabe
000001e0: 2f94 223f 4930 6c3e 575d c43e 2fc6 4bbf
000001f0: bada 3c3e 4546 03bf 0b34 ac3e 62eb a7be
00000200: 3da6 a4be 22c4 443e b8f1 c03d 17d5 35be
00000210: 34b6 a53e 452e 123e cb4a ccbe 1aa9 b63e
00000220: 2479 193f d999 093f 2c30 b1bd 3110 c53d
00000230: 8ffc 69be e5fe c13e 3a30 11bf 7397 123d
00000240: af9d 233e d8e0 e83c 1df4 6f3f dbd3 8b3e
00000250: 5cad 9abd 4d58 38be 27da 123f d8d8 be3d
00000260: 3483 443d d6a8 c9bc 2c4d 01bf 43a0 e6be
00000270: fd3a 273f 619d 8dbd 7704 2c3e d420 9abc
00000280: e7af 573e cae0 f33d 95ff 8c3c ae51 923e
00000290: ae8b 5ebe 835d 1cbf f469 b8bd 8478 90be
000002a0: 6ee4 033e d3c3 cdbe 97a7 f4be b37a d0bd
000002b0: c780 f7be 8242 fd3e 1224 2e3f 47e7 803e
000002c0: a10c 1fbe 0477 5cbf 79e9 053e 3847 c43e
000002d0: d3a6 023e 3f66 d03d 4697 99bd 8fc6 bfbe
000002e0: 1051 b63e 5444 03bf e21a 1ebf d55c 19bd
000002f0: 5897 393f 0976 89be a058 c13e 8ac4 7d3e
00000300: e50d c9be 3f27 42bc 65d2 c03e e23e 253f
00000310: eba0 ebbe aa60 f23c d18f 8c3c cd00 b3be
00000320: 21e0 20bf a36d 3e3f 9fc5 7a3d 1861 d3bd
00000330: 9451 273e 3208 afbe 9d49 09be 979a 543e
00000340: 96f0 8f3e 35f6 2cbe 9c1b aabe b318 3bbe
00000350: 5dae afbe 1e91 453f 390f 93be 7fed ccbe
00000360: 1877 c7be a863 d23e faf9 e0bd 9cf5 593d
00000370: 43c4 313e 1607 833e dec9 c0be f765 22bf
00000380: 2e18 c1be 70eb d1bd 62b3 21be 1a15 02bf
00000390: 51df 6e3e b8f8 523e ae74 e0bc b3d3 403f
000003a0: 6b22 b83c 5e56 82be 7b9d 52be 3aea c8be
000003b0: a0c8 f03e 1ea5 9a3e b641 3abe 9163 5abe
000003c0: a435 adbc e596 323e 30c8 d73d f47d 8dbd
000003d0: 8762 243f 6933 a7bd 3e34 25bf 07c0 8ebd
000003e0: 300b ec3d 895c cdbe f3e5 0b3c a9ca 863f
000003f0: 833d ebbd a5ea b9be c588 76bf 2fd9 953e
-0.26052606 0.3544956 0.35335097 0.5349352 -0.12954433 0.1889213 0.2094852 -0.19127122
-0.120588675 0.04572702 0.20880377 -0.33431965 -0.8779183 -0.12986585 -0.083617985 -0.23101819
0.25300413 0.88894355 -0.20841838 -0.21492934 -0.33898562 -0.39712882 0.16645445 -0.24577846
-0.22757012 -0.11585108 -0.21596108 -0.0007869443 -0.69850343 -0.6020375 -0.104357965 0.5199117
0.14243913 0.24124031 -0.08212017 0.3517314 0.0032732154 -0.35868642 0.15947007 0.5499161
-0.016069783 -0.27883527 0.17793027 0.017442748 -0.34358725 0.18784918 -0.06814479 0.42279255
0.45913747 0.080364175 -0.11746042 0.06321015 -0.16273707 -0.027146008 0.6667002 0.022879828
0.081970386 -0.5061756 -0.10187722 0.16175313 -0.44089442 0.93416077 0.072440766 0.036395777
-0.21611038 -0.017433425 -0.41067868 0.7249954 0.097162105 -0.6998358 -0.24396428 0.011502915
-0.027664745 0.017030755 -0.13837111 -0.42552316 -0.15980625 -0.006775091 0.9276637 0.2239594
-1.0514326 0.24625702 0.562238 0.053010464 0.66235894 -0.1724631 -0.18218891 0.5312457
0.37123305 0.40355116 -0.1994323 0.49087477 0.4956566 0.6368267 -0.11591536 0.08404148
-0.47803196 -0.15991427 -0.76562274 0.12486497 0.24426502 0.17633559 0.5723518 0.20357497
-0.4898905 0.12133455 -0.1659245 -0.639653 -0.022375148 -0.03846261 -0.057591382 -0.3335757
-0.12348259 0.12130029 0.73353827 -0.37486187 0.16343349 -0.07720409 -0.08480115 -0.42654872
0.6350736 0.23065294 0.38352463 -0.7959928 0.18442813 -0.512791 0.33633456 -0.3279677
-0.3215808 0.19215444 0.09421104 -0.17757069 0.32365572 0.14275463 -0.39900813 0.3567589
0.5995047 0.5375038 -0.08651766 0.09622229 -0.2285025 0.37889782 -0.5671421 0.035788964
0.1597812 0.028427526 0.9373186 0.2731007 -0.07552597 -0.18002434 0.57364124 0.093187034
0.047976688 -0.02461664 -0.5050838 -0.45044145 0.65324384 -0.06914783 0.16798578 -0.018814482
0.21063195 0.119081095 0.017211715 0.28577942 -0.21732971 -0.6108019 -0.09004584 -0.28216946
0.12880108 -0.40188465 -0.4778411 -0.10179653 -0.48340437 0.49464804 0.6802379 0.2517645
-0.15532161 -0.86119103 0.13077344 0.38335586 0.12758951 0.10175752 -0.07499556 -0.37456176
0.3560872 -0.51276135 -0.6175977 -0.037442047 0.7249656 -0.26847866 0.37762928 0.24782005
-0.39268413 -0.011850177 0.37660518 0.64549077 -0.46021208 0.029587109 0.01715842 -0.34961548
-0.62841994 0.7438604 0.061223622 -0.103212535 0.16339713 -0.3418594 -0.13406987 0.20762096
0.2811324 -0.16890796 -0.3322419 -0.18271141 -0.34312716 0.77174556 -0.2872255 -0.40024945
-0.3895805 0.41091657 -0.10985179 0.053212747 0.17360024 0.25591344 -0.37654012 -0.63436836
-0.3771376 -0.10249984 -0.15791085 -0.5081345 0.23327376 0.20602691 -0.027399387 0.7532303
0.02247735 -0.25456518 -0.20567887 -0.392412 0.47028065 0.302041 -0.18189129 -0.21327044
-0.021143742 0.17440374 0.105362296 -0.06908789 0.6421284 -0.081641026 -0.6453284 -0.0697022
0.11525571 -0.4010966 0.008538711 1.0530597 -0.11486342 -0.36311832 -0.96302444 0.2926726

decoder.network.0.bias f4 [128]
00000000: 25a8 053f c12e 813b cf1b 233f 5bda b5bd
00000010: 5864 b23e b083 3c3f 0c43 6abe db7c e73d
00000020: fd25 55be ea35 48be 072a acbc 2e6d 283e
00000030: 7fb7 4a3d abc3 07bf 0715 fb3e 6dc7 8a3d
00000040: e411 0bbe bfe1 7bbd 4922 203f 7300 913c
00000050: 862c 983e 1a04 103f 09f7 37be 3524 053f
00000060: cc52 ffbc 78c8 25be faae 143f 471e 84be
00000070: 3269 aabe 5870 d03c 3413 4c3f 3c59 fd3d
00000080: 8910 abbd 7998 81be a4e9 f7bd e747 293f
00000090: 6343 a2bb 5d19 4d3f 5eee 24be a0f8 993e
000000a0: 7ba6 aa3e 1f38 df3e 626e 36be 507e b53e
000000b0: 5434 efbc e2ce 31be 72d0 ff3c 5fd1 383e
000000c0: 07f6 9abe d9a4 b63e c20f 09bd 022d cf3e
000000d0: 6ebf 153f 3b07 df3e 2daa 3c3e 1273 703f
000000e0: 0d04 0a3f 80a2 c6be 463a 843f c6fb cf3e
000000f0: ac29 77bd a39e c33e 4d22 01bf 0389 e5bd
00000100: 894c 1c3f bc71 30bf 657f 083f 08cd b53e
00000110: 2ce7 c13e 6fe3 023f 585f 893e 1113 663e
00000120: 6b1a ca3d e502 de3e e16b 8a3e 6fc9 25be
00000130: fa4b cf3e 6399 103f 65aa cbbe cc18 cbbe
00000140: c3cf dd3d 7431 d0bd 62d4 59be 820e 4c3e
00000150: d9c0 913e 3e80 2c3d 0119 a4bd 3482 f9be
00000160: b93a 083d 5c0b c23d 5a80 a7bd 2835 f2be
00000170: 1b3f 02bf 535c 823b 740c 12be 4ff1 c63e
00000180: 2ff8 e03e 9d73 693f 581f 8d3d 13ab 93bd
00000190: 3559 13be d807 763d bedf b73e 3ae2 efbe
000001a0: 3f21 4cbe ed68 8a3e 0ec3 83bd 05df 0abf
000001b0: 634e 70bd aa02 fd3e 6e3d c6bb e5e1 783e
000001c0: daa9 943e 1296 b5be 6582 d3bd cf2c ad3c
000001d0: 7193 303f 2879 1e3e d6d6 4a3e 3276 cc3d
000001e0: 0961 bcbe e218 e43e 747f d53e 0870 06bd
000001f0: d6f0 f3be 32b6 2a3f 81a7 fb3e 4964 d93e
0.52209693 0.003942341 0.6371431 -0.088795386 0.3484218 0.7363844 -0.22877139 0.11303111
-0.20815273 -0.19551817 -0.021016134 0.16447899 0.0494914 -0.5303294 0.4903948 0.06776319
-0.13581043 -0.061494585 0.62552315 0.01770041 0.2972147 0.5625626 -0.1796533 0.5200837
-0.03116741 -0.16189754 0.58079493 -0.2580435 -0.33283383 0.025444195 0.797168 0.12370536
-0.08352763 -0.2531164 -0.1210511 0.6612534 -0.004951881 0.80116826 -0.16106555 0.30072498
0.3333014 0.43597504 -0.17815545 0.3544793 -0.029199757 -0.17364076 0.031227324 0.18048619
-0.3026583 0.35672644 -0.033462293 0.40464026 0.58495224 0.43560204 0.18424292 0.93925583
0.5391243 -0.38795853 1.0330284 0.40621775 -0.060342476 0.38206968 -0.50442964 -0.112077735
0.61054283 -0.68923545 0.5331939 0.3550799 0.37871683 0.51128286 0.26830554 0.22468211
0.0986832 0.43361583 0.2703543 -0.16190122 0.40487653 0.5648405 -0.39778438 -0.39667356
0.10830643 -0.101656824 -0.21272424 0.1992741 0.28467444 0.04211449 -0.080125816 -0.4873215
0.033259127 0.09474823 -0.08178778 -0.4730618 -0.5087754 0.003978291 -0.14262563 0.3885598
0.4393935 0.91192037 0.06890744 -0.07210364 -0.14389499 0.060066074 0.3591289 -0.46852285
-0.19934557 0.27033177 -0.06433688 -0.5424655 -0.058668505 0.49416095 -0.0060498035 0.24304922
0.29035836 -0.35466057 -0.10327605 0.02113953 0.6897498 0.15475905 0.19808516 0.099834815
-0.36792782 0.44550234 0.41698802 -0.032821685 -0.4764468 0.6668426 0.49151233 0.42459324

decoder.network.2.weight f4 [128, 128]
00000000: 71ad 003e b36c 673e b38b 793e 682b 5f3c
00000010: 9a4e 473e 48d0 8b3e e92d 853d fc50 08bd
00000020: eb61 69bd 7680 963e e50e 07be 71a7 fd3d
00000030: fb42 ecbc 3151 afbd bfdf 7b3d 9fbe 5fbe
00000040: 4e78 94bd 8ccb a33d ba63 913d b905 f2bc
00000050: 8530 923d 005a fbbd 7df6 84bd cdc4 203c
00000060: 58f7 523d 0169 8f3e 223c 203e f976 b93d
00000070: 2b95 813e ce66 87bd 2ed8 533e 9766 e13d
00000080: 77b6 7b3d 69c5 1c3e 33ba 583e a759 abbc
00000090: d57d 4ebd ce2e 143e f64f 183e 5d16 04bd
000000a0: 9519 143e 9323 0a3e 1501 b9bc bbc9 e73c
000000b0: dc11 803d aedc 21be de58 54be c97a f1bd
000000c0: 7108 933d d060 533d 8250 91bc 7bc1 943c
000000d0: 10b7 cbbc a6a7 10bd 6ae6 663e be9e 193e
000000e0: faae 363d d9e6 103e 118a 843e f649 0ebd
000000f0: 5549 143d 09a0 c8bd e9be c83e 08e2 f4bd
00000100: 257b 3e3e 1682 ee3e 8590 183d f534 f0bd
00000110: ce7a 483e 9457 4a3d 8e54 203e 5b53 85be
00000120: cbf0 853e c4e1 9f3d 48e4 293e 69a4 d9bd
00000130: d0f4 1c3e 0df0 5bbd 0140 b63d 1661 4ebe
00000140: 498c 803d 1701 0c3e ada7 12be c6df db3c
00000150: 5291 853e d518 2e3e 2508 6a3e 1230 2e3f
00000160: cf01 d73d 32ab 1c3e a786 af3d 396c 243e
00000170: 9c28 ce3c 423b aa3e 0704 e9bd ee9e 203d
00000180: 3715 933c ba2b 003e 7777 ee3b 986a 6dbc
00000190: 6e75 bbbd d394 c6bd e5b1 16bd b68f 0bbe
000001a0: 2679 963d 04db b63d 19dc 84be 0c70 ee3e
000001b0: 341b 513d b215 bbbc 61b4 7b3e a217 2dbc
000001c0: 84c7 1fbd 6ace 953d e17e 3c3e 9076 b83d
000001d0: ed8f 813d 6965 9bbd 2dcb 443d 0ee5 86be
000001e0: c7d0 1c3e 1d6b 9cbd 6188 193d 6351 aa3b
000001f0: ba93 09be f3c8 013d 78ec 513d 8118 ba3d
00000200: 3e0f 023e a235 f1bd f6fd b53d d5ba 7a3d
00000210: 6df7 d7bb 289a 19bd f089 7d3d 5f4b 993c
00000220: d858 143e 596d ddbd 5183 2cbd ebf4 f1bc
00000230: 365e 8cbd 3883 b6bd 7207 d93c 424a 603d
00000240: 8e8e b23d 6512 77bd cc21 823e d8ea d63b
00000250: 27e2 2bbb a2ab 3dbe 0cfa dcbc bff7 823e
00000260: 1d6b 26be 1b57 3f3d 7691 17be eb7d 0abe
00000270: 6c5a 20bd 99b0 283e 2474 a13e 77a7 4f3c
00000280: a094 31be fb94 053c 9d4b 20be bb88 183e
00000290: 215e b9be 082f a03d e750 2abc a93e 5f3c
000002a0: 316e 7fbc 701f b7bc a909 893d 999f 2b3e
000002b0: 9253 b9bc 36b7 8f3d 44f0 433e 0b6d 043d
000002c0: 3fc3 f2bc fce4 61bd d538 b4be bf90 d1bd
000002d0: 6622 6f3e eb57 af3c f7ff 093e c2b9 aabc
000002e0: b609 f93c e006 a43d 3828 573e c7f2 173d
000002f0: 4f78 083e 71ab 943d a38e 55be c153 123d
00000300: ab7d 713c de1b 6d38 18cc 03bc 9a4f 4b3e
00000310: 6fe6 adbd 0295 8fbe 618f 4bbe 72ce 883d
00000320: 54c6 70bd c9dd 9b3e 1fa8 90bb 6dfb 25be
00000330: 87bb 8dbc 0059 a53e 1473 2abd fb45 27be
00000340: 0f49 0abe fa9c 95be 7c98 8abe 9318 e63c
00000350: b46a 203d 9c0e c03d 299d 213e 8ea6 77bd
00000360: fe96 a4bd ac00 773b c9ba d93d 720d 0b3e
00000370: fa39 9bbe d529 113d 9b8a 153d 4982 5d3e
00000380: 4aae ee3b 76d8 073e 728d d0bd 8deb 66be
00000390: 5d49 f73d 5139 b83d fa4f c63d c331 56bd
000003a0: 35b4 0f3e d698 f63c 3383 5abc d389 35bc
000003b0: 5d2f 953c bf9d 63bd e419 47be e023 71be
000003c0: c69b 5d3c cdc8 253e ae04 98bd a56e d3bd
000003d0: 6418 4a3a fdf6 3a3e 6f72 58bc af3f 6abe
000003e0: f0c7 933e 4bdb 9cbb ebd4 05bd 1b05 a63d
000003f0: 2dba c13e dcbb 163d 6792 b7bc 2414 2abe
0.12566163 0.22600059 0.24369697 0.013621189 0.19463578 0.27307343 0.06502897 -0.033280358
-0.056978147 0.29394883 -0.13189276 0.123854525 -0.028840533 -0.08560408 0.061492678 -0.2185006
-0.07249509 0.07997808 0.070990995 -0.029543744 0.071381606 -0.122730255 -0.064923264 0.009812546
0.051505417 0.280098 0.15647939 0.09055895 0.2530912 -0.06611405 0.20687935 0.110058956
0.06145331 0.15309681 0.2116478 -0.020916773 -0.05041297 0.1447098 0.14874253 -0.03224789
0.14462884 0.13490133 -0.022583524 0.028294435 0.062534064 -0.15806839 -0.20737025 -0.117909975
0.071793444 0.051606 -0.017738584 0.018158665 -0.024867564 -0.035316132 0.22548833 0.15001962
0.044600464 0.14150561 0.25886586 -0.034738503 0.036202747 -0.09796149 0.39208153 -0.119571745
0.18601663 0.46583623 0.0372472 -0.11728851 0.19578096 0.049399927 0.15657255 -0.26040158
0.26160273 0.07806733 0.16590989 -0.10627062 0.15327764 -0.053695727 0.088989265 -0.20154223
0.06276757 0.1367229 -0.14321776 0.026840102 0.26087433 0.1700166 0.2285467 0.680421
0.10498392 0.15299681 0.08570605 0.16056909 0.025165848 0.33248335 -0.11377721 0.039214067
0.017954452 0.1251668 0.007277425 -0.014490746 -0.09153257 -0.09696355 -0.036790747 -0.1362904
0.07347326 0.08928493 -0.2594917 0.4656986 0.051051334 -0.022837494 0.24580528 -0.0105647165
-0.039008632 0.07314761 0.18407775 0.09006989 0.0632628 -0.07587702 0.048045326 -0.2634663
0.15314017 -0.07637618 0.037483577 0.0051976903 -0.1343526 0.03168578 0.051250905 0.09086705
0.12701127 -0.11777808 0.0888633 0.061213333 -0.0065907747 -0.03750053 0.061899126 0.018712698
0.14487016 -0.10811872 -0.04211742 -0.029535731 -0.06853907 -0.08911747 0.026492808 0.054758318
0.087185964 -0.060320277 0.2541641 0.0065587573 -0.0026227327 -0.18522504 -0.0269747 0.2557964
-0.16251798 0.04671393 -0.14801583 -0.13524596 -0.039148733 0.16473617 0.3153392 0.012674204
-0.17341852 0.0081531955 -0.15653844 0.14895909 -0.36204627 0.078214705 -0.010395265 0.013625779
-0.0155902365 -0.022353858 0.06691296 0.167601 -0.022622857 0.070173666 0.19134623 0.032330554
-0.029634116 -0.055150017 -0.3519961 -0.10232686 0.23352966 0.021404227 0.13476549 -0.02084053
0.030400138 0.08009124 0.21011436 0.037096765 0.13327144 0.07259262 -0.20855193 0.035724405
0.014739434 5.6531157e-05 -0.008044265 0.19854584 -0.08491217 -0.2804337 -0.19878913 0.06680001
-0.05878289 0.30442646 -0.004414573 -0.16209193 -0.017301334 0.32294464 -0.041613653 -0.16335289
-0.13504432 -0.29221326 -0.2706946 0.02808789 0.03916426 0.093777865 0.15782608 -0.060461573
-0.08036612 0.003768961 0.106313296 0.13579348 -0.3031767 0.035440285 0.036509138 0.21631731
0.0072839605 0.13266167 -0.101832286 -0.22550793 0.1207454 0.08995307 0.09683223 -0.05229355
0.14033587 0.030102175 -0.013336944 -0.011080223 0.018211061 -0.05557036 -0.1944347 -0.23548841
0.013525909 0.1618988 -0.074227676 -0.10323838 0.0007709323 0.18258281 -0.013210877 -0.22875856
0.28863478 -0.004786884 -0.032673758 0.081064425 0.37837353 0.03680025 -0.022408677 -0.16609246
