models/mnist_vae_dims_128/vae_8d.pth (torch, 956058 bytes, 14 tensors)

encoder.network.1.weight f4 [128, 784]
00000000: 9c74 d13b 3e14 de3c 281d 013d 4aec 4fbb
00000010: 7335 ccbc ae8a 8f3b 61e1 46bc 8f87 08bd
00000020: 9c82 753c 5ec1 af3c 57f5 503c 9ace 923c
00000030: b155 6d3d 3b69 a03c d7da 503c 9224 14bd
00000040: 0c8d ab3c 3823 f93b a5b2 cbbc 1a1e 053d
00000050: 6e9d 0bbd 2df6 0dbd c5b1 47bc 539d 753c
00000060: 3cd5 2ebc 3eca 9bbc 5c44 9d3b b7c1 8dbb
00000070: b88c f1ba 8e44 c43c ecdc 113d 6591 90bb
00000080: a916 abbb ea81 df3c 65e1 af3d 5f59 993d
00000090: 5bea 773c 692b c23c 45fb f8bb df91 c23d
000000a0: 46ba 1c3d 7ace e33b d7f9 243d f350 1b3d
000000b0: 3867 18bd 99c7 b53c 7c75 d83b 18c4 ec3b
000000c0: 6e0b 65bc fd7c 88bd ca92 c1bd bebe acbc
000000d0: 1e9c 84bc 1318 223b d5ae fcbc fee3 f2bc
000000e0: 25ee 1e3c dcae 69ba 5137 0a3d 6762 813a
000000f0: c4f0 863d fc67 4c3d 7013 1a3b 7c83 413d
00000100: 9ce5 aabc b0c7 80bd d0ff 583b 3191 123d
00000110: a168 8f3c 5ac1 fabc acea 14bd 9e84 383c
00000120: 786b 96bc 0dc9 0abb 6b53 243c daa2 413c
00000130: ac8a 8d3d e49c 2039 b84b 773d 59cf 963d
00000140: fb16 8a3d 7dd4 fcbb 0ca6 003d d520 ffbc
00000150: a5c3 8c3c a595 61bb 6831 96ba fcf7 fd3b
00000160: d938 613d 75c9 2c3d bf5c 33bd 7d28 c23c
00000170: 1e14 5abd 1ca7 40bc 3cb0 2bbd 5dfd f4bc
00000180: b585 85bc 8ead cebc e854 aabc 6c8f 36bd
00000190: 6509 e9bb 2e46 13bc ecef 873b f9b5 0a3d
000001a0: eb4c 193b 407b a63c d061 923d 011f a33d
000001b0: 1b21 b13d d0cb 423d 2590 10bd 9100 d0bc
000001c0: 1319 21bc cf51 553d 39bd bb3d d512 86bc
000001d0: 4a21 d4bc f6fc 1f3d 1177 483c f20c 31bc
000001e0: cfdd d4bc 1e5a 4dbd d8d5 59bd bcf6 10bd
000001f0: 7cf9 93bd 86cc bbbd 2abb 63bd 815a acbd
00000200: dace 28bd a89a 23bd 813c eebc d336 01bd
00000210: bac1 8bbd 35dc 163d 2d93 863d 5e6a cd3c
00000220: 5c5a 0a3e 2168 033e b2c5 323d 8212 d7bb
00000230: acb8 823c 13c5 fdbb 60b3 a53d ddc0 053d
00000240: 3689 073b b2da 34bd 071b 7ebd 600f 9abd
00000250: 7a77 3fbd 3810 dfbd f3e3 86bd 7200 8abd
00000260: 2afc 9bbd c0ed 88bd e338 7bbd ae61 3fbd
00000270: d8fe afbc c20d 19bc f30e 99bc 86be e4bb
00000280: 6442 653c 677e 823b 47a3 7e3c 207e 4fbc
00000290: 90c7 423d d3c5 cd3d 20f8 983c a0ff 0ebd
000002a0: 2574 9dbc 10e3 913d 6ddf 133e 3cb5 c83d
000002b0: 32e7 493a 6880 6fbd e399 38bd c764 81bd
000002c0: f578 f1bc 66a4 d1bc 014c 3bbd 8071 0abd
000002d0: ba58 61bd bfce 8fbd 6a3b 56bd 41b0 46bd
000002e0: 12c3 0fbc b07a 1abd ba80 b7bb ef7f ffbb
000002f0: 8dda 353c 77d6 4dbc 6d6b 123d 4642 753d
00000300: bdff eb3d 3931 123e 7623 8bba 5841 523c
00000310: c2c3 6a3d 0f97 8b3d 3642 bc3d 22c0 883d
00000320: ddd5 283d 4110 263d cb0d 33bd 5cee 59bd
00000330: 9f7f 54bd 0027 81bd e0f8 20bd 8178 b0bc
00000340: dc4c 20bd 787b f5bc a753 2bbc b2f7 01bd
00000350: 7013 d3bb 5528 acbc 0a24 4e3c 49af fe3c
00000360: 047f cf3c d6b9 7b3c 6913 473b 7d24 b53d
00000370: a29f 0e3e 0dac 063e 2280 063e e797 743d
00000380: 8ee1 5e3c baa8 a73d 2b38 0e3e 0868 803d
00000390: 7e56 363d 4922 7439 1385 77bc e819 60bd
000003a0: 28e2 b9bc ce98 d5bc 1931 223d 6e7a d33c
000003b0: a802 bc3c e344 0c3d c1c9 d63a e631 c23c
000003c0: 672b 9dbc 19bf 5abc 2463 9a3c 43b2 193d
000003d0: 72a5 b33c b89e 1f3c 610a 873c 24a0 a53d
000003e0: 25b7 f53d 5ba4 943d a51a 9c3d ea0b 9c3d
000003f0: c20f 5e3d e7e2 7d3d 31bd 283d c5d9 1b3e
0.0063920747 0.027109262 0.031521946 -0.0031726533 -0.02492783 0.0043805456 -0.012138695 -0.033332404
0.014984753 0.02145451 0.012753806 0.01792078 0.05794305 0.019581428 0.012747488 -0.03616769
0.02094128 0.0076030754 -0.024865458 0.03249941 -0.034085684 -0.0346586 -0.01218838 0.014991122
-0.010670956 -0.019017335 0.004799409 -0.004326071 -0.0018428778 0.02395847 0.03561108 -0.0044118636
-0.005221207 0.027283628 0.085879125 0.07487749 0.015131558 0.02370234 -0.007598313 0.09500479
0.03826358 0.006952104 0.04027733 0.037918996 -0.037207812 0.022189902 0.006605802 0.0072255246
-0.013979776 -0.066644646 -0.09451826 -0.021087047 -0.016187724 0.0024733588 -0.030845085 -0.02964973
0.009700333 -0.00089143007 0.03374416 0.0009871245 0.06588891 0.049903855 0.002351012 0.047244534
-0.02086144 -0.06288087 0.003311146 0.035782997 0.017505946 -0.030609775 -0.036356613 0.011262087
-0.018361792 -0.0021176965 0.010029654 0.011818612 0.06911215 0.00015317235 0.060374945 0.07363767
0.067426644 -0.0077157603 0.031408355 -0.031143585 0.017183134 -0.003442147 -0.0011458816 0.0077505093
0.054985855 0.042184312 -0.04378962 0.023700947 -0.05324184 -0.011758592 -0.041916117 -0.02990597
-0.016299108 -0.025229242 -0.02079244 -0.04457037 -0.0071117156 -0.0089889 0.004148474 0.03386495
0.0023391794 0.020322442 0.071475625 0.07964898 0.086488925 0.047557652 -0.035293717 -0.025390895
-0.009832638 0.052079972 0.09166951 -0.016366402 -0.02589478 0.0390596 0.012235419 -0.010806309
-0.025984673 -0.05013477 -0.053182453 -0.035391554 -0.0722532 -0.09169869 -0.055598415 -0.084157
-0.041212894 -0.039942414 -0.029081585 -0.031546425 -0.0682406 0.0368311 0.0657104 0.025075134
0.13511032 0.12832691 0.04364557 -0.0065634856 0.015957199 -0.0077444403 0.08090854 0.032654632
0.002068115 -0.044153877 -0.062037494 -0.07522464 -0.0467448 -0.10891765 -0.065864466 -0.06738366
-0.07616456 -0.06685972 -0.06133355 -0.046724014 -0.021483824 -0.009341659 -0.018683886 -0.00698072
0.01399288 0.0039823535 0.015541858 -0.012664348 0.0475536 0.100474976 0.018673003 -0.03491175
-0.019220421 0.07123387 0.14440699 0.09800193 0.0007701992 -0.058472067 -0.045068633 -0.0631805
-0.029476622 -0.025591087 -0.04572678 -0.03379965 -0.055016257 -0.070218556 -0.052302755 -0.048507933
-0.008774536 -0.03771466 -0.005600062 -0.0077972333 0.01109947 -0.012563339 0.03574698 0.059877656
0.115233876 0.1427659 -0.0010615427 0.012832962 0.057315595 0.068159215 0.09192316 0.066772714
0.04121958 0.040542845 -0.043714326 -0.053205833 -0.05187952 -0.06306267 -0.039299846 -0.021541836
-0.0391358 -0.029966101 -0.010456956 -0.03173036 -0.006441526 -0.021015326 0.012581835 0.031089442
0.02532912 0.015364131 0.003037656 0.0884485 0.13928083 0.1315157 0.13134816 0.059715178
0.013603581 0.08186479 0.13888614 0.062698424 0.04451608 0.00023282426 -0.015107411 -0.054712206
-0.022690848 -0.02607384 0.039597604 0.025815215 0.022950485 0.034245383 0.0016387032 0.023705434
-0.019185735 -0.013351225 0.018846102 0.03752352 0.021929476 0.009742431 0.016484441 0.08087185
0.11997823 0.07257911 0.076222695 0.0761946 0.054214247 0.06198397 0.041196052 0.15219791

encoder.network.1.bias f4 [128]
00000000: a352 e53e 419f 923e 4dfd 393e 17ec 4c3e
00000010: 9292 9cbc d2f4 84bb 5edf d93c 4e83 0b3e
00000020: 2329 13bd 69a0 243f 8a37 583b 4845 a83e
00000030: 4c66 b7bc 06ca c73e a918 6b3d 9156 d6bd
00000040: 8634 1cbe 46e6 46bd 29ef 5bbd 2ecd 663e
00000050: 7f72 013e 2aca 96b9 3e9a 733e e7dc f03e
00000060: 88fc 5e3e 01cc 823e 4ad3 683e 8d23 493e
00000070: c509 823e 6ab5 79be b6a4 12bd 2f6d 0e3e
00000080: 32a6 29bd fa7e 6e3d 30c0 92bb 0e52 b53e
00000090: fe83 dc3e a661 0d3b 8c28 25bb a89a 6d3e
000000a0: bb91 653c 240e babb 1405 363c 1bad 2bbd
000000b0: d489 e3bc 30b4 a1bc a941 93bc 79bf 2abd
000000c0: 1555 8c3e b057 42bd 2f5f e23d f074 b63d
000000d0: 016c 693d 42d9 9d3d d2b4 bd3c 0b8c fa3a
000000e0: aef2 29bc 0c55 abbc 6e54 8dbc 3778 0cbd
000000f0: bec7 633c 0f02 283d 9e5f cc3d 425f f43d
00000100: 0163 d2bc a4db c73b 0cf7 4fbd 32be a03c
00000110: 0843 74bc 4a7f 803e 874a 443e 8688 433e
00000120: eca1 c33c 0b25 833e 87af f23d 74ff 433c
00000130: b01d 23bd 2757 4e3d d155 163e 2009 aabd
00000140: a089 7b3e 9642 9fbe c14b 183e 479f e9b8
00000150: ba8e 5f3e cdbb 9c3c 71df dd3e ad3a cbbb
00000160: 4e77 383d 2d15 d23e 02cc 6c3c 7dc7 453e
00000170: a75d 9bbc 12cb dbbb 5830 8c3c 7e5f 05bd
00000180: 590e 233c 642f 20bd eaab 14bd e5a9 083f
00000190: b03d c2bd 6ae1 763e 8021 243c 2d0a 813e
000001a0: 6741 0cbd d656 35bd b969 a13e eedf 283e
000001b0: 1caa 1fbd b6c3 35bd 6138 c43d 6604 b03d
000001c0: b8dc 4f3e e1bf cdbc a3aa 25be e02e 7c3c
000001d0: 5034 ebbd 1082 7a3e 1101 7b3e 73ba 87bc
000001e0: f329 ed3d 3cc5 2abd 13b6 dc3d b20a 87be
000001f0: 2366 493f 6164 a23c 0b46 813e 9b6a 8c3d
0.4478961 0.28637126 0.18163033 0.20011936 -0.019112859 -0.004057505 0.026595768 0.13624308
-0.035927903 0.64307266 0.0032992088 0.32865357 -0.022387646 0.3902132 0.057396565 -0.1046573
-0.15254411 -0.04855945 -0.053694878 0.22539207 0.12641333 -0.00028760853 0.23789307 0.47043535
0.2177602 0.25546268 0.2273685 0.19642468 0.2539808 -0.2438561 -0.03580161 0.13908838
-0.04141826 0.058226563 -0.004478477 0.35414165 0.43069452 0.0021573096 -0.002520117 0.23203528
0.014011796 -0.005677955 0.011109609 -0.041913133 -0.027775683 -0.01973924 -0.017975645 -0.04168651
0.27408662 -0.047446907 0.11053311 0.08909023 0.056987766 0.07707454 0.02315751 0.0019115222
-0.010372801 -0.020914577 -0.017252173 -0.034294333 0.013902603 0.04101759 0.09979175 0.119322315
-0.025681974 0.0060991812 -0.05077271 0.019621942 -0.01490856 0.25097114 0.19169055 0.19095048
0.023880921 0.256142 0.118498854 0.01196276 -0.039823234 0.050376084 0.14681174 -0.08302522
0.24564219 -0.3110549 0.14872648 -0.000111399735 0.2183179 0.01913252 0.43334535 -0.006202063
0.045035653 0.4103178 0.014452936 0.1931438 -0.018965555 -0.0067075575 0.017112896 -0.03256177
0.009952151 -0.039107695 -0.036296763 0.5338424 -0.09484422 0.24109426 0.010017753 0.25203076
-0.03424206 -0.044272266 0.31525972 0.16491672 -0.03898059 -0.044376098 0.09581066 0.08594589
0.20299041 -0.025115909 -0.16178374 0.015392035 -0.11484587 0.24463677 0.24512126 -0.016568398
0.11580267 -0.041692004 0.107769154 -0.26375347 0.78671473 0.019823255 0.2524875 0.06856271

encoder.network.3.weight f4 [128, 128]
00000000: 3f3d 3f3d b0dc bd3d 343a 573e 99f8 1b3d
00000010: c5ca 4bbd af27 9abd 9d4e 863d db9c 6e3d
00000020: db29 0a3d bc5f 35be be72 843b b7d4 61bb
00000030: 55c2 6ebd 3614 3f3e aecc c53d 2e48 fc3d
00000040: a460 ac3d 9ade 8ebd bf6f 793c 2442 8e3d
00000050: dcd2 303e 231f 083d b40d e03c f1fa 003e
00000060: 619a e2bc 06fc 633e 9859 4dbd 9023 84be
00000070: b86e d73b c318 78bd e7c5 80bd 33d7 cebd
00000080: 77b8 adbc 24b3 38bd 7503 48bd 4dfe 14be
00000090: 2330 9dbd 1ff3 89bd 7271 83bb 0a3c 213c
000000a0: 43eb 87bd 9656 093d 67c5 85bd 596e 7b3d
000000b0: 4818 a53c b14f b43d bd97 f9bc 8815 31bd
000000c0: ba5d 493e 6ce1 b3bd 58cf c0bd 48ec 063d
000000d0: 4f84 4f3e 373e 0d3e 5d13 bc3c c585 f1bc
000000e0: a109 4dbd 29a3 be3c 6a72 833d b84d 823c
000000f0: 45ea 683d 03fa 493e b900 113d 80f7 cdbb
00000100: 8879 423c ec13 153d b8d0 14bd 04ba 653d
00000110: 3e81 8fbd 9313 203d 4ea0 2ebc 67ba b53d
00000120: dfdc d03c 2438 98bc a4b9 8d3d be16 173d
00000130: 5574 6dbc 8923 8e3d 7744 65be 4c0a 953d
00000140: f630 ad3c 6c7e ac3d 6437 f6bc f4ce 71bc
00000150: f8b1 153e c28e a6bd c758 e8bc 450e 0cbd
00000160: 2b62 073e f1c6 31be 6d0d d03c 17fd d03b
00000170: e3fc 163b 81c6 3cbd 639c 813d a77b 723c
00000180: a9d3 b4bb ac5a 073d 5f10 123d 74b8 32bc
00000190: 6be5 9e3d d446 0e3d 7149 993d 8b2d 043d
000001a0: d0fd a73d 767b fcbc 3f60 823d c9a8 c93d
000001b0: f711 1f3d 97c4 7d3d afbf 013e 7e5a 813d
000001c0: 9076 283c dfde 05bd cb31 0d3e d20f 343e
000001d0: 420f cb3d b85a bdbd deff 6c3e 58e0 9fbd
000001e0: 6267 1e3e 3e63 47bd cb80 65bd 52e7 1c3e
000001f0: 3ff1 44ba db64 803e def2 02bc 615e 05be
00000200: 9fd0 a63d 8edb d4be c6a3 803b 6e17 333d
00000210: a024 b0bd d3ca 263d fad8 86bd 1354 16be
00000220: 3ac6 59bd 443d 863e de27 883d b792 9a3d
00000230: 35bd 31bc a4b6 3c3d 3e1f b8bd b72b 933c
00000240: 3a5f 1fbd 9689 94bd deb1 fa3d dc21 333c
00000250: fd2f 4c3c 03b1 0ebd a508 be3d af68 ae3c
00000260: a145 fe3d 89c6 3cbd d0e6 49bb b4ca 42be
00000270: e0ee 0fbd 5504 4bbd 34e2 083c 2d16 673d
00000280: b077 68bd c913 623d 6655 573d dc41 7e3e
00000290: 53cf bcbd f1bd 84bd a7b8 61bc 9611 a0be
000002a0: 8724 b83b 03ee 5cbd ed32 a43d 0acf 0e3d
000002b0: 1bac 333d fffe 783d fb85 0cbd 799f 43bd
000002c0: 2081 cfbd 15e9 0e3d 5c8f 203d 1898 0abe
000002d0: 4729 1e3c 79c8 3d3c 4801 a13d 67ec 8f3d
000002e0: b32f cc3b 409e 4c3c dc70 ddbc 0306 90b9
000002f0: 19ee 473c 9803 dcbd 161f a6bd 3c60 793d
00000300: 07f9 dabc ba7b a1bc cd77 4ebd bf22 8b3b
00000310: 2b3f 143d 3545 aabd 050b d6bd 7120 1a3d
00000320: 7e60 1dbd eea7 b43d a667 2fbd 7b69 12bd
00000330: d359 bebd f960 24be 2e16 25be b139 0bbe
00000340: 5465 4f3d 8af6 913c 5dc3 633b ff20 23bd
00000350: b6cb f63c f255 ad3a 3ad4 483d 445b b9bd
00000360: ec57 80bc c1aa 64ba 7e3d 063d 2e86 86bb
00000370: ecd7 543d 05e7 243c 4f55 fd3b 3aeb 03be
00000380: 4e49 8a3d fad7 913d b5b4 813d a032 4e3e
00000390: 207b 403d aaf1 033d 8031 953d e2fc 55be
000003a0: fe31 133d 204f 4c3c d6bf a8bc 9171 3bbd
000003b0: 26d0 c13c 2586 bcbd 109c e1bd 81c2 30bd
000003c0: 5d99 8bbd 91ab f23b 271b d7bd 9588 a9bd
000003d0: aa31 34bd 5ccd 5c3c bec1 643d f2a4 b5bd
000003e0: 76c3 083d 9e27 a23c 525b 063d d657 d9b9
000003f0: bd15 fc3d dd6e 36be abc5 823d d6c9 cebd
0.04668927 0.092706084 0.21018296 0.038078878 -0.049753923 -0.075271 0.06557963 0.058255058
0.033731323 -0.17712301 0.0040419986 -0.0034459063 -0.0582908 0.18660054 0.0965818 0.12318455
0.0841687 -0.06976052 0.015224396 0.06946209 0.17267936 0.03323282 0.027350284 0.12595727
-0.027661504 0.22264108 -0.05013427 -0.25808382 0.006574478 -0.06057049 -0.06287747 -0.1009964
-0.021206124 -0.045092717 -0.048831422 -0.14550133 -0.07675197 -0.06735825 -0.0040113265 0.009840975
-0.066366695 0.03352984 -0.06531792 0.061384533 0.02015318 0.088042624 -0.030467862 -0.043233424
0.1966466 -0.0878323 -0.09414548 0.03294018 0.20265315 0.13793264 0.022958452 -0.029482732
-0.05005801 0.02327116 0.06418307 0.0159062 0.05686404 0.19724278 0.03540108 -0.006285608
0.011869796 0.036395952 -0.036331862 0.0560856 -0.07007073 0.039081167 -0.010658337 0.08873444
0.025495945 -0.018581457 0.06920174 0.036886923 -0.014493068 0.069403715 -0.22389399 0.072773546
0.02114151 0.084225506 -0.03005571 -0.014758814 0.14618671 -0.08132698 -0.028362645 -0.034193296
0.13221042 -0.17361046 0.025397027 0.006377827 0.0023038916 -0.046087746 0.063286565 0.014799989
-0.005518396 0.033045456 0.035660144 -0.010908235 0.07758602 0.034735516 0.07484711 0.032269996
0.08202708 -0.03082059 0.06366014 0.09846646 0.038835492 0.06195506 0.12670778 0.06316088
0.010282174 -0.03268325 0.13788526 0.1758416 0.099150196 -0.09245819 0.2314448 -0.07806462
0.15469125 -0.04867863 -0.05603103 0.15322617 -0.0007512755 0.25076947 -0.007992474 -0.13024284
0.0814526 -0.41573757 0.0039257733 0.043723516 -0.08600736 0.040720772 -0.06584354 -0.1468051
-0.05316756 0.26218617 0.06648229 0.07547515 -0.010848333 0.046072617 -0.08990334 0.01796518
-0.038909175 -0.07252805 0.12240957 0.010933366 0.012462613 -0.03483678 0.092789926 0.021290151
0.124156244 -0.046087775 -0.003080774 -0.19022638 -0.03513992 -0.04956468 0.008354712 0.056417633
-0.056754768 0.05519465 0.052571677 0.24829811 -0.092192315 -0.06481541 -0.013776935 -0.31263417
0.005619589 -0.053937923 0.08017526 0.034865417 0.043865304 0.06079006 -0.03430746 -0.047759507
-0.101320505 0.034890253 0.03919922 -0.13534582 0.009653396 0.011583441 0.078615725 0.07027512
0.006231272 0.012488902 -0.027031355 -0.000274703 0.012202763 -0.10742873 -0.08111398 0.060882792
-0.026730074 -0.019712318 -0.05040722 0.0042460854 0.036193054 -0.083139814 -0.104513206 0.037628595
-0.0384221 0.088210925 -0.042823456 -0.035745125 -0.09294476 -0.16052617 -0.16121742 -0.13596226
0.050633743 0.017817754 0.0034753897 -0.03982639 0.030126434 0.0013224466 0.04903052 -0.09050611
-0.015666924 -0.0008722954 0.032773487 -0.004105351 0.05196373 0.010064845 0.007731117 -0.128827
0.06752263 0.071212724 0.06333295 0.201365 0.04699242 0.03221289 0.07284832 -0.20897248
0.03593635 0.012470037 -0.020599287 -0.045762602 0.023658823 -0.092052735 -0.11016095 -0.043154243
-0.06816361 0.007405706 -0.10503226 -0.08278004 -0.043992676 0.013476696 0.05584883 -0.088693514
0.03338953 0.019794282 0.032801934 -0.00041454908 0.12308834 -0.17815728 0.063853584 -0.10097091

encoder.network.3.bias f4 [128]
00000000: c215 8bbe a61a d43e 5a71 e13c b037 093f
00000010: 9f87 88bb 3c85 0c3e 190f b63b d64f 51be
00000020: 4b99 5abe 4969 5b3e 57fa c4bd fda1 423d
00000030: a1c1 fd3d 037e 4ebd e09d e33d 4ba8 513d
00000040: 7abe 553c 50e6 8abd df46 bbbc 506a e63c
00000050: 7b1f c9bd 57a3 9dbc 3373 a83e b411 ea3e
00000060: cb35 4b3e 3cf1 b73e a440 923e 92ac a53d
00000070: 5314 c53d 8918 433e 2117 683e a55a 103d
00000080: b904 78b8 ab0b 9bbd d760 223e 7793 c2bc
00000090: 0bb9 703c 9861 b73d 5f10 d73e c655 583d
000000a0: 85fb d13a 2ed6 f43d 8d50 03bd a585 dabd
000000b0: 5cfc 36bb fa9f 403e 5a4a a93e e3c3 3abe
000000c0: 2530 ca3c cf0e 563d fc2c 2fbc ab38 e9bd
000000d0: e005 093e 93a3 15be db85 593e a617 8d3e
000000e0: 0abf cebd d87f 153f 2a08 e53a 3429 b83c
000000f0: 5c95 113e 79e7 4bbc 918d 6abd b081 f33c
00000100: 9e29 683d 6310 8fbd 14f3 0dbd 6baf 0ebd
00000110: ef1e 063c d5ee 303e de90 f43e 4c4a c83d
00000120: 0623 42bc 4993 8a3e a208 463e 2783 bd3d
00000130: 437d 9abd eb0c 66be 2fec 8abd 21c4 f33c
00000140: 273b 47bc 4d25 86bc 401c 823d 254a 24bd
00000150: 7e4b 9bbc 1e58 ba3e ae7c 6c3d 5a88 c43e
00000160: 958c aebd bf93 003e ffa7 c0bd 8034 543e
00000170: f1c0 cc3e 1d08 703e 408e c33e 7032 4a3d
00000180: 54a4 bd3d 99d0 0d3e f0dd 283e 06ff 093e
00000190: 4ee3 673e 03ca 403d 4150 1bbd ebd3 963e
000001a0: 197b 6abb 635d 923d 78d2 b6bc e12f 7fbe
000001b0: 104f b93d d03d 413d 6c6d 043f 1dd3 61bd
000001c0: ab37 25be c55e d43d 29a4 343e aabb 6b3d
000001d0: 9e6d 1fbe be22 b53e 767e 283e e2ac cb3c
000001e0: 7771 0a3d 45a7 ff3d 1091 023e b1c6 9bbd
000001f0: 54ee 23bd 8baf 973d 89a5 90bc 85c8 b03c
-0.27165037 0.4142658 0.02751987 0.536006 -0.004166558 0.137227 0.005555999 -0.20440611
-0.21347539 0.21426882 -0.09618061 0.047517765 0.123904474 -0.050413143 0.11114097 0.051185887
0.013045901 -0.0678221 -0.022860942 0.028126866 -0.098204575 -0.019242926 0.3290039 0.4571663
0.19844739 0.35926235 0.28564942 0.08089556 0.09623017 0.19052328 0.22665073 0.035242695
-5.9132206e-05 -0.07570585 0.15857254 -0.023751957 0.014692555 0.089541614 0.42004678 0.052816175
0.0016020393 0.11954914 -0.03205924 -0.10670022 -0.0027921414 0.18811026 0.33064538 -0.18238787
0.02468116 0.052260216 -0.010691877 -0.11387762 0.13381147 -0.1461318 0.21242468 0.27557105
-0.100950316 0.583982 0.0017473747 0.022480585 0.14217132 -0.012445324 -0.057263914 0.029724926
0.056680314 -0.069855474 -0.034655645 -0.03483526 0.008186086 0.17278607 0.47766775 0.09779796
-0.011849171 0.27065495 0.1933923 0.09253531 -0.07543423 -0.22465865 -0.0678333 0.029756607
-0.012160099 -0.016375208 0.063530445 -0.040109772 -0.018956896 0.36395353 0.05773609 0.38385278
-0.08522908 0.1255636 -0.09407043 0.20723152 0.39990953 0.23440595 0.38194466 0.049364507
0.09259859 0.13849105 0.16490912 0.1347619 0.22645304 0.047067653 -0.037918333 0.29458556
-0.0035778938 0.07146718 -0.022317156 -0.24920608 0.09048283 0.04717809 0.51729465 -0.055132974
-0.16134517 0.10369638 0.17640747 0.057552017 -0.1556916 0.3537807 0.16454491 0.02486271
0.033799615 0.12483076 0.1275065 -0.07606257 -0.04002221 0.07406529 -0.017657058 0.02157999

encoder.output1.weight f4 [8, 128]
00000000: dd6c 353d 139e 853c a4d4 903d 719f a0bd
00000010: 280b 61bd dc7f 8e3c ebc8 f7bc 0261 14bd
00000020: 6ba5 e33d 23fb 883b 7f8b 973d 1eaf debd
00000030: e1cd 04bd e2af 5fbb 602c 503c 14ac a33d
00000040: c92c b03c 0b20 84bc ba3e c3bc 015b 1a3d
00000050: d586 4d3d 46b5 42bc 85c4 eabd f1fb 2d3d
00000060: 1adf 14bc ec88 bebd e127 ce3d 7e5d 58bd
00000070: 37af f5bd af00 36bd 52f2 b43d 3a73 c43d
00000080: da67 11bd 4d6e 923d afd5 83be 95a3 293d
00000090: 1139 8fbc bc35 253d 6410 8abd 9e9a 0bbd
000000a0: da79 4d3d c2e6 7dbd 2c8a 17bd 51a1 6abd
000000b0: 7db9 353d fe96 84bc 0087 8dbd b65c 853d
000000c0: e1f8 39bd 674c bb3d bab5 6fbd cb30 3fbd
000000d0: 0ac5 1bbd 41f4 b63c cb36 83bd ea53 2a3d
000000e0: 72c6 25bd 750c 5cbc 151c 2ebe 07d2 0dbd
000000f0: aa9e 153d 4b2f f93d 99a3 f63c 8540 60bc
00000100: 2a7c 2a3e fbfd 6f3d bd73 923d c519 63bd
00000110: 870c 093d 2ace 283d fc0e 12be 8209 1d3c
00000120: 708f b73d 9c24 88be ff98 5b3d 3364 42be
00000130: 696e d13c df1a 01be 141c 33bd 7bb7 04bd
00000140: 808a 1fbd 4244 bd3c e10a 243d 8185 61bd
00000150: 9281 fcbd d878 ae3d 97fb 8cbd 7cf0 e4bd
00000160: c07b 053d f24b 37bc e05d 6fbd 8c8b 883d
00000170: 3107 14be 8b35 d73d edc0 7fbd fbef 273c
00000180: d50e fa3c 82c0 533d 3a86 4cbe 0eb4 8abe
00000190: 9198 c9bd c2ea a53d 27ce 14be 412c 79bc
000001a0: 0b21 a33d 2e4a c6bd c96b 163d 4836 0abe
000001b0: 5620 c7bd de81 c73d 1561 55bd 08cb cfb9
000001c0: 1fa0 3cbd 1c05 e73d a4f6 6abe 729a 013e
000001d0: da3d 833d 7f78 29be b11e cfbd b8e0 213d
000001e0: df5e 3bbd a078 8b3d 395d bb3c 42bc bb3d
000001f0: be05 5c3e 6d09 4c3c 3058 0f3d 2a3d 973d
00000200: cc7d 243e a58a 293e 2af3 9a3d e70f 5abd
00000210: 8431 ac3d c288 4a3e ee4a eebd 9ca1 4ebd
00000220: e2ea 1e3d 8609 283e a121 833c ec35 77be
00000230: 30ef c43d 236f 96bb c177 71bd 13b7 7a3b
00000240: 508f dabc eb4a 9c3d 9189 5b3d 3f20 e23d
00000250: d35c d8bc 620a 8e3d a970 073e 4a2a dcbd
00000260: 83b2 79be c393 ffbb 3b2f 15be afae 27bc
00000270: db39 373e 4240 1abc 46e4 b9bc c95e ccbc
00000280: 5592 543b bff7 1c3d 9098 193e 2696 5ebc
00000290: 9f94 c1bc fb52 c23c 7523 2bbd aee7 bb3d
000002a0: 081c 883d 1da4 4a3d bbb4 66bd 602e 9b3b
000002b0: db93 6fbd e327 c1be 674f 5abd a530 363e
000002c0: 49a0 9ebd 1154 103d 4843 c33d 8527 123d
000002d0: 39a2 d63d 4337 9d3d fb90 6a3d 1832 35bc
000002e0: 681e 63bb 3cdc 2fbd 9387 19bd 5d84 833d
000002f0: f540 763e 3843 b2bb 3b5c 98bd 5b7d 35ba
00000300: 7e1b 1dbe 307e 13be 3aa9 c0bc 463b dc3d
00000310: 3201 27bc 5cb8 c3bc 79c5 52be 6049 c03c
00000320: 3f10 073d 7264 3ebe 0722 99bd 5fca 153e
00000330: adbc a93b 6528 993b e1a0 953d a32c 1cbd
00000340: 05e0 10bd f54a d3bd b00e 403e a2b0 25bd
00000350: b06b 03be f9d1 503d 0586 383d 96cd e03c
00000360: fe27 31bd 7990 89bc 3a11 413d 4d96 1bbe
00000370: d3c6 36be 902d 01be 9266 aabd ddcf 5dbd
00000380: a528 0bbe e51a ae3d e48e c4bd bc2a 5fbe
00000390: 65bd dfbd 2538 d7bd d110 893e 19c0 c0bd
000003a0: 9db9 af3c 19a4 2fbe ec36 113d b9b9 3b3e
000003b0: ed36 98be 8a4d 14bc 417a 823e 59d4 123d
000003c0: 7b35 cdbc 6a66 05be 61d9 4abe 6c09 1e3d
000003d0: eadd 1f3d 9a28 e3bd 2c77 01bc 5ae9 15bc
000003e0: b2b7 e83d 2d43 003d 3186 e13d 6ed1 543d
000003f0: f0ec 0d3d e61f bcbd 59ac 9f3b e382 af3d
0.044293273 0.016310727 0.07071808 -0.07842911 -0.05494228 0.017394952 -0.030247172 -0.036225326
0.11115535 0.0041803285 0.07399654 -0.10873245 -0.032422904 -0.0034131934 0.012705892 0.07991806
0.02150573 -0.01612856 -0.023833621 0.037684444 0.050177414 -0.011884039 -0.114632644 0.0424766
-0.009086395 -0.093034595 0.100662 -0.052823536 -0.1199631 -0.044434246 0.088352814 0.0959229
-0.03549943 0.071499445 -0.25748965 0.04141577 -0.017483266 0.04033445 -0.067414075 -0.034083
0.050165035 -0.061987646 -0.036997005 -0.05728275 0.04436635 -0.01618528 -0.06910515 0.06511824
-0.045403365 0.09145432 -0.058522917 -0.046677392 -0.038029708 0.022333266 -0.06406935 0.041583933
-0.040472455 -0.013430704 -0.170029 -0.034624126 0.036528267 0.121672235 0.030107306 -0.013687258
0.16648927 0.058591824 0.071509816 -0.055444498 0.033459213 0.04121224 -0.14263529 0.009584786
0.089629054 -0.2659043 0.053612705 -0.18983535 0.025565343 -0.12607907 -0.04372795 -0.032401543
-0.038950443 0.023103837 0.040049437 -0.05505896 -0.12329401 0.08519143 -0.068839245 -0.11178681
0.03258872 -0.01118754 -0.058439136 0.066672415 -0.14455868 0.105082594 -0.062439848 0.010250087
0.03052465 0.05169726 -0.19973078 -0.27090496 -0.09843553 0.08101417 -0.14531766 -0.015208305
0.07965287 -0.096821174 0.036723886 -0.13497269 -0.097229645 0.09741567 -0.052094538 -0.00039633387
-0.04605114 0.112802714 -0.22945648 0.12656572 0.064082816 -0.16549872 -0.10113276 0.03952095
-0.045744773 0.06810117 0.0228716 0.09166767 0.21486565 0.012453419 0.03499621 0.07384713
0.16063613 0.16556795 0.07565911 -0.053237822 0.08407882 0.19778731 -0.116353855 -0.05044709
0.03879822 0.16409883 0.016007246 -0.24141663 0.09615934 -0.0045908852 -0.058952097 0.0038256093
-0.026679665 0.07631477 0.05359799 0.11041307 -0.02641145 0.06935574 0.1322657 -0.107502535
-0.24384503 -0.007799597 -0.14568798 -0.010234519 0.17893164 -0.009414734 -0.022691857 -0.02494754
0.0032435853 0.038322207 0.14999604 -0.013585603 -0.023630438 0.023721209 -0.04178186 0.09175049
0.066459715 0.049472917 -0.0563247 0.004735753 -0.058490615 -0.37725744 -0.05329838 0.17791994
-0.07745416 0.035236422 0.09534317 0.03568222 0.1048016 0.07676556 0.05726717 -0.011059307
-0.0034655575 -0.04293464 -0.03748281 0.06421731 0.24048217 -0.005440142 -0.074394666 -0.00069232815
-0.15342519 -0.14403605 -0.023518194 0.10753493 -0.010193156 -0.02389162 -0.20583142 0.023472488
0.032974478 -0.18593004 -0.07477193 0.1462798 0.0051799626 0.004674005 0.07306076 -0.038128506
-0.03536989 -0.10317031 0.18755603 -0.040451653 -0.12834048 0.050981496 0.045049686 0.027441781
-0.04325103 -0.016792523 0.04713557 -0.15194054 -0.17849283 -0.12615037 -0.08320345 -0.054153312
-0.13589723 0.085012235 -0.09597567 -0.21793646 -0.10924796 -0.105087556 0.26770642 -0.0941164
0.021450812 -0.17152442 0.03545277 0.18332566 -0.29729405 -0.00905169 0.25483897 0.03584704
-0.025049916 -0.13027349 -0.19809486 0.038583204 0.039029993 -0.110917285 -0.007901948 -0.009149874
0.11363162 0.031314064 0.11011923 0.05195754 0.03464979 -0.09185772 0.0048728404 0.085698865

encoder.output1.bias f4 [8]
00000000: f388 a13c e14d 4fbd 71cd e4bb 2263 a1bd
00000010: 9723 0a3d 3dac 42be 6cf2 f8bd d84b 4dbd
0.019718623 -0.05061138 -0.0069824983 -0.07880236 0.033725347 -0.19011016 -0.12155613 -0.05012116

encoder.output2.weight f4 [8, 128]
00000000: 6c36 e93d 151e bcbe f42d 1b3d e733 f5be
00000010: 0d35 0bbe 7a19 69bd 0b51 bc3d 2616 20bd
00000020: 651a f13d cfa8 8f3b 7eb4 ee3d 7677 883d
00000030: 803a c2bd ab74 963d 5ab6 4a3d 01be 9fbd
00000040: d48e 133d 4438 8abc 1a4a 72bd 3bf4 10be
00000050: 19cf 023c d56a 6cbd 28b3 c63a 4a5d 5abe
00000060: 6278 1bbd 6a71 acbe 7c02 7fbd ba32 983d
00000070: ceb0 24bb 5c82 55be 8704 c4bd 68cc bbbd
00000080: 77f1 8ebd ee44 3dbd 1b0b db3d 2a27 303d
00000090: 0b5d 98bd 2dcb 633d 14b3 54be 8ca4 f0bd
000000a0: 3b46 a73d 36c9 a83c c7b9 383d 0349 6e3d
000000b0: 20cb 2c3d cf8f 3d3c 342b 71be 7715 6c3d
000000c0: 5cb2 48bd 11d3 e939 63df 22bc 3177 77bb
000000d0: dce9 4c3d 5dd2 cebc 42df 563d 374f 07be
000000e0: 2b70 4fbd d25d 09be e318 2f3c 6ae4 753c
000000f0: 8192 02be 86b8 45bb 7038 6c3d e7e3 8c3d
00000100: 9eb8 99bd 1e7f 0abd c66c 26bc 86c5 3a3c
00000110: 8a59 4fbd 8d51 ebbc 9b66 b6be c00c 35bd
00000120: 9eb4 9c3d 0c2d 453d e5c9 283d e8a7 083d
00000130: c83e 88bd 7b37 393e c5bb 95bd 7a6b 5dbc
00000140: c28d 093d 6f2a 1b3d 9d12 573d 0f01 b03d
00000150: 8be7 adbd 1891 a8bd 456b 553c 47e8 54bd
00000160: b4a0 eb3c f61d e8bd 490d d8bc 33f9 f2bd
00000170: bda8 8dbe e575 35be d47c 42be abba b9bc
00000180: b0bf 643d 41ea 8dbd dc45 e33d 50ed 273e
00000190: 3ca3 8b3e ab46 64bd 22d5 733d 2be8 6cbd
000001a0: 9bc7 96bd e82d 9d3d f4e2 8e3d 867a bf3d
000001b0: 5aed a73c d846 6cbd afa9 e6be a33a a8bd
000001c0: 7ce1 63bc af60 943d 2f0d bf3b cd3c 553d
000001d0: 9f0b d03c 0ad9 51be 8261 7fbd 8b03 a33c
000001e0: bddb 7d3d 3dc6 dcbc c934 00bd 0de8 62bc
000001f0: 8942 13bd 098f f4bd 014f 403d f693 5dbb
00000200: 312e 983d 9906 b6be 2502 c03c 3559 e5be
00000210: 1f1a 5ebd 8889 9c3d 397a 09bd e64a d63d
00000220: be31 8e3d 5970 91ba 2510 6dbd a3d8 ba3d
00000230: c7e3 cd3b bb15 d3b8 f76a a5bd 7da1 5e3d
00000240: 6ce2 073d 1677 d8bb bcbd 553d 556f 5bbd
00000250: 4b12 e83a 3305 933d 4bbf 003b ee86 95bd
00000260: a9eb 8bbc 3532 a6bd 0799 9f3c c41f 30bd
00000270: 5e32 853c 93a5 e4bd 71b1 adbd 2c18 d63a
00000280: 561f 3b3d 49e0 963d a09a f83c 491f f3bc
00000290: 32cb 2cbd 083f ba3c 7a58 81be 87e5 91bc
000002a0: 0fdb 82bd d62a ecbd caa9 ae3b ccdc 07bc
000002b0: a38e 9d3b d61d a23d 2f79 4abe 8875 2d3d
000002c0: 5604 953d cc48 2d3d 3bdc 1b3d 44fc d53d
000002d0: fa96 393c b493 0d3c 1cc5 febb 5736 6e3c
000002e0: 2269 e4bb f285 45be acbd 1c3d 6f0b 443d
000002f0: 8833 f8bd 36ea 19bd 185d 3bbd c41f 043d
00000300: e02e 2cbd 6f00 dc3d 1c44 96bc 594e 883d
00000310: 62e5 0bbd 47bc 0abc bc1d 4ebe bc9e c03c
00000320: 9436 383d 7107 973d 57cd 85bc cb4b 24bb
00000330: 4d8d 8fbd a94b fe3d 5d39 063e ae56 163d
00000340: b5b6 69bd b07d c83d c004 6ebc abcc 283d
00000350: e407 573d 0d64 e5bd 83bc 9fbd 82e2 10bd
00000360: 5c38 3c3c 0057 f5bd c10d 9d3d c806 5e3d
00000370: 71e2 9abe 91ed febd ac6e 2fbe 78a2 f4bc
00000380: 7f41 523d 6cc2 c2bd 82a7 3d3c 53a3 583d
00000390: c606 863d 2327 c1bd e723 003e ddc9 acbd
000003a0: 1d4e 7ebd 4bc1 583d 6c29 05bd 962d 30bd
000003b0: ee56 013d 0bcf 04bc 6d59 a5be d497 403d
000003c0: 0426 9fbd 0f80 183c 566f 94bd 7263 e73c
000003d0: 5b29 d4bc 71fa b3bd 833f d3bc 5707 863d
000003e0: 730e bebc e8b2 b5bc e36c 9dbd 3257 a5ba
000003f0: 441d 573d c388 5fbd c1cd e2ba 1f56 9fbd
0.11387333 -0.367417 0.03788562 -0.4789116 -0.13594456 -0.056909062 0.09195145 -0.039083622
0.117726125 0.004384137 0.1165552 0.0666341 -0.09483814 0.073464714 0.04949031 -0.07799912
0.036024883 -0.016872533 -0.0591527 -0.14155667 0.007983946 -0.05771907 0.0015159594 -0.2132465
-0.037956603 -0.33680278 -0.06225823 0.0743155 -0.0025129798 -0.2085051 -0.09571176 -0.09169847
-0.069796495 -0.046208315 0.106954776 0.0430061 -0.074396215 0.055613685 -0.20771438 -0.11750135
0.08167692 0.020603757 0.045099046 0.0581751 0.042185903 0.011569931 -0.23551637 0.057637658
-0.04899822 0.0004459848 -0.009940955 -0.0037760253 0.050027713 -0.025246793 0.05245901 -0.13213812
-0.05064408 -0.13414696 0.010687086 0.015008071 -0.127512 -0.00301698 0.05767101 0.068794064
-0.07505916 -0.033812635 -0.01015777 0.011399632 -0.0506225 -0.02872541 -0.35625157 -0.044201612
0.076516375 0.048138663 0.041208167 0.033363253 -0.066525996 0.1808757 -0.07311205 -0.013514394
0.033582456 0.037882265 0.052507985 0.08593952 -0.08491429 -0.082307994 0.013026063 -0.05197933
0.028763153 -0.113338396 -0.026373522 -0.11863937 -0.276678 -0.17720754 -0.1899293 -0.022672018
0.05584687 -0.06929446 0.11097309 0.16399121 0.27272975 -0.055731457 0.05952943 -0.0578386
-0.073622905 0.076747715 0.069768816 0.09349541 0.02049892 -0.05768475 -0.45051333 -0.08214309
-0.01390874 0.072450034 0.005830429 0.052059937 0.025396166 -0.2049295 -0.06234885 0.01989915
0.061977137 -0.026949996 -0.03130034 -0.0138492705 -0.035952125 -0.11941344 0.046950344 -0.0033810115
0.07430685 -0.3555191 0.023438523 -0.44794622 -0.05422413 0.076434195 -0.033563826 0.104635045
0.06943081 -0.0011096104 -0.057876725 0.091233514 0.0062832567 -0.00010065312 -0.080770425 0.054353226
0.033174917 -0.006605993 0.052182898 -0.05357297 0.0017705647 0.07178726 0.001964527 -0.073011264
-0.017080145 -0.08115045 0.019482149 -0.042999044 0.016259369 -0.11164393 -0.0848111 0.0016334108
0.04568418 0.07366998 0.030347168 -0.029678004 -0.04218597 0.022735134 -0.25262815 -0.017809642
-0.06389438 -0.11531608 0.005330299 -0.008292388 0.0048082634 0.07915847 -0.1977279 0.042348415
0.07276218 0.042305753 0.038051825 0.104485065 0.0113274995 0.008641172 -0.007774962 0.014539323
-0.0069705406 -0.19289377 0.038266823 0.047862466 -0.12119204 -0.037576877 -0.045743078 0.032256857
-0.04203689 0.1074227 -0.018343024 0.06655569 -0.034154303 -0.00846774 -0.2012853 0.02351319
0.044973925 0.07374466 -0.016333265 -0.002506959 -0.07009373 0.12416775 0.1310782 0.036703758
-0.05705901 0.09789598 -0.0145275 0.04121081 0.05249776 -0.11200724 -0.07799628 -0.035372265
0.0114880465 -0.119794846 0.07668639 0.054205686 -0.30250886 -0.12447656 -0.17132062 -0.029862627
0.051331993 -0.09509739 0.0115755815 0.052890133 0.06544261 -0.09431293 0.12513696 -0.0843694
-0.062086213 0.052918714 -0.032510206 -0.043012224 0.031577043 -0.0081060035 -0.3229479 0.047019795
-0.07770923 0.009307875 -0.07247798 0.028245661 -0.025898626 -0.08788002 -0.02578712 0.06544369
-0.02320025 -0.022180036 -0.07686784 -0.0012614487 0.052518144 -0.054573786 -0.0017303751 -0.07780098

encoder.output2.bias f4 [8]
00000000: 99be a1be f0fc 69be 8285 cbbe 6cbc 6fbe
00000010: 68e7 5dbe cb5f 89be cd59 a6be b922 12bf
-0.31590727 -0.22850394 -0.39750296 -0.23411721 -0.21670306 -0.26830897 -0.32490388 -0.5708423

decoder.network.0.weight f4 [128, 8]
00000000: 6a45 8c3e 89ab c63e f2f8 843e cd63 58be
00000010: 0c8a 663e 4749 9cbe 3e6c 0f3e ab88 433f
00000020: 60a2 98be ac84 5bbe 501c 353f fa58 e13d
00000030: 970f 89bd 993b 61bf 8d83 033e 2cb7 7cbe
00000040: ac69 db3d 81b9 9ebe cf1b f33e 89f5 32be
00000050: 85b3 d7be f2be cfbe 0e57 893e 2d1a 08bf
00000060: b239 083f 6f6a bebe ed40 2a3f 6cff ac3e
00000070: 1fc6 eb3e b790 e8be 77fc 953e 21c0 f93e
00000080: bad4 1cbf e5c7 f7be ec6d 5dbf feb9 8d3d
00000090: e05e 213e d8ec a8be 22be 6a3e ae3c e93e
000000a0: 22e0 1fbe af1c a5be c389 ba3d 43c6 2abe
000000b0: f9d5 61be aa02 ee3e 84f0 43bd f7ff 2cbf
000000c0: ef8d 813f 913e 863d cdce 443e 089f c6bd
000000d0: ccc1 bcbe d215 b43e f01a fabd 44c4 94be
000000e0: 2bf6 98bf 78d3 1b3f 442d d7bd aac2 aebd
000000f0: 1328 523d f18f 88bc e9dc edbd 6f4a eb3e
00000100: d13e e13d b11b 2d3e aad0 e4bd 6ca2 74bc
00000110: 7f8d 98be 967d 02bf 8bbf 64bd 1484 dcbe
00000120: 8327 193e 5da7 e63c 1bea 5e3f e058 73be
00000130: 7989 56be cec5 fdbe 1358 9b3d 8c48 603f
00000140: 3302 57be 12da b7be 12fe 283f 7989 c6bc
00000150: f760 30bf 5645 1a3d dce2 19bf df87 1e3f
00000160: 4538 4ebe 02e9 99be a1b0 c53d 1a05 97be
00000170: 1abb e93e 11db 1cbf e2ea 32bf ea37 3bbd
00000180: 4c21 5bbe db14 983e 4635 c53e 09b4 f0bd
00000190: 1bb5 c0be 9957 2f3e a8cc dfbe 85ee 3fbf
000001a0: 6bb8 803e 8fb2 893d c43d 0f3f 0109 4dbd
000001b0: a298 f83e 9dfc 07bf e25f 013e 07cf dcbd
000001c0: cb1c d03e da14 b33d 8b7a 4a3e 9b1c 50bd
000001d0: b4c3 4f3c 2728 253f d7b8 f3bd f43d adbe
000001e0: d202 1e3e d15c 08bf 77c2 bbbe e899 b63e
000001f0: a654 1f3f 1de6 6cbe dca1 8bbe 2cb9 c8be
00000200: 2111 bcbe f519 b73e 08a3 a03e d3a2 a6be
00000210: 1139 693f f8db f0bd fa3a 3e3e b9c5 39be
00000220: 4e9a 303d 22ac 053f faef 0fbe 309b 083e
00000230: 3cc3 c23e db14 6e3d 6878 e93e fc5b 193f
00000240: 2664 edbe 6396 dcbe 70ab 393e 4ddc 85bd
00000250: a962 40bd 015b c93d e1ab f73e d467 debe
00000260: e4c5 f13e a184 973e 64a5 e2be 8c32 133e
00000270: 26f4 b7be 84ec adbd 94b1 413e ed6a 72bf
00000280: 50a2 943d a4d0 f33d 96f8 ccbd e4e5 9fbe
00000290: 64ad 253e 0dd9 8abe d47a 133f aa63 99be
000002a0: 5772 023f 808b 3f3e cd88 253f 05c0 833e
000002b0: 6600 dfbe 6d39 3e3d c5d5 07bd 507f d33e
000002c0: 3708 25be 5c81 d8be 5451 91be bb6c 0ebf
000002d0: 0632 283d c45e 333f f6d0 003e 0fa5 343e
000002e0: 9ee2 73be 53d6 b0be 822a 32bf 678c bebe
000002f0: 493a 1cbe da2f a53e 1499 9ebe 5da9 2abf
00000300: 8290 2e3e f3b3 a6bd 3f15 a43e c7a6 e9be
00000310: 7169 ae3e ac53 983e 825d ab3e 3be9 b93d
00000320: 9630 b43e 94ac 3e3e 0696 6c3f 425b 793d
00000330: 2085 1c3d abff a63e bdde 50be 8782 893e
00000340: ff17 8f3d e123 c1be a125 dc3d f7c1 bd3c
00000350: ed59 8dbe 3fe0 533d 28d0 1c3f 9ca9 123f
00000360: 0e4e 0ebf b98d 12bf 2634 973e 4613 eb3d
00000370: 193b 3fbe 98ee 193f e71c 2a3d ec9a 0a3f
00000380: 571c 0cbe 98dc 523c 08ed ca3d 2574 5a3d
00000390: 7f69 72bd feaa 07be 4805 80be c962 99bc
000003a0: f2f1 dd3e 93d6 83be eecf 963e d866 29bd
000003b0: 4257 313f 972a dd3e 6786 a53e 1f1a cdbb
000003c0: a63c 813b a77a 94be 54dd ae3d 14a3 1c3f
000003d0: f5a8 953d 07f9 6bbd b3a3 42bf 712b e8be
000003e0: 65c0 3bbd 4519 9d3d 2a22 50bd 987d 7dbe
000003f0: 66e8 eabc 9fe4 cdbd ecf5 39be 17bc 503d
0.2739671 0.38802746 0.2597118 -0.21131821 0.22513598 -0.30524656 0.14006135 0.76380414
-0.29811382 -0.21437329 0.70746326 0.11003299 -0.06692427 -0.87981564 0.12843151 -0.2467925
0.10713515 -0.31000903 0.47482154 -0.17476477 -0.4212915 -0.40575367 0.2682423 -0.5316494
0.53213036 -0.37190577 0.6650532 0.3378862 0.46049592 -0.4542291 0.29294178 0.48779395
-0.61262095 -0.48394695 -0.8649585 0.06920241 0.15758848 -0.32993197 0.22924092 0.45554107
-0.15612844 -0.32248446 0.09108307 -0.16677193 -0.2205428 0.46486408 -0.047836795 -0.6757807
1.012144 0.06554902 0.19219513 -0.096983016 -0.36866605 0.35172898 -0.12212169 -0.2905599
-1.1950125 0.6086955 -0.105066806 -0.08533223 0.05130775 -0.0166702 -0.11614401 0.45955226
0.109983094 0.16905095 -0.11172612 -0.0149313025 -0.29795453 -0.5097288 -0.055846732 -0.43069518
0.14956479 0.028155977 0.87075967 -0.23764372 -0.20950879 -0.49564976 0.07585158 0.876107
-0.20996933 -0.35908562 0.6601268 -0.024235474 -0.68897957 0.03766378 -0.60111785 0.6192607
-0.20138653 -0.30060583 0.0965283 -0.2949608 0.4565056 -0.6127177 -0.6988965 -0.04570762
-0.2139942 0.2970341 0.38517207 -0.11753089 -0.37638173 0.1712326 -0.43710828 -0.74973327
0.251407 0.067235105 0.5595362 -0.050057415 0.4855395 -0.5311983 0.12634233 -0.10781675
0.40646967 0.087442115 0.19773309 -0.05080853 0.012680937 0.6451439 -0.1190049 -0.3383633
0.15430763 -0.53266627 -0.36671802 0.35664296 0.6223854 -0.23134656 -0.27271926 -0.39203775
-0.36731818 0.3576199 0.31374383 -0.325461 0.911027 -0.11760706 0.18577185 -0.18141831
0.043115906 0.5221578 -0.14056388 0.1334045 0.38039577 0.058125358 0.45599675 0.5990598
-0.4636547 -0.43083486 0.18131804 -0.0653616 -0.04696909 0.09831811 0.4837332 -0.4343859
0.4722129 0.29593375 -0.44266808 0.14374751 -0.35928458 -0.084923774 0.18915397 -0.94694406
0.07257521 0.119050294 -0.100083515 -0.3123008 0.16179425 -0.27118722 0.57609296 -0.2995885
0.5095572 0.18705559 0.64661866 0.25732437 -0.4355499 0.046441484 -0.03316285 0.4130807
-0.16116415 -0.42286193 -0.2838236 -0.5563466 0.04106333 0.70066476 0.12579712 0.1764109
-0.23816916 -0.34538516 -0.6959611 -0.37216493 -0.15256609 0.3226307 -0.30976164 -0.6666468
0.17047313 -0.08139791 0.3204746 -0.45635054 0.3406482 0.29751337 0.33469778 0.09077688
0.35193318 0.18620521 0.9241642 0.060878046 0.038212895 0.32616934 -0.20397468 0.26857397
0.06986999 -0.37722686 0.10749365 0.023163779 -0.2760767 0.05172753 0.6125512 0.57290053
-0.5558785 -0.572475 0.29531974 0.114782855 -0.18674888 0.6012969 0.04153147 0.5414264
-0.13682686 0.012869976 0.099084914 0.05333342 -0.05918264 -0.13248822 -0.2500403 -0.018723862
0.43348652 -0.25749645 0.29455513 -0.041357845 0.6927377 0.43196556 0.32329103 -0.0062592174
0.0039439974 -0.28999826 0.08538309 0.6118634 0.073076166 -0.057610538 -0.76031035 -0.45345643
-0.04583778 0.076708354 -0.05081383 -0.24754941 -0.02867527 -0.10053372 -0.18160218 0.050960626

decoder.network.0.bias f4 [128]
00000000: b87e 29be 73ed 1bbe 3851 2bbd 4c89 04be
00000010: bb1b 203e e3df e13d e16e 493e a390 fe3d
00000020: 9114 a23e a449 a9bd e378 53be 97ac ff3d
00000030: 51de f03d e0df 4abe b3da 1a3e c022 573e
00000040: 6899 493e 3cbe 00bf 4a50 863e 9248 933d
00000050: 21e2 033f 7fc1 043f c39c fb3e afc0 a4be
00000060: ea69 0e3f f261 bd3d 2116 2d3f ede6 4ebe
00000070: 8158 433f fb9d 93be c716 103e 7288 633f
00000080: 0563 38be 2dd6 00be 8c87 4dbd 4a3d 083e
00000090: 1bd6 2ebf e50f 983e 8697 5e3d 8675 5a3f
000000a0: 44ca 7e3e f9fe 553e 7495 2d3f 18f1 d3be
000000b0: 5e57 c9bd 6af0 a4be 8504 163e d769 0bbf
000000c0: 7441 113e d4fc ea3d c6c7 95be effc a0bd
000000d0: 927a 283f 68f7 efbe 248a 213f 163b 1bbe
000000e0: 1804 ae3e a0dc d1be b0f4 543e d298 bd3d
000000f0: 8990 113f 21a9 ab3e b3b1 31bd b442 47bf
00000100: a523 64be f5f8 413c 92c7 c13d 161f 1c3f
00000110: 3cfa 333e f0d3 b73e ddc5 863d 5c22 693d
00000120: 554d c6be ab85 793e e400 e33e e0e3 fcbe
00000130: 8f3a 003f 5fb7 663f 6a0a 8a3e d428 a2be
00000140: db2f 47be 810f a03e bc1e 9abd 22ec 86bd
00000150: 7f4e 573e 984f 4e3d 610d ab3e 4693 163e
00000160: 2b43 11bf d5e1 d63e bc94 a2be 55fb 0abd
00000170: 987c 4b3d 33ba abbd 6bce 173e 76f6 023f
00000180: f58b 4e3e 7d98 01bf 707a 27be 0c4c 1b3f
00000190: e982 193e 36c0 013f 0c0f 0a3f 48c8 9b3e
000001a0: a64b 9f3e 8e7f b8bd 0cc7 81bf 282d 1c3f
000001b0: a03e 5dbe 6b74 323e 9bc5 a53e 1e26 0f3f
000001c0: b9b5 f43e 8916 253f 758f 1f3f a28d 2b3e
000001d0: ad52 d7bd c2b1 70bd e3a6 1f3f 93c1 893e
000001e0: 460d 9ebe e44f 9bbe e94a 7c3e b5cd b6be
000001f0: 539d 413f d93f 92bc 1544 283f 0b6a 8f3e
-0.16552246 -0.15227298 -0.041825503 -0.12943 0.15635578 0.11029031 0.19671203 0.12429931
0.31656316 -0.08265999 -0.20651583 0.12484091 0.117611535 -0.19811964 0.1512249 0.2100935
0.19687426 -0.50290275 0.2623313 0.07191576 0.5151692 0.5185775 0.49143037 -0.32178256
0.5563036 0.09247197 0.6761189 -0.20205279 0.7630692 -0.28831467 0.14071189 0.88880074
-0.18006523 -0.12581702 -0.050178096 0.1330463 -0.6829545 0.29699627 0.054343723 0.85335577
0.24881846 0.20898046 0.6780617 -0.41394877 -0.09831117 -0.3221467 0.14650162 -0.54458374
0.14185125 0.114740044 -0.29253978 -0.07860743 0.6581203 -0.46868443 0.6310141 -0.15159258
0.33987498 -0.40988636 0.20796466 0.09257664 0.5686117 0.33527473 -0.043382358 -0.77836156
-0.22279222 0.011839141 0.09461893 0.60984933 0.17575926 0.35903883 0.06580708 0.056917533
-0.38730875 0.24367397 0.44336617 -0.49392605 0.50089353 0.9012355 0.2696107 -0.31671774
-0.19451849 0.3126183 -0.07525393 -0.065880075 0.21026038 0.050368875 0.33408645 0.14704618
-0.56743115 0.4196917 -0.317541 -0.033931095 0.04967937 -0.08385124 0.14824836 0.5115732
0.20170577 -0.50623304 -0.163553 0.60662913 0.14991345 0.50683916 0.5392921 0.3042624
0.31112403 -0.09008704 -1.0138869 0.610064 -0.21605921 0.17427222 0.32377324 0.5591754
0.47794893 0.6448751 0.62328273 0.16753247 -0.10513816 -0.058763273 0.62364024 0.26905498
-0.30869502 -0.3033439 0.24637951 -0.35703817 0.7563068 -0.01785271 0.65728885 0.28010592

decoder.network.2.weight f4 [128, 128]
00000000: 8cb8 5abb dee3 95bd 9298 613d ca77 b9bd
00000010: dcba 0a3c d5da 82bd 26f7 623e 22de 1d3e
00000020: ebb1 b3bc afb3 21bd 5b90 fc3b 43ea 803d
00000030: a9f3 063d 41bd d0bd cb15 283e 0a6a 97bd
00000040: affa 7c3d e889 02be f7ce 6b3d cfa6 4ebd
00000050: 2a2e 093d 773d 5f3e 1c12 9cbe 66b1 823d
00000060: 10b4 d1bd 6a6d 653e 238f f7bd 21ae 6bbe
00000070: b1dd 743e 4c58 393d e95d ba3d c2b6 443e
00000080: 0d1e 763d 0632 a8bd c9c3 2e3d 6cdc 48bd
00000090: 1bc7 223e e6de 0bbd 653f e5bd b7e5 8b3d
000000a0: 89aa 403d 8bcc 4f3d 9f7a 8abd 4127 bd3d
000000b0: 14dc c03c 6e88 543c d9cc 463e 6408 adbc
000000c0: 1e16 e43d 400c 5e3e 3c07 5dbe efb5 6cbd
000000d0: 381a 19be 11eb 75bb 4b96 e4bd d1df 2cbd
000000e0: 9ffb 393e 3fb0 d6bc 47d4 863c 15af 5cbd
000000f0: 605c 9fbb beab d03d d49c 39be 985a 70be
00000100: 0afa e43d 6765 64be fb9b 1b3d 24e8 96bd
00000110: 20d6 4cbe 5bcd 8f3d 9304 593d 6638 9d3d
00000120: a47a 923b b769 dc3d e4cf fbbd c23f 5c3d
00000130: e25c 98bd aaa7 c13b d9c3 353c eeef 0a3e
00000140: 4508 313d 1a7e 9cbd d718 033d 3252 883d
00000150: c085 b53b 4c1d 36bd 62ab 67be df0a 99bd
00000160: 6484 143e 72d6 b13d 6b6a 31be c58d 2d3d
00000170: 3f6d 093d e6a6 8bbb 15bd 483d 6282 bcbb
00000180: 3784 8a3b 25ca 4cbc c113 b83d 60ac 4b3d
00000190: c05e 1bbe 5692 f03d 3393 ca3d a967 fa3c
000001a0: ae94 f43d 9f01 b5bc 6522 fa3d 6ff4 7f3d
000001b0: d896 c3bc e999 263d 684d 993d 9b7e 9d3d
000001c0: 87bb 9abb 0825 503d dbcf d63d 0bf6 ad3d
000001d0: 9a39 b2bd 9d5a b2be 89fb 8bbd 57e8 2ebd
000001e0: 66f3 9f3d 8510 983d 6308 a53d e889 b93d
000001f0: 597a fabc 7308 683d 72a5 88bd 18bf f7bc
00000200: eac8 0e3d 41d9 d03c 21e9 45bd 7030 1e3d
00000210: 2b09 403d a2fc 1a3d 44af c0bc 4b1f 7abc
00000220: 012a 223d e126 8abb 241b 6a3c cdc6 6bbd
00000230: f39a 0cbd 05c1 953d 4582 9e39 6329 383d
00000240: 9104 4dbd f5c8 053c 78b3 1bbd 5a48 3b3d
00000250: c5b2 a4bd 5a41 a8bd 55c0 abbd 92a1 83bd
00000260: bb47 62bd 3e3e 14bc 4933 9a3c b3f7 853b
00000270: dbd4 33bc af0f 203c 91e0 43bd ae01 94bd
00000280: 0f7b 10bd 5f76 8a3d e6ff 40bd 480b 273c
00000290: 614f 38bc 1b72 08bd e2db c1bd 25a1 82bd
000002a0: 3bed 5f3d 1219 22bd 9969 023d c7d1 923d
000002b0: 0350 87bd 76ad 0b3d 4c72 a2bd 6c2c 073d
000002c0: 372b cdbc d475 40bd 5d98 38bd cadb 6cbc
000002d0: 88bf 1e3d b5dc 12bc b78a 923d fe17 b0bb
000002e0: 6417 96bd 44bd 4f3d e233 82bd b69c a43a
000002f0: a6db 3a3c 7528 a1bd 5303 82bd 4e83 493d
00000300: 315b 85bd 2463 1abd 70f7 9dbd 70a8 053d
00000310: 7540 edbc 6479 4b3d 163d 77bc cf36 513d
00000320: 17b3 193d 0708 bcbd 8c89 70bd daa8 813c
00000330: 1167 383c a515 3d3d 0f7b abbd 7fd8 bfbd
00000340: 7b11 13bd 8d43 6e3b 3462 55bd bcf1 563d
00000350: 93a7 6abd 5de3 26bc 60ce 9f3d c137 a13d
00000360: b781 113d dc10 96bc e1f6 263d 76bd 31bd
00000370: c195 0cba 0618 d63c 7f97 24bd aeb5 5a3d
00000380: c368 a0bd 1c46 103d d41b 1ebd 851a dc3b
00000390: c068 94ba 4c3b 33bc e97c b2bd 7f13 86bd
000003a0: dd7d 8e3d 3707 1e3d 6265 883d 54dd b9bd
000003b0: 9f41 b2bd abcf 00bd cf70 543d d0c2 e2bb
000003c0: 937e 87bd 3d47 61bd f5a0 05bb 564d 0cbd
000003d0: c633 56bd 2bee 83bd 4ce5 bbbd 1656 80bd
000003e0: d57b 00bd 6ee9 8a3d 1906 ac3c 6c3c 083d
000003f0: 0196 87bd 8737 af3c a5a3 673d 0fbb 33bd
-0.0033374159 -0.07318853 0.055077143 -0.09056051 0.008467402 -0.06389395 0.22164592 0.15416768
-0.021935424 -0.039478 0.007707638 0.06294682 0.032947216 -0.10192347 0.16414563 -0.07393272
0.061762508 -0.1274792 0.057570424 -0.05045205 0.03349129 0.2180079 -0.30482566 0.06381492
-0.10239422 0.2240502 -0.12087848 -0.23015644 0.23912694 0.045250222 0.09099943 0.19210342
0.060087252 -0.08212666 0.042667184 -0.049038336 0.15896265 -0.03414812 -0.11193732 0.06830924
0.047037635 0.050732177 -0.06761669 0.09236003 0.023542441 0.0129719805 0.1941408 -0.021122165
0.11137031 0.2168436 -0.21584791 -0.057790693 -0.14951408 -0.0037524144 -0.111614786 -0.042205635
0.18162392 -0.026207088 0.016458644 -0.05387791 -0.004863307 0.10189007 -0.18126231 -0.23472059
0.11180504 -0.22304307 0.03799055 -0.07368496 -0.20003557 0.0702159 0.052982878 0.07676773
0.0044701863 0.10762351 -0.12295511 0.05377174 -0.07439591 0.0059098797 0.011094057 0.13568088
0.043220777 -0.076412395 0.03200611 0.066563025 0.005539626 -0.044461533 -0.22623971 -0.074727766
0.14503628 0.0868348 -0.17325751 0.04237153 0.03355145 -0.004261839 0.049008448 -0.0057528475
0.004227187 -0.012499367 0.08988143 0.049724936 -0.15172863 0.11746661 0.09891357 0.030567007
0.11942421 -0.0220955 0.122135915 0.06248897 -0.023875639 0.040674124 0.07485467 0.07690164
-0.004722062 0.050816566 0.10488864 0.084941946 -0.08702393 -0.34834757 -0.06835086 -0.042702045
0.078100964 0.07425026 0.0805824 0.09059507 -0.030575918 0.056648683 -0.06672181 -0.030242488
0.034859575 0.02549422 -0.048318032 0.038620412 0.046883743 0.037838586 -0.023521073 -0.01526625
0.03959084 -0.0042160605 0.014288697 -0.057562638 -0.03432746 0.07312206 0.00030233167 0.044961344
-0.050053183 0.008165588 -0.03801295 0.045723297 -0.0804191 -0.0821559 -0.08386294 -0.064273015
-0.05524419 -0.009048043 0.018823283 0.004088366 -0.010976042 0.009769364 -0.047821585 -0.07226883
-0.035273608 0.06760859 -0.047119044 0.010195561 -0.011249394 -0.033311944 -0.094657674 -0.06378392
0.0546696 -0.03957469 0.031838987 0.07168918 -0.06607058 0.034100972 -0.07931957 0.03300135
-0.02504502 -0.04698737 -0.04506718 -0.014456699 0.038756877 -0.0089637535 0.07155364 -0.005373954
-0.0732868 0.050717607 -0.06357552 0.001255891 0.011404907 -0.07869045 -0.0634829 0.049197488
-0.06511534 -0.037692204 -0.077132106 0.032631338 -0.0289614 0.049676314 -0.015090248 0.05107766
0.03752431 -0.091812186 -0.058724925 0.015827585 0.011255042 0.04616322 -0.08373081 -0.09367465
-0.035905343 0.0036356181 -0.052095607 0.05247663 -0.057288717 -0.010186044 0.07803035 0.07871962
0.035524096 -0.018318586 0.040762786 -0.043393575 -0.0005362891 0.026134502 -0.04018354 0.05339592
-0.07832482 0.03522311 -0.038600758 0.0067170286 -0.0011322722 -0.01093943 -0.08715231 -0.06546687
0.069576 0.0385811 0.06659962 -0.09075418 -0.087039225 -0.031448048 0.051865395 -0.006920196
-0.06615939 -0.05499958 -0.0020390127 -0.03425344 -0.05229547 -0.06441911 -0.09174594 -0.062664196
-0.031368095 0.067828044 0.020999001 0.033260748 -0.06620408 0.021388782 0.056552548 -0.043879565
