models/mnist_vae_dims_128/vae_4d.pth (torch, 949914 bytes, 14 tensors)

encoder.network.1.weight f4 [128, 784]
000000 c5 2d 6b bc c3 df f8 bc a5 07 76 3c b5 43 8c 3c
       -0.014354174 -0.030380135 0.015016471 0.017122129
000010 6e f1 1e ba 55 c7 af bc b7 3e b5 bb 5c 3d 28 3b
       -0.00060631975 -0.021457354 -0.005531158 0.0025671339
000020 65 9c 87 bb 93 1a 82 bc dc 78 c5 3b 17 e7 18 3c
       -0.0041385167 -0.015881812 0.0060263705 0.00933244
000030 98 b9 f4 3c 5f 11 02 bd 6a f6 d4 3c e0 f2 a4 bc
       0.029873654 -0.031754848 0.025996406 -0.020135343
000040 0c f0 89 3c 4e a6 a6 bc 6e de e4 3c 53 c6 a4 bc
       0.016838096 -0.020342972 0.027938094 -0.0201141
000050 01 04 4d bb ca 35 0b bc e5 7c e1 bc 2e 33 c7 3b
       -0.0031282904 -0.008496711 -0.027525375 0.006079099
000060 bc a4 f8 3c 5c cd c3 3c ec 3d af bc 45 c6 83 3c
       0.030351989 0.023901634 -0.021391831 0.016085753
000070 3c fe 82 3c de 30 b6 3c 53 c9 39 3c 45 7b 66 3c
       0.015990369 0.022240099 0.011339503 0.014067476
000080 dc 42 e7 39 e0 34 29 bc dc fe a9 39 fe 58 a7 bc
       0.00044109568 -0.010327548 0.00032424077 -0.020428177
000090 17 42 cf 3c f5 17 08 3d c5 0e 08 bd 6e 4e cc bb
       0.025300069 0.033225972 -0.03321721 -0.0062349355
0000a0 38 6d 6f bb 6e 9b 58 ba 9d d8 2b 3c af 0f 17 bd
       -0.0036533605 -0.0008262907 0.010488656 -0.03688019
0000b0 da db e9 3c df 14 2d 3c 8e ab 77 3c bc ef 88 3c
       0.028547216 0.010564058 0.015116585 0.016715877
0000c0 b7 3b 14 3a 21 0e 36 bc a1 9f ac bc ee dd cc 3b
       0.000565465 -0.011111767 -0.02107221 0.006252042
0000d0 81 e7 e9 bc c0 65 1d bc da 4f 96 3c 16 0e 0f 3d
       -0.028552772 -0.009606779 0.018348623 0.034925543
0000e0 53 0d 54 3c 53 d2 82 3c 2e 96 7a 3c 51 5c fe bc
       0.01294263 0.015969431 0.015294595 -0.03104988
0000f0 0a 9c c0 bb e3 d5 e9 3c 0e 0b 8b 3c 31 10 f9 3c
       -0.0058779763 0.028544372 0.016973045 0.030403228
000100 8a 5f 82 bc 8a 71 6b 3c 43 f8 9c bc cf 22 08 bd
       -0.015914697 0.014370332 -0.01916135 -0.03323632
000110 07 96 43 3c 04 6c 21 3d 3f 62 f7 ba 7c a3 ed bc
       0.011937625 0.039409652 -0.0018873884 -0.02900862
000120 b3 d5 d8 3b 0e 54 67 bc e5 b1 11 bd ee 9c 20 3b
       0.006617272 -0.014119161 -0.035570044 0.00245076
000130 8e e3 14 bc 9f 0e 07 3d 0e fc d8 3c 38 03 ec bc
       -0.009087456 0.032972928 0.026487377 -0.028810129
000140 fe 8c fb bc 65 35 de 3c ce 62 c9 bc 13 17 40 bb
       -0.030706879 0.02712507 -0.024583247 -0.0029310628
000150 c8 25 0e bd f3 0c 5c 3c dc b7 31 3b 33 1e 21 3c
       -0.034704 0.013430822 0.0027117645 0.00983386
000160 25 44 aa 3a 81 d9 6d 3b 3c af cb bc d3 91 c4 3b
       0.0012990279 0.0036292973 -0.024863832 0.005998829
000170 c2 8a 0a 3d 87 70 bc bc 14 ee d2 3c a9 00 e2 3c
       0.033823736 -0.023002876 0.02574829 0.027588205
000180 53 10 74 bc d8 e7 ae 3c eb 1e 76 bc aa 29 6a 3c
       -0.01489647 0.021350786 -0.01502202 0.01429216
000190 5f d3 43 bb 6c 60 11 bb 33 21 e8 bc 20 49 c6 3b
       -0.0029880626 -0.0022182716 -0.028336143 0.0060511976
0001a0 a8 62 78 3c de c0 ad 3c ae 91 e7 3c 41 d8 e5 bb
       0.01516024 0.02121013 0.028267708 -0.007014305
0001b0 25 b1 54 bb 45 4a b4 3c 85 c5 5d bc 77 ea 29 bc
       -0.003245422 0.02200807 -0.013535862 -0.010370842
0001c0 47 5d b7 3c 93 fd 54 bc 07 f1 95 3c f3 5c 12 bc
       0.022383345 -0.01299991 0.018303407 -0.008933294
0001d0 85 e0 a5 bc 4a b6 d0 3a 4c 75 10 bb a1 34 a9 bc
       -0.02024866 0.0015923467 -0.002204257 -0.020654978
0001e0 ae 5e 0c bd b2 44 93 37 03 1d 1a bc ed b0 9f ba
       -0.03426998 1.7555754e-05 -0.009406331 -0.0012183465
0001f0 98 b4 f6 bc e9 eb ae 3c a6 bb b0 3c 1e 2e 52 3c
       -0.03011541 0.021352725 0.021573853 0.012828378
000200 ce 58 90 bc c6 36 2f bd 4b 50 32 bd ae 58 25 3c
       -0.01762047 -0.042776845 -0.043533605 0.010091944
000210 df 56 dc bc e5 09 78 3b 65 13 4d bc 3a 45 d4 bc
       -0.026896892 0.0037847694 -0.012516831 -0.025911916
000220 06 ed 24 bd 91 b5 d9 bc ac 9f 9f 3c 87 f7 ba 3c
       -0.040265106 -0.026575835 0.019485317 0.022823108
000230 4a 9a e8 3b 4e a3 f8 3c 80 76 93 3b 2e 91 80 3b
       0.007098471 0.030351307 0.0045002103 0.003923557
000240 e1 fe 74 bc 7b fd 2e bc 5c 39 9b 3c f7 b4 3f 3c
       -0.014953346 -0.010680552 0.01894825 0.01170086
000250 00 7f a5 bb 4e 8e fd bc 4a a1 4d bc 9a cd 3a bd
       -0.00505054 -0.030951645 -0.012550661 -0.045606233
000260 86 c0 93 3b 0c 32 a6 3c 0e 00 b8 bc 94 e8 5e bc
       0.0045090346 0.020287536 -0.022460964 -0.013605256
000270 50 b7 0e bd 71 d8 32 bd 93 5b 8d ba eb 86 77 bc
       -0.03484279 -0.043663446 -0.0010784738 -0.015107851
000280 55 eb a4 bc b5 06 01 3c aa 3e ec bc 03 2a b9 3c
       -0.020131746 0.007875134 -0.028838474 0.02260304
000290 04 ca 6b 39 38 b2 1b bc 93 09 6f bb 87 1b 94 bc
       0.00022486603 -0.00950294 -0.0036474213 -0.018079532
0002a0 07 22 b9 3c 3e fe 93 bc 5a ec 93 bc b8 84 24 3d
       0.022599233 -0.018065568 -0.018057037 0.040165633
0002b0 4c 30 23 bc 88 5b e0 bc db 35 0c bd 96 c5 0b ba
       -0.009960245 -0.027387396 -0.034231048 -0.0005331872
0002c0 76 d8 1b bc 06 3d 04 bd c7 f8 3b 3a 8c 31 16 3c
       -0.0095120575 -0.03228476 0.00071705546 0.009167086
0002d0 2b 9f 29 3c ca c5 78 3c c7 2b b5 bc 43 75 80 bc
       0.01035289 0.015183875 -0.022115601 -0.015680915
0002e0 76 c0 aa bc 11 14 5f 3b 05 d5 2f bc 9a da 84 bb
       -0.020843726 0.003403906 -0.01073194 -0.0040543796
0002f0 30 e9 f7 bc 8d 36 10 bd 10 39 0e bd 01 40 c9 3b
       -0.03026256 -0.035208274 -0.034722388 0.006141663
000300 df bd d7 3c dd 91 27 bd ac 94 14 bd a5 06 b1 bb
       0.026335655 -0.04091059 -0.036274597 -0.0054024034
000310 6a 13 d5 bc b8 f8 db bc fe c3 17 bd 9c b6 a8 3c
       -0.026010234 -0.026851997 -0.037052147 0.020594887
000320 d9 d8 9b 3c 9c 4a cb bc 6b 98 04 bd 52 be 91 3c
       0.0190243 -0.02481585 -0.03237192 0.017790947
000330 12 12 4e bc b7 a3 4c 3c fb a4 c2 bc 05 3d c4 bb
       -0.0125775505 0.012490205 -0.02376031 -0.0059887194
000340 59 77 81 3c b5 03 03 3c 12 a3 2e 3c 93 a2 a3 bc
       0.01580398 0.007996489 0.010658996 -0.019974982
000350 5a 9b 02 bd a2 0c 2f bd b2 70 1f 3b 8c 7c b9 3b
       -0.031886436 -0.042736657 0.0024328646 0.005660599
000360 44 14 b3 3c 9b f5 37 3c 98 20 bb 3c 8f f8 9d bc
       0.02186025 0.0112279905 0.02284269 -0.019283561
000370 59 5d ed bc 40 bb 2c 3c 55 05 22 3d a5 32 41 3b
       -0.028975176 0.010542691 0.039555866 0.002947965
000380 5e 74 8e bc 7c 31 3a 3c 5d a0 de 3c a9 95 67 bc
       -0.017389473 0.011364337 0.027176077 -0.014134803
000390 fa f3 fc 3c 86 f0 7c bc 62 db 81 bc 3a 57 c2 3a
       0.030878056 -0.015438205 -0.01585168 0.0014827021
0003a0 c2 e6 f2 bc ae fb 9b 3c df 90 90 bc b9 ce a7 bc
       -0.02965105 0.019040909 -0.017647205 -0.020484315
0003b0 cb a7 b5 3a 18 1f 2c 39 24 fb 1b bd 57 5c ae bb
       0.001385921 0.00016414782 -0.038081303 -0.0053210664
0003c0 a0 0e 3c bd 35 19 c2 3b a5 4b 8e 3c cd 31 03 3c
       -0.045912385 0.005923415 0.017370054 0.008007479
0003d0 50 6d 96 3c bd 4b 01 bb 85 45 6a 3c a9 1a d0 3c
       0.018362671 -0.0019728981 0.014298801 0.025403338
0003e0 66 ca 74 3c 35 5d c4 3b 8d ee 78 bc 25 18 57 3c
       0.014940834 0.0059925565 -0.015193594 0.013128315
0003f0 d3 c2 8a 3c 88 ca ef 3c 8e 4f 31 3c 42 28 59 3c
       0.016938603 0.02927138 0.01082219 0.013254227

encoder.network.1.bias f4 [128]
000000 ce 03 40 bd 69 4d c9 be 91 fd 2f 3e 18 60 9b 3e
       -0.04687863 -0.39316872 0.17186572 0.3034675
000010 8a 02 f9 bb 2e 45 4f 3e d9 31 54 3e e3 e3 ff 3d
       -0.0075991796 0.20241234 0.2072214 0.12494638
000020 60 f8 94 3e 17 bc a4 3e 88 09 06 3f 47 eb 2e bc
       0.29095745 0.3217475 0.52358294 -0.010676212
000030 af c7 c5 3e 26 5b 48 3f d9 13 c2 3e 97 fd e5 3e
       0.3862891 0.7826408 0.37905768 0.44920036
000040 74 b5 ef 3e ce bf 17 bd d0 a7 bd 3e cc 5e 0a 3f
       0.46818125 -0.037048154 0.37042093 0.540509
000050 34 1f ec 39 a2 1a 13 3f 58 22 a5 3e 54 13 67 3e
       0.00045036676 0.57462513 0.32252765 0.22565967
000060 36 c0 a8 3e 3a 29 6a bd 8a af 04 3f 4b 08 05 be
       0.32959145 -0.057168223 0.5183035 -0.12991445
000070 34 ed ab 3e ad 6e ea 3e 1e 93 cf 3e e5 30 e3 3d
       0.3357941 0.45787564 0.4054193 0.1109331
000080 09 42 82 bc 97 58 6b 3e d4 f4 24 3e 8b cf 1a 3e
       -0.015900629 0.22983013 0.1610902 0.15118234
000090 4b 03 5f 3e 33 af da bc 5a 86 01 3f 87 fa fc bb
       0.217786 -0.02669487 0.5059563 -0.007720295
0000a0 ef 02 9f bc d4 b1 a7 3c 48 33 27 bd 89 22 94 bc
       -0.019410579 0.020470537 -0.04082039 -0.018082874
0000b0 41 03 27 3c 99 c6 1d 3f 5b ef 9f 3d b1 11 2c bd
       0.010193647 0.6163116 0.07809325 -0.04200906
0000c0 2b ff 7c 3e dd b4 23 3e d8 38 b3 3e d7 1b 24 3f
       0.24706714 0.15986963 0.35004306 0.6410498
0000d0 9b 65 18 3f 57 d6 9a 3c f2 8e fc 3d bb 6e 01 3f
       0.5953004 0.018901033 0.12331952 0.50559586
0000e0 55 63 08 bd 72 6b 1d be 00 96 d4 3e dc 30 20 bd
       -0.033297855 -0.15373018 0.4152069 -0.039109096
0000f0 6c 66 cf bc e0 ff c3 3e c3 25 60 3c 4b 37 9b 3e
       -0.025317393 0.38281155 0.013680878 0.30315623
000100 a6 8e e4 3b d3 58 87 3e a2 c7 c1 3e c8 03 2d 3f
       0.006975013 0.26434955 0.3784762 0.67583895
000110 e5 79 00 3f cf 9d 98 3e a7 6c aa 3d d8 8c 7b 3e
       0.50185996 0.29807898 0.08321505 0.24565446
000120 54 cf bc 3e 11 3f 08 bd f5 1c 84 bc 73 81 21 bd
       0.3687693 -0.03326327 -0.016127089 -0.039430093
000130 ce 2b 99 3e ba 9e b4 3e 9b 88 81 be 85 dd bb 3e
       0.29916233 0.3527735 -0.25299534 0.36692443
000140 66 dc 06 3f 7e 6d 32 3e b9 93 bc 3c 7f 94 11 3d
       0.5268005 0.1742458 0.023019658 0.035542008
000150 c6 0e 4e 3c 5a 1c bb 3e 26 85 ae 3d 36 ce 57 3e
       0.012576764 0.36545068 0.0852149 0.21074757
000160 eb d6 25 3e 50 ad d0 be ed 45 39 3e d8 59 2c 3f
       0.16195266 -0.40757227 0.18093081 0.6732459
000170 85 09 8a 3e 2f bd 2a 3e 34 93 82 bc 2b dc 1a 3f
       0.26960388 0.1667373 -0.015939333 0.604922
000180 b8 71 5c be 93 81 a1 3b a3 e1 e1 bc 39 15 b3 3e
       -0.21527755 0.0049287765 -0.027573412 0.3497713
000190 46 d4 52 3f 07 12 30 3f ae 31 89 3e 99 b8 b1 3e
       0.82355154 0.6877751 0.26795715 0.3471115
0001a0 2b ee ab 3e ef 63 14 bd ec 47 b4 3b de 6d f7 3e
       0.33580145 -0.036228117 0.005501738 0.4832601
0001b0 0f 0b c9 bc 4c e0 a5 be 92 68 ed be f7 35 a5 3e
       -0.024541406 -0.32397687 -0.46368843 0.32267734
0001c0 29 aa a0 3a 69 74 3c bd f4 7b 4d 3e e0 cc 02 bd
       0.0012257743 -0.046009455 0.20066816 -0.031933665
0001d0 3c 39 25 bd 9b 15 f2 3e 0c 23 8f 3c 23 5d c8 bc
       -0.040337786 0.4728211 0.017472766 -0.024458474
0001e0 fd 8e ad 3e bb 2c 98 3e 88 19 02 bd cc 01 8a 3e
       0.33898154 0.29721627 -0.03176263 0.26954496
0001f0 7e 5a ca bc 47 4e 4c 3e 06 11 8f 3e 8a 2d 2c 3f
       -0.024701353 0.19951735 0.27942675 0.6725699

encoder.network.3.weight f4 [128, 128]
000000 61 6e f6 bc 2d 55 bc 3c de a4 cb 3b fa 85 0a 3d
       -0.03008193 0.022989834 0.006214722 0.033819176
000010 91 08 ce bd 28 c2 96 3d b3 f2 b1 bd 5a f1 28 bd
       -0.10060228 0.07361251 -0.08688869 -0.041245796
000020 74 ec c4 bc 35 ef b4 bd 1a 05 ec bc 77 ff 0c bd
       -0.02403853 -0.088346876 -0.028811026 -0.034423318
000030 de 43 85 3c 3d e2 5f bd e4 42 11 bc ae 89 66 bb
       0.016267713 -0.054659117 -0.008866046 -0.0035177278
000040 19 3f 31 bc 90 46 df 3c 90 22 67 bc 75 e0 c2 bd
       -0.010818266 0.027255327 -0.014107361 -0.09515468
000050 fe e1 fe 3c 6f b1 c6 bd d1 a3 38 3d f8 4a bd ba
       0.03111362 -0.097018115 0.045078102 -0.0014441898
000060 16 09 fa bc 95 9a 16 bd b8 08 38 bc 74 d4 70 3d
       -0.03052191 -0.036768515 -0.011232547 0.05879636
000070 08 62 43 3c d0 b5 1a 3d 0b 2b 44 3d 5a e8 df bd
       0.011925228 0.037771046 0.04789261 -0.109329894
000080 3f 6d be 3c a9 da ed bd 04 12 02 be 8c 47 af bd
       0.023245452 -0.11613972 -0.12702185 -0.08558568
000090 67 d2 5c 3d fd 33 92 bc 79 2b 70 3c 76 1b 9d 3d
       0.053911593 -0.017847056 0.014658802 0.076712534
0000a0 9c 84 99 bd 04 b9 7f 3d af 55 30 bd a6 27 9b 3d
       -0.07495996 0.062432304 -0.043050464 0.07575922
0000b0 ea c6 db bc dd c3 bf 3c 11 6d 66 3c 6d e1 57 bd
       -0.026828248 0.023408825 0.014064089 -0.052705217
0000c0 c5 b9 e0 3b 1e 50 55 bc db 54 6e 3b 36 78 1d 3d
       0.006858083 -0.01301959 0.0036366496 0.03844472
0000d0 da 91 d3 bd a2 3e cc 3b 11 ee fb 3b b3 30 46 bd
       -0.10330553 0.0062330524 0.007688292 -0.048386287
0000e0 61 52 44 bd 96 c8 52 bd 43 3c 9b bc c5 a5 e9 3c
       -0.047930125 -0.051460825 -0.018949633 0.028521428
0000f0 40 bf e7 bc af 64 0f be f5 11 5e 3d a0 b5 1b bc
       -0.028289437 -0.14003251 0.054216344 -0.009503752
000100 0b 37 49 bd 6e 31 ac bd 5d 88 f8 bd 9f 17 45 bd
       -0.04912476 -0.084078655 -0.12135384 -0.04811823
000110 de d5 8c 3c 21 b5 10 be 4a 8b 6e 3d 24 1f fd bc
       0.017191824 -0.14131595 0.058238305 -0.030898638
000120 c5 88 fd 3c 6c 48 df 3c be 29 8f bd 61 6e 5f bd
       0.030949006 0.027256213 -0.069903836 -0.054548625
000130 69 c9 9c bd 55 66 bf bb 89 9a 40 3b a2 61 a2 bd
       -0.076556034 -0.0058410564 0.0029388985 -0.07928778
000140 3d 01 03 bc 05 c9 93 3c 9f 75 6f 3d 0d 85 3f 3c
       -0.007995901 0.01804019 0.05846178 0.011689437
000150 19 d8 fa 3c 27 5b 4d 3d 0d a6 c2 bd ee 9d cf bb
       0.030620622 0.050135758 -0.09504328 -0.0063359654
000160 6f 35 86 bd 29 c4 63 bd e5 44 c7 bd 68 3a 74 3d
       -0.065531604 -0.055606995 -0.097299375 0.059626013
000170 d3 42 a6 bd a1 74 c2 bd 5e cc b4 bd c8 27 81 bc
       -0.081182145 -0.094949014 -0.088280424 -0.01576604
000180 58 44 78 3c c2 48 90 bd 1f b2 e1 bc b9 42 41 b9
       0.015153013 -0.070451275 -0.027550755 -0.0001843077
000190 e7 bf 71 3d a0 af bc bd ef 32 88 bd d8 5d 82 bd
       0.059020903 -0.09213185 -0.0665034 -0.063655555
0001a0 bb b5 78 bd 30 9c c9 3c 59 d0 6c bc aa 02 3f bd
       -0.060720187 0.024610609 -0.014453971 -0.0466334
0001b0 cb a1 66 bd eb f9 11 bd 28 e3 bb bd 0a 40 70 bd
       -0.05630664 -0.03563873 -0.09174186 -0.058654822
0001c0 e1 50 59 bd 64 01 5d bd aa 92 d8 bd 98 b4 34 3d
       -0.053055648 -0.053956404 -0.10574849 0.04411754
0001d0 b2 0e 4e 3b 6e 1e a9 bd 0f 5a 0c bc 5c 39 58 3c
       0.0031441865 -0.08257757 -0.0085663935 0.013197269
0001e0 c8 66 53 b9 ab 9e a1 bd 79 4c f9 bb 41 f0 bd bd
       -0.00020160817 -0.07891592 -0.007607993 -0.092743404
0001f0 0d 88 8a bd c3 76 9a 3c bd f6 a3 bd c9 af 1c 3c
       -0.06764231 0.018855458 -0.08006046 0.009563395
000200 e7 de 46 3d f9 5b 2a bc 4b 9e 8d 3b 55 07 ff bc
       0.04855242 -0.010397905 0.0043218485 -0.031131426
000210 7d ad 9f bd f5 fb dc 3d a1 0e 36 3d 49 ca 07 bd
       -0.07796762 0.107902445 0.044447545 -0.0331519
000220 5c e1 94 bd 57 91 5c bd bf e8 13 bd 40 62 51 bb
       -0.072695464 -0.053849544 -0.036110636 -0.003194943
000230 78 b3 d2 bb b0 8e d2 3b 71 e6 39 3e 8b 00 18 3d
       -0.0064300857 0.006425701 0.18154313 0.037109893
000240 80 17 0e 3e 4b 3a 91 3c 12 13 46 3d 5f f6 c0 3d
       0.13876152 0.017727992 0.04835803 0.094219916
000250 eb be 13 3d cb 05 a5 3c a9 85 b4 3d cf 5b 82 3d
       0.036070745 0.020144364 0.08814556 0.06365167
000260 35 1f 53 3d 6b f0 3c 3c 9a ae 1f 3c 97 49 3b bc
       0.051543433 0.0115319295 0.009746218 -0.011431119
000270 a3 ee a4 3d af 7e c9 3c 3b cc 59 3d 0c cf 08 3d
       0.08053329 0.02459654 0.053173285 0.03340058
000280 ea ca d6 3b 9e 0f 7b bd 57 7c 48 bd 2b 6d 07 3d
       0.006554951 -0.06129419 -0.048946705 0.033063095
000290 32 68 fd 3d b4 51 55 bd b4 e7 a5 3c 24 cc 02 bd
       0.12373389 -0.05207987 0.020252086 -0.031932965
0002a0 a2 57 2d 3d de f0 b4 3d 20 83 e1 3c db 22 2b bd
       0.0423199 0.08835004 0.027528346 -0.041781288
0002b0 24 1b 91 bd 3d fa 13 3d 77 70 bd bc 1b d1 9c 3d
       -0.07085255 0.036127318 -0.023124916 0.07657071
0002c0 01 c5 80 bc 77 43 c6 3d 0a 72 4a bd c6 93 a0 3d
       -0.015718939 0.09680837 -0.049425162 0.078406855
0002d0 de 7f dc 3c ea 38 09 bd bd 3c 2b 3d ba da 71 bc
       0.02691644 -0.033501543 0.04180597 -0.014761621
0002e0 1e cd 1c bc 9c ca 3d 3d c7 ff bb 3c 45 8d 76 3c
       -0.009570388 0.0463358 0.022949113 0.01504833
0002f0 0e 24 cf 3c 49 85 0e bd 49 01 c0 3d 55 36 24 3d
       0.025285747 -0.03479508 0.09375245 0.040090878
000300 45 0e 5d bd cc 8a cf bc 9d 34 a3 3d e7 ac 81 3a
       -0.053968687 -0.025334738 0.079690196 0.0009893448
000310 d3 56 4f 3d 83 c6 6e bc b9 26 bd bd 28 bc 47 bd
       0.05061991 -0.014573696 -0.092359014 -0.048763424
000320 0c 87 a6 3d da 94 01 bd 31 ce ac 3d 98 c6 ba 3c
       0.08131227 -0.031636097 0.084377654 0.022799775
000330 9f 4f f1 3d 7f cc 8c 3d ee 52 5c 3d 92 c6 66 3c
       0.11782765 0.06874942 0.053790025 0.014085429
000340 08 22 8f b9 9a 12 1f bd 2b e4 c7 3c f2 6c 69 3d
       -0.0002730044 -0.0388361 0.024400791 0.056988664
000350 fd 93 63 3d df 8c 8d 3d ae 9b 2e bd b3 f5 d4 3d
       0.055561054 0.06911635 -0.042628936 0.10398426
000360 b5 c4 2d 3d 46 9f 86 3d 71 ed 9a bd 93 05 4a 3d
       0.042423923 0.06573348 -0.075648196 0.049321722
000370 7b 14 95 bd d5 26 7b bc f7 a5 92 bd 04 b8 7e bc
       -0.07279297 -0.0153290825 -0.071605615 -0.015546802
000380 0c e9 fe 3c d6 bf 01 3d 48 86 a2 3d aa a2 34 bd
       0.031116985 0.03167709 0.07935768 -0.04410044
000390 c7 34 3c 3c e0 e2 36 39 fd f3 b5 3c e3 33 23 3d
       0.0114871925 0.0001744139 0.02221107 0.039844405
0003a0 6a a4 40 3e 50 46 bc 3d 44 7b 6b 3d 5b c6 a7 bc
       0.18812719 0.091930985 0.057490602 -0.020480325
0003b0 ba dc 8f 3d 8a 95 69 3d 52 34 ad 3c 41 d3 f1 bc
       0.07024522 0.057027377 0.021143112 -0.029519679
0003c0 11 ad 91 39 d1 b3 5c bc e7 0d 30 3d 42 da 83 bd
       0.000277855 -0.013470606 0.04298201 -0.06438114
0003d0 6a ee 5c 3c 12 6b 8c 3d c0 52 b2 3b 04 01 9f bd
       0.013484577 0.068563595 0.0054419935 -0.077638656
0003e0 3b e1 a2 3d 7f d3 41 bd c5 b5 71 bc 39 92 c0 3d
       0.079531156 -0.04732084 -0.01475281 0.0940289
0003f0 91 c7 84 bd 01 b4 2b bd 10 9f 60 bb bd 30 5a 3e
       -0.06483377 -0.041919712 -0.0034274496 0.21307655

encoder.network.3.bias f4 [128]
000000 8c 19 7b 3d 39 a0 63 3d c8 64 47 3e 24 0d a7 bd
       0.06130366 0.055572722 0.19472039 -0.08156803
000010 ad eb 2b 3e f3 25 0a 3f a9 8b f4 3c 4b 30 8a 3e
       0.16789122 0.53964156 0.029851751 0.2698997
000020 65 67 44 3e c6 37 88 3e 80 30 ff 3e b8 e6 73 3e
       0.19180067 0.26605052 0.4984169 0.23818481
000030 37 f6 78 3e 92 35 19 bd 2e dd 85 3d 2d 6c 0a be
       0.24312674 -0.037404604 0.06536327 -0.13517828
000040 4f 86 c2 3e ef 24 eb 3d f8 93 3e 3d 8f b4 e2 3e
       0.37993094 0.11481654 0.046527833 0.4427838
000050 04 67 1b 3e 06 c6 64 3d 65 55 b4 3e 68 4d 49 3e
       0.15176016 0.055852912 0.352214 0.19658434
000060 22 79 58 3b 17 1d e2 3d 9d ac 6a bc cf d9 d6 3d
       0.0033031185 0.11040705 -0.014323381 0.104907624
000070 85 86 36 bd 2a ab d8 3e 7f b0 b9 3e 29 e2 24 3f
       -0.04456188 0.42318088 0.36267468 0.64407593
000080 c3 ea ab 3b 67 46 74 3e bb 12 15 3e 72 c7 fa 3d
       0.0052464916 0.23854981 0.14557926 0.122450724
000090 43 f3 2d 3e c5 54 a8 bb 84 69 83 3c 07 f5 dc bc
       0.16987328 -0.0051370584 0.016041525 -0.026972307
0000a0 e8 97 bb 3c e6 c4 d8 3e 63 60 07 3d 38 f4 06 3e
       0.022899583 0.42337722 0.033050906 0.131791
0000b0 f5 c7 98 3a af 06 c6 3c 48 2b eb 3e 84 2c 1e 3e
       0.0011656272 0.024173109 0.45931458 0.15446669
0000c0 92 57 af 3e 93 41 e6 3d a5 7a f1 3e 46 9e 34 3d
       0.34246498 0.11242976 0.47163883 0.044096254
0000d0 5b 10 7c bb f2 89 e5 3d a7 73 a1 3e b9 b0 8c bb
       -0.0038461897 0.112079516 0.31533548 -0.004293528
0000e0 6d 1e 74 3d db 8f 97 3e 6f 5d 98 bd 6a 0a e7 bd
       0.05959933 0.2960194 -0.07439696 -0.11281283
0000f0 bb e8 8f 3d ed c2 e9 3d 1c c4 f1 3d fc cc 38 3e
       0.07026812 0.11414132 0.11804983 0.18046945
000100 df 43 01 bd b4 7d 45 3c 4f 99 61 3e e6 dc 41 3e
       -0.031558868 0.012053896 0.22031139 0.18931922
000110 2b 44 f8 3e 40 fa cb 3e aa 24 a0 3e 2a 50 0e 3b
       0.48489508 0.39839363 0.31277972 0.0021715262
000120 cf e3 c5 3d 37 50 e9 3c 81 27 8f 3d ef dc 47 3e
       0.09662592 0.028480632 0.06989957 0.19517873
000130 11 69 ef bc e1 e4 f8 3d 79 2a 10 be 6b 63 ea 3c
       -0.029224904 0.1215303 -0.14078702 0.02861186
000140 20 d3 e9 3d e4 3a 18 bd 2b 19 c3 3e a2 ac d1 3e
       0.11417222 -0.037165537 0.3810514 0.4095202
000150 ef 01 f6 3d 93 65 9a 3e 8a 01 1b 3d e9 e7 6a 3e
       0.120120876 0.3015562 0.037843265 0.22940029
000160 65 3f 34 3e 39 09 89 3d 49 70 07 be 61 88 38 3e
       0.17602308 0.06691212 -0.13226427 0.18020774
000170 26 bb 94 3e db ef e0 bd a3 1a 95 bd ab 68 03 3f
       0.29049033 -0.10983249 -0.07280471 0.51331586
000180 50 70 b2 3d 6a 3f 07 3e 1d 5a a1 3d 9c 39 b8 bd
       0.08712828 0.13207784 0.07878516 -0.08995363
000190 b2 e4 2d bd 12 8c 38 3e f6 a6 34 3e 30 39 18 3e
       -0.04245443 0.18022183 0.17641816 0.14865565
0001a0 ec fe c0 3e ad ce 18 3e 86 6f 5b 3e 68 3e 49 3e
       0.3769449 0.1492259 0.21429262 0.19652712
0001b0 e8 3c ae 3d 49 35 4f 3e d0 13 53 3e cd be ac bd
       0.08507711 0.2023517 0.20613027 -0.0843483
0001c0 9e 00 96 3e fe 17 6c 3d 78 d0 c0 bb ae 36 12 bc
       0.29297346 0.05764007 -0.0058842264 -0.0089241695
0001d0 2e b9 d3 3e 1a 2d c6 bd c0 0d 98 3d 4d dd 16 3e
       0.41352218 -0.09676571 0.074244976 0.14732857
0001e0 ba ec c9 bd ef 68 91 bc 9e a1 5d 3e d1 ff b8 3e
       -0.09859605 -0.017750232 0.21643683 0.36132672
0001f0 10 f6 c5 3c f7 11 dd 3e 86 4b 07 3c 9e 4d 29 be
       0.024165183 0.4317777 0.008257752 -0.16533515

encoder.output1.weight f4 [4, 128]
000000 8a c3 1e 3d 4b a9 22 bd a8 4b f5 bc 73 04 02 3c
       0.0387607 -0.03971223 -0.029943302 0.007935631
000010 70 c6 ae bd 68 f6 6c 3e 41 d4 b1 3b 34 68 5a bd
       -0.08533943 0.23140872 0.005426914 -0.053322032
000020 c3 04 08 bd ed 65 60 bd 0d cc a7 3e 95 b3 d6 3c
       -0.033207666 -0.054784704 0.32772866 0.026208678
000030 ea 88 84 3d f0 0c b6 3d 6f f0 5f bd ea 86 88 bb
       0.06471427 0.088891864 -0.054672655 -0.0041664736
000040 73 55 0b 3d 93 76 7b 3d 92 3a b1 3d d3 79 98 3e
       0.034017038 0.061392378 0.086537495 0.29780445
000050 a7 fe 5d 3d 0f a2 e6 3c 5d cd dc bd 2f f3 ed bc
       0.054197934 0.028153447 -0.107813574 -0.029046623
000060 33 22 31 3d 9a e0 2b bc 91 7f 0b 3c 08 97 96 bd
       0.043245506 -0.010490561 0.008514301 -0.07353026
000070 9c fe cc 3d a9 0b a7 3e d7 37 a8 bd 86 32 56 ba
       0.100095004 0.32626083 -0.082137756 -0.0008170981
000080 9d df aa 3c 9f 5b 71 bc a2 12 ab 3d 69 34 02 3e
       0.02085858 -0.014731317 0.08353163 0.12715305
000090 fe 3c 98 bd 20 93 36 bd 07 78 28 3d 84 88 85 bd
       -0.07433508 -0.044573903 0.041130092 -0.06520179
0000a0 a5 2a 15 bd d5 8e 2a be f9 8a f7 bd 39 83 e9 bd
       -0.036417622 -0.16656049 -0.12087054 -0.11401982
0000b0 14 0c 3d 3c a5 09 41 bd 39 d6 bf 3c ee 29 95 bd
       0.011538524 -0.04712834 0.023417579 -0.07283388
0000c0 6e 51 89 3e 03 50 2b bd 36 69 b3 3c 28 fe 8d bc
       0.26819938 -0.041824352 0.021900754 -0.017333105
0000d0 4e 39 f3 bb 11 4f 45 3e 2c 47 0b 3d 36 b7 a2 bc
       -0.0074226027 0.19268443 0.03400342 -0.019862752
0000e0 5b 1b e0 3d 4d 8f 20 3d 3f 01 8b 3c 87 62 2d bd
       0.10942718 0.039199162 0.016968368 -0.04233029
0000f0 b3 bb 67 bc 5e 93 61 bd d6 6b aa bd 9b 77 e2 bd
       -0.014143872 -0.05507218 -0.08321349 -0.11057969
000100 46 77 89 bd e5 26 8e bd ff 7d 8d 3b 8d b2 f8 bd
       -0.06712203 -0.06941012 0.0043179984 -0.12143431
000110 4f f0 77 3e c2 8a 90 3d 4a 51 9c bc 59 2a 52 3c
       0.24212764 0.07057716 -0.01908173 0.012827479
000120 8f dc 21 bc 5e bc 6d bd f0 b2 80 3a f0 ae 24 bd
       -0.009879245 -0.05804097 0.0009818953 -0.040205896
000130 73 c3 4c bc 66 14 75 bd cd ed 29 3c 02 81 7e 3d
       -0.012497771 -0.059833907 0.0103716375 0.06213475
000140 64 4c a2 bc a1 95 00 3e 31 be 2b be a8 a7 38 3e
       -0.019811817 0.12557079 -0.16771771 0.18032706
000150 2f 7e 98 bd 76 0a 22 be 44 7b 61 bd de 7c 4e 3c
       -0.074459426 -0.15824303 -0.055049196 0.012603013
000160 bb c9 9c 3d 41 ec 8b bb 5c e4 d0 3c 14 09 a9 3d
       0.076556645 -0.004270107 0.025499515 0.08253685
000170 dd 74 c4 b9 66 5e 80 bd 5c 77 56 bc 50 8e 76 3e
       -0.00037471103 -0.06268005 -0.013089981 0.24077725
000180 c5 dc e6 3d 00 ca 19 be 8b c0 80 bd a3 58 56 bd
       0.11272577 -0.15018463 -0.06286725 -0.052330624
000190 1c 2f 92 bd df bf 86 bd ff 0d 54 bd de 37 80 bd
       -0.07137892 -0.06579565 -0.05177116 -0.06260656
0001a0 4d 99 f4 3c ad e9 43 be 6f c2 9b bc 46 e1 15 bd
       0.029858256 -0.19132109 -0.019013612 -0.03659179
0001b0 58 33 e4 bd 3b d1 c4 bd 65 0a 34 bd c7 66 95 3d
       -0.111426055 -0.0961022 -0.043955225 0.07294994
0001c0 00 d6 fb bd eb 61 8f bd 97 9b 45 3d de b1 5a bd
       -0.12296677 -0.07001098 0.048244085 -0.053392284
0001d0 e2 99 5a 3c 6c a3 3f 3d 7f 33 c8 bc f2 36 11 be
       0.013342353 0.04678671 -0.024438618 -0.14181116
0001e0 25 25 75 3d f0 b8 ea 3d 1c dd 30 3e 5e e4 82 bd
       0.059849877 0.11461055 0.17271847 -0.06391214
0001f0 e5 5d 31 3d e5 0b c8 3d 5f 47 20 3c 91 cd 40 3d
       0.043302435 0.09767894 0.009782641 0.047071043
000200 26 5d 25 3d 7d d3 67 bd ee d7 c7 bd 72 ea 39 bc
       0.040372036 -0.056598175 -0.09757982 -0.0113474
000210 81 c0 5c 3e de 95 2e be 06 01 3d 3e 49 6d 23 bd
       0.2155781 -0.17049357 0.18457422 -0.039899144
000220 ab 9b 89 bd c0 90 e3 3d 4d 4c 69 3e 90 90 09 3e
       -0.067191444 0.11111593 0.22783013 0.13434052
000230 b7 e3 5c bc f2 12 0f bd 2b 27 21 be fe ac 21 bd
       -0.013482026 -0.034930177 -0.15737598 -0.03947162
000240 53 c5 ac 3e 74 e8 b4 3d 7c 6c 58 bd 1d 41 48 be
       0.33744296 0.088333994 -0.052837834 -0.19556089
000250 7d 41 f3 bd 1c 8c 2c bd 5d ea 48 3c 6d 60 a0 bd
       -0.11877725 -0.042125806 0.012262908 -0.07830892
000260 fe 6f b4 bc b3 57 30 bd 69 68 76 3d 98 ba d3 3d
       -0.022026058 -0.043052386 0.060158167 0.10338324
000270 e1 23 de 3c d7 86 28 bd 40 ca 2f be 59 9b 8f bc
       0.027116718 -0.04114422 -0.17166996 -0.01753013
000280 d2 d7 29 3b cc 2d 48 be e5 8a 0d be 93 4c 81 3c
       0.0025915992 -0.1954872 -0.13822515 0.015783584
000290 9e 59 6d 3d fb 66 c7 3d dd 38 74 bc d6 6e c1 bb
       0.057946794 0.09736439 -0.014906135 -0.0059031053
0002a0 8b 6d ad 3c 0a c4 bb bd d3 7e b5 bc 20 5f 39 be
       0.021170398 -0.09168251 -0.022155201 -0.18102694
0002b0 ba db 4a 3d a7 cb 94 bc 36 33 72 bd ca c0 c2 be
       0.049525954 -0.018163515 -0.05913087 -0.3803771
0002c0 5c 13 30 3e 52 09 cc 3d fb 32 4f bd 6f 01 61 3b
       0.17194885 0.09962715 -0.05058573 0.003433313
0002d0 ca 48 c3 bd e1 c1 07 be 82 cc 2f be 7b 03 a6 bd
       -0.09535368 -0.13257553 -0.17167857 -0.081061326
0002e0 c3 90 11 bb 97 13 93 3e 74 36 6e bc 6b c1 93 bb
       -0.002221153 0.28725883 -0.01453935 -0.004509141
0002f0 f0 86 67 3d 0b a7 0e bd 3c 2e c5 3d e5 1d 64 be
       0.05652517 -0.034827273 0.09627959 -0.22277029
000300 96 1b 1d 3d 28 b7 8f bd 44 3f 0d 3e 57 49 1c be
       0.038356386 -0.07017356 0.13793665 -0.15262352
000310 c7 68 62 3e 85 d7 33 3e 15 69 03 3e 96 56 61 3d
       0.22110282 0.17562683 0.12833054 0.055014215
000320 c4 da 51 bd 98 ea 82 bc ae 2f c1 bd 93 2f 99 bc
       -0.05123402 -0.015981004 -0.09432922 -0.018699443
000330 89 9f 0f bb 09 21 42 3e 89 a6 f1 ba db 7b c0 bd
       -0.0021915159 0.18957914 -0.0018436472 -0.093986236
000340 24 fb 04 3d a9 f4 5b 3d aa a6 4d 3e b3 a9 96 3d
       0.03246607 0.053700123 0.20083109 0.07356586
000350 12 5f 04 3d e5 d7 e1 3d 9e a2 55 3d 63 fa 95 bd
       0.03231723 0.11027507 0.052157037 -0.07323148
000360 7d b4 58 3d f2 69 11 3c ef f4 76 bc 41 f1 97 bd
       0.052906502 0.008875357 -0.015073045 -0.074190624
000370 1b 2d cd bd 8d bc 74 3d a8 87 57 3c 2d 8a bf 3e
       -0.10018369 0.05975013 0.013154902 0.37410107
000380 5a f6 6f bc 84 73 c9 bd f2 06 02 3d b0 2f 1e bd
       -0.014646137 -0.09836486 0.031744905 -0.038619697
000390 8d 8e e1 3c 4f db 24 3d 88 c9 57 bd db 12 c6 bc
       0.027533794 0.04024821 -0.05268243 -0.024178913
0003a0 03 31 7c 3d d9 63 3d bc 82 93 cb 3d ab fb 21 bd
       0.06157018 -0.01155945 0.09940244 -0.03954665
0003b0 68 d8 75 3d 90 39 81 3e e0 15 01 bd 4d 8d a3 bc
       0.060020834 0.2523923 -0.031515002 -0.019964838
0003c0 63 9b f4 3d 0f 06 80 bd cb 34 42 3d 1a 9a 22 3d
       0.119437 -0.062511556 0.04741363 0.039697744
0003d0 11 ea 76 be 25 d3 90 bb 4f 63 35 bd dd 3e 56 bb
       -0.24112727 -0.0044197016 -0.04428416 -0.0032691278
0003e0 eb 8a b5 3c 5f 23 85 bd 27 04 90 3e 40 5c 2a bc
       0.022160968 -0.06500887 0.28128168 -0.010397971
0003f0 8a 15 95 bc 46 ee 45 3e f4 9e 48 bd 8c df fb bb
       -0.018198747 0.19329175 -0.048979715 -0.007686561

encoder.output1.bias f4 [4]
000000 e2 eb 11 bc ae 46 82 bd 77 da a8 bd 4f ad a8 3a
       -0.0089063365 -0.06361137 -0.08244794 0.0012869033

encoder.output2.weight f4 [4, 128]
000000 e3 43 15 bd 02 97 bf bc 27 d5 a5 be 94 35 c5 bc
       -0.036441695 -0.023387436 -0.32389185 -0.0240734
000010 2f 16 9a 3d 39 a6 c1 bd e1 4b 56 3c ff 3e 7e be
       0.075237624 -0.094555326 0.013079614 -0.24828719
000020 10 f1 87 bd 5d e5 a0 bd dd 40 68 3e 83 49 70 be
       -0.06637776 -0.078562476 0.22680993 -0.23465542
000030 6e bf 3f be 4f 28 33 3d 4f d3 b0 3d 98 2c cd bd
       -0.18725368 0.043739613 0.08634054 -0.10018271
000040 49 4f 51 be 65 98 1a be 3f f7 5c bc f9 25 d0 3d
       -0.20440401 -0.15097196 -0.013486682 0.10163493
000050 70 f8 00 be 5e b4 0a bd f0 cb 87 bc 90 53 dd bd
       -0.12594771 -0.033863418 -0.016576737 -0.10806954
000060 48 21 5a 3d dc db e3 bb 32 86 24 3d 9c b6 ed 3d
       0.053254396 -0.0069536995 0.04016704 0.116070956
000070 29 a0 6e b9 d0 e8 47 3e 01 32 c3 3c eb c3 9e be
       -0.00022757113 0.19522405 0.023827555 -0.3100885
000080 68 93 a9 3c 4d a0 ad 3c bf 8d 0d be 0d e4 17 3c
       0.020700172 0.021194601 -0.13823603 0.00927068
000090 1d 8a 8a bd 54 eb 75 3c 79 45 68 bd 12 4f d7 bc
       -0.06764624 0.01500972 -0.05670688 -0.02628282
0000a0 fc 4f 8c bd 26 73 b0 be 96 58 97 3d 68 aa 83 3d
       -0.06851193 -0.3446285 0.07389943 0.06428987
0000b0 02 48 30 bd ae 4f ce bd 20 b7 a9 be 15 e6 f8 3d
       -0.043037422 -0.100737914 -0.33147526 0.1215326
0000c0 26 66 24 3e 36 6b 12 be 7b ef 16 be bb 96 53 bd
       0.16054592 -0.1429871 -0.14739792 -0.05165742
0000d0 d7 d7 15 3b 4f 7d 7b 3d 25 a9 1a 3d da 11 7d 3d
       0.0022864246 0.0613988 0.037758965 0.061784603
0000e0 f5 04 47 be 0e 41 9b bc bc 64 06 3d 79 5d 2b bd
       -0.19435485 -0.018951919 0.03281091 -0.04183719
0000f0 d2 23 a0 3d 03 2e 4a bd ce 56 49 bd 54 8f 3f 3d
       0.07819332 -0.049360286 -0.04915505 0.046767548
000100 23 51 84 3d c4 e1 b3 bd ca 72 6c 3d 74 96 94 3d
       0.06460788 -0.08783296 0.05772666 0.07255259
000110 01 4a 73 be 27 69 66 be 8e c3 9f be ae b5 a5 3d
       -0.23758699 -0.2250105 -0.31203884 0.08091293
000120 e7 8c 2b bd 37 81 1e bd bb 7b 9c ba 48 93 91 bd
       -0.04188242 -0.038697448 -0.001193873 -0.0710817
000130 fe 6b 5b 3d 64 bf a5 3c 06 58 b2 3c b4 56 79 bd
       0.053569786 0.020232864 0.021770488 -0.060873702
000140 36 e0 26 be b6 fa 01 be f4 2a 52 bc be 52 17 3e
       -0.16296467 -0.12693295 -0.012827624 0.14777657
000150 6f 5c 97 bd 58 2f 1c 3d 7a dd 74 bd f8 61 e5 bc
       -0.07390677 0.038131088 -0.05978153 -0.028000817
000160 28 f6 f3 3d 7d 01 20 bd 9c 90 a4 3c c3 49 79 be
       0.11912185 -0.03906392 0.020088486 -0.24344544
000170 6c fe fc bd e4 31 6f 3c 18 22 73 bb bb c0 5c bc
       -0.123532146 0.014599297 -0.003709918 -0.013473685
000180 97 d5 d7 bd ab 2c 99 3d 69 55 0c 3d 71 38 b6 3c
       -0.10538786 0.07479223 0.03426114 0.02224371
000190 ab 4e 94 bd bb 13 43 be 85 1f fe 3b 56 bc aa 3c
       -0.07241567 -0.19050495 0.0077552223 0.020841759
0001a0 23 87 a3 bd 8c a4 73 3d 11 47 41 be fc bc 9b be
       -0.0798476 0.059483096 -0.18874766 -0.3041762
0001b0 73 3e a2 bb cc b0 93 bc ce 55 be bd 45 99 e2 3d
       -0.004951292 -0.01802864 -0.0929371 0.1106439
0001c0 ce a3 b1 3d f6 77 d6 bd 2b 3d e6 bd 45 bb f9 3c
       0.086738214 -0.104720995 -0.112421356 0.030484805
0001d0 bb 5f d9 bd 95 5e 8d 3d f4 e5 14 be 6a 26 1d 3d
       -0.10613962 0.06902806 -0.14540845 0.038366713
0001e0 38 87 62 3d 01 28 76 3e 3d de b1 3d 8f 42 bf bd
       0.055304736 0.24038698 0.08684967 -0.09338867
0001f0 1f d6 67 bd 56 3d eb bd 5f f6 04 bd 7e 30 9c bd
       -0.056600686 -0.11486308 -0.03246152 -0.07626437
000200 3f eb c5 3b 43 50 95 bd 78 33 9d be 03 09 2b bd
       0.0060400064 -0.07290699 -0.3070333 -0.04175664
000210 74 c5 21 bd bd 79 10 be a8 9e 1a 3e 1e 97 32 be
       -0.039494947 -0.1410894 0.15099585 -0.17440459
000220 7c 12 4c 3d 3f de 6e bb f8 b2 94 3d 9b a2 7f be
       0.049822316 -0.0036448387 0.07260698 -0.24964373
000230 da dd 4b be a2 7b d0 bd 7d a1 a3 bc 9a ce 13 3d
       -0.19908848 -0.10179831 -0.019974465 0.036085702
000240 28 9e 20 be b7 7c 47 be b5 fd 8c 3c 2b 9c 2a 3c
       -0.15685332 -0.19481169 0.01721082 0.01041321
000250 bf 4b 7a be 70 a7 a1 3d 42 b5 0b bc 33 0c 63 bb
       -0.24442957 0.07893264 -0.008527102 -0.0034644722
000260 a7 04 ac bd f2 e8 7c bd b9 97 2f bc 7b af c4 bc
       -0.08399325 -0.06174559 -0.010717326 -0.024009457
000270 bf 1d 81 bd ee f0 b6 bc 3f ee d5 bc 8d 87 59 be
       -0.06304502 -0.022331681 -0.026114581 -0.21243115
000280 88 ed 04 bd bd ec fc bc 59 fc 63 be 9d b7 c7 3d
       -0.03245309 -0.030874604 -0.22264232 0.09751818
000290 ad c9 80 bc 3c c6 9b 3d 4d d4 c9 bc 29 d8 3d bd
       -0.015721167 0.076061696 -0.024637366 -0.046348725
0002a0 be 2a 54 3d 9e ea 0a be dc 0f 28 3d 20 69 7a bc
       0.051798575 -0.13566062 0.04103075 -0.015283853
0002b0 21 79 40 bd 77 8f 5b 3d ed c5 6c be 56 f2 95 3e
       -0.046990518 0.053603616 -0.23122378 0.2928645
0002c0 b4 e9 b8 bc 3e e4 9f bc 3a 8f ae bd bd 9b 4e 3d
       -0.022572376 -0.019518014 -0.08523412 0.050441492
0002d0 d5 c4 88 3d 14 5a 9e 3d 9f ca 6f bd a8 fd 7c 3d
       0.06678168 0.07732025 -0.058542844 0.061765343
0002e0 14 6e ab bd 71 d2 a7 3c a8 51 2a bc aa 3d ab bc
       -0.08370605 0.020486088 -0.010395445 -0.020903427
0002f0 b7 50 3d 3c 7f 7b 90 3d 3d 73 49 3d 54 c7 e2 3b
       0.011554888 0.07054805 0.049182165 0.0069207344
000300 8f 7c 00 bd 5c 1c 2e 3d a1 64 70 3d a4 c7 9d 3d
       -0.03136879 0.042507514 0.058689717 0.07704094
000310 23 46 9d be 8f f7 db bd 2c d9 ca be cc 6d ba 3d
       -0.30717573 -0.107405774 -0.39618814 0.09102973
000320 1e 4f 3c 3d 44 e1 e4 bd 09 e4 a5 bd 0e 4c e4 bd
       0.04597389 -0.111757785 -0.08100135 -0.11147319
000330 b3 5c ca bc 88 3a 9b 3d 90 2d d1 bd 51 88 8e bc
       -0.024702406 0.07579523 -0.102137685 -0.017398985
000340 0c 0a 69 3c 47 53 d4 bd 8b 73 71 be 0e cd 3a 3d
       0.014223587 -0.103674464 -0.23579232 0.04560571
000350 88 30 e2 bd 16 11 89 3d f9 9c 46 3d d0 61 f6 3c
       -0.11044413 0.06692712 0.048489545 0.030075938
000360 1e d5 81 bb ed 00 ad 3d 35 48 be 3d c1 6d 6d be
       -0.003962173 0.08447442 0.09291116 -0.23186399
000370 0a 35 e1 bd d9 8d 4a 3b c4 28 f7 3c d6 9a 43 3e
       -0.109964445 0.0030907302 0.030170806 0.19102034
000380 75 05 af bc ca f8 9e 3d 41 13 bb 3d 9d 38 ab 3d
       -0.021364907 0.077622965 0.09134532 0.083604075
000390 3b 8e e2 bc 0f c0 e8 bd 86 24 e4 bd ec 95 85 bb
       -0.027655711 -0.11364757 -0.11139779 -0.00407671
0003a0 9b 43 7a 3d 2e ad b8 3d 49 79 48 bd 1d b7 32 be
       0.06109963 0.090174064 -0.04894379 -0.17452665
0003b0 d3 80 31 3d 13 3e b0 3b a8 42 d6 bd d1 a2 90 3c
       0.043335747 0.0053784936 -0.104619324 0.017655762
0003c0 23 0c 1b 3d d8 53 bf bd d3 2a 2f bd d9 71 b7 3d
       0.03785337 -0.09342164 -0.04276545 0.089572616
0003d0 4f 65 52 3e 6a 6a a1 bd 8f 2e 5d be 86 83 56 3d
       0.20546459 -0.07881625 -0.21599792 0.052371524
0003e0 bf 14 84 bc 3b 1b 1f 3e b0 ef 77 3d 3e e9 c1 ba
       -0.016123174 0.15537731 0.06053132 -0.0014794243
0003f0 fc 35 6c 3d bb e2 46 bd 97 12 3a 3d d0 e8 f0 bd
       0.05766867 -0.04855607 0.045427885 -0.117631555

encoder.output2.bias f4 [4]
000000 cd 70 dc be 07 6e 4e be f0 d2 af be 8a 36 e9 be
       -0.4305481 -0.2015916 -0.3434062 -0.45549423

decoder.network.0.weight f4 [128, 4]
000000 26 02 33 bf 62 e2 90 3e 4d 2f 83 3e 46 07 da 3e
       -0.69925153 0.28297716 0.25622025 0.42583674
000010 a7 02 cc 3d 80 8c 02 bf 32 0b 25 3e 4e e2 48 bf
       0.099614434 -0.50995636 0.16117552 -0.78470314
000020 1a 0b 81 3e 44 0e 23 bf 45 4e 13 3f 13 34 f3 3d
       0.25203782 -0.6369364 0.57541305 0.11875167
000030 ae bb 14 bf d6 4e 77 be 46 ae 1e 3f b7 17 af bd
       -0.58098876 -0.24151167 0.6198467 -0.08549445
000040 8f 24 e5 be 1d 10 f5 3e 8c a3 62 bf 2b 65 f3 be
       -0.44754454 0.47863856 -0.885308 -0.47538123
000050 5f 13 3f bf 7a ee f7 bd b3 42 8b 3e 8a 86 ea 3d
       -0.7463893 -0.12106033 0.27199325 0.114514425
000060 39 99 18 bf c4 59 e6 3d 7c ec b9 be 8b fa 9a 3e
       -0.596088 0.1124759 -0.36313236 0.30269274
000070 f3 c5 ce be 72 ce d6 3e 39 90 a3 3e f0 9f 7c be
       -0.40385398 0.4195438 0.3194597 -0.24670386
000080 89 0f 41 bf bd a9 ad be d5 f3 f6 be 0d 80 2d bf
       -0.7541433 -0.33918563 -0.48232904 -0.67773515
000090 97 c4 01 3e ba e3 f5 be 4c be 39 bf 66 47 1a be
       0.1267265 -0.48025304 -0.72555995 -0.15066299
0000a0 2e 0d 46 3e 9c 59 8f be 11 44 da be 90 9f 88 bf
       0.19340965 -0.27998054 -0.42630056 -1.0673695
0000b0 d6 96 ce 3d 48 68 2c 3e d7 e6 e3 3e f7 40 80 bf
       0.100873634 0.16836655 0.44512054 -1.0019826
0000c0 b9 fb 35 3f 93 3f a7 3e 9e 7c 83 be 5f 84 0b be
       0.71087223 0.3266569 -0.25681013 -0.13624714
0000d0 74 9c 20 3f 12 e1 0e bf 44 f0 e7 be 41 f9 43 be
       0.6273873 -0.5581218 -0.45300496 -0.19138052
0000e0 53 51 0b bf ff df 7f be 72 9c f2 3e c0 88 e9 3e
       -0.54420966 -0.24987791 0.47384983 0.45612144
0000f0 ed 71 2d 3f dc 2b 70 3f bc 70 44 3f b0 54 1b 3f
       0.6775196 0.93816924 0.7673452 0.606761
000100 de 38 77 bf f5 35 81 3e e0 38 c0 3b 81 24 6e be
       -0.9657115 0.25236478 0.005866155 -0.23256113
000110 9e 37 a0 be a4 d6 74 3e 05 57 3d bf e0 94 f0 3e
       -0.31292433 0.23910004 -0.73960906 0.46988583
000120 90 8f fa bd 4c bf 37 be 97 a7 4e 3f aa d2 e6 be
       -0.122344136 -0.17944068 0.8072447 -0.450826
000130 28 f8 32 bc 75 46 19 bf 2a 90 87 bd 44 e6 95 3e
       -0.010923423 -0.59873134 -0.06619294 0.2927724
000140 7d 22 0e 3e f1 e9 40 be 80 43 8d 3f 90 d5 65 bf
       0.13880344 -0.18839242 1.1036224 -0.89778996
000150 8b 85 b2 3c 68 da d8 3e 8c f5 61 bf 8c de 8b 3e
       0.021792194 0.4235413 -0.882653 0.27318227
000160 9c 05 35 3f 71 ad a3 be 97 cd d0 3b 28 86 56 bf
       0.70711684 -0.31968263 0.0063721645 -0.83798456
000170 cd 17 d8 3e 85 29 13 bf fd 88 cb be b0 ad 1c bf
       0.4220566 -0.5748523 -0.3975295 -0.61202526
000180 1d d9 25 bf 30 5f 4d bf a0 f2 0b 3f d4 17 26 3f
       -0.64784414 -0.8022337 0.5466709 0.6488011
000190 33 cb 14 bf 8f fa 28 bf ee a4 b1 3e 4b 49 a1 3e
       -0.5812256 -0.6600732 0.34696144 0.3150123
0001a0 a8 95 28 3e 24 f7 0e be ac c7 f8 3e fc 3d 0e 3f
       0.1646334 -0.13961464 0.48589838 0.5556333
0001b0 19 58 64 3e 83 b4 2f 3f de df 0f be 97 2a f2 3e
       0.22299232 0.68634814 -0.14050242 0.47298118
0001c0 02 28 f0 be e9 5c 07 bf 3b 3e e9 bd cd 06 3f bf
       -0.46905524 -0.52876145 -0.11388823 -0.7461975
0001d0 20 bc d5 bd 3d d8 39 be 47 74 27 bf c5 fe ed 3e
       -0.104362726 -0.18148895 -0.654118 0.46483436
0001e0 5d c3 a4 bd e7 92 37 bd 77 15 e9 bd 99 34 ea bb
       -0.08045075 -0.04481783 -0.11381047 -0.0071473834
0001f0 2f a5 14 bf f1 5b 77 3e e5 25 65 bd 86 d0 ae 3e
       -0.5806455 0.24156167 -0.055944342 0.34143466
000200 1f 87 01 bf b4 fe 2f be 94 44 0d 3f 9c e8 f0 be
       -0.50596803 -0.17187005 0.55182767 -0.47052467
000210 77 2e f3 bc 5c d9 01 bf 8a 72 92 be bc e3 67 3f
       -0.029685242 -0.5072229 -0.2860301 0.9058187
000220 a3 e3 c2 3e ff 89 93 3e e3 55 eb 3d a9 90 40 3e
       0.38064298 0.2881622 0.11490991 0.18805183
000230 7c 9c 7e 3f 2b 55 0e 3e 38 35 bc 3e fc a6 f1 3e
       0.99457526 0.13899677 0.36759353 0.4719771
000240 19 fd 5d be cf 99 6b 3f c8 dc da 3e 81 2b d2 be
       -0.2167858 0.9203157 0.42746568 -0.41048816
000250 ed 02 6d 3f 9e d1 21 3f 24 b5 22 be f3 a5 28 be
       0.9258259 0.63210475 -0.15889412 -0.16469555
000260 6f 69 8d 3e 4b 01 4e 3f bb b1 f6 be 7e 74 2a bf
       0.27619502 0.8047072 -0.48182473 -0.66584
000270 49 70 6e 3e f7 c3 b5 3e e0 ae 6d bd 1d 16 92 bf
       0.23285021 0.35501072 -0.058028102 -1.1412998
000280 c4 e1 9f be da f7 6c 3f 32 d2 75 3f 0c af 2e 3f
       -0.31226933 0.9256569 0.9602386 0.6823585
000290 0a 80 a1 be 0b 32 98 be 2f d1 0c 3f a0 55 1f bf
       -0.31543 -0.2972568 0.5500669 -0.6224003
0002a0 de 0b 9d 3d 65 22 fb 3e 34 f8 35 bf 32 e1 72 bf
       0.07668279 0.49049678 -0.7108185 -0.9487487
0002b0 2c d4 dd 3e 89 bd 50 bc e5 7f 0f 3f 11 eb 12 bf
       0.43325937 -0.012740501 0.56054527 -0.5738993
0002c0 ef e5 5b 3f d4 e3 a1 3e d9 d1 3d bf 56 35 07 bf
       0.85897726 0.31619132 -0.7414833 -0.5281576
0002d0 b6 de 23 bf e3 f6 38 3d 49 e1 71 3c 31 a3 86 3e
       -0.64011705 0.045157325 0.014763185 0.2629638
0002e0 0e a4 87 3e 20 e1 1f bf 3a 4f d3 be 54 58 34 3f
       0.2649235 -0.6245289 -0.41271383 0.7044728
0002f0 2a 5b 75 3e 21 da 5d bd a2 a8 32 bf 7e 1f a2 be
       0.23960558 -0.054163102 -0.69788563 -0.31664652
000300 89 60 d9 bd 01 07 8d 3d 44 5c 62 3e 24 f7 4e 3f
       -0.10614116 0.068861015 0.22105509 0.80845857
000310 82 d7 b1 3e b7 3a 97 3d 96 ea 48 be cd 61 94 bf
       0.34734732 0.07384246 -0.19620737 -1.1592346
000320 ce 00 9a bd 2c de 80 bc 37 ed 2b bf 89 b9 41 3f
       -0.07519685 -0.01573094 -0.67158836 0.7567373
000330 ba 85 cd 3e 0e 85 1e 3e 79 ca 32 bf bd 94 b7 bd
       0.40141088 0.15480444 -0.698402 -0.089639165
000340 3b da da be 2b 88 6a 3e ba 2b c1 bd 7d 51 8d be
       -0.42744622 0.22903506 -0.09432168 -0.27601233
000350 90 f0 1f bf 74 89 b3 3e c7 ed cd 3d b3 bf 94 be
       -0.62476444 0.35065806 0.10055118 -0.29052505
000360 91 b4 76 be 02 31 a9 3e df 58 1b 3f 65 b0 44 bf
       -0.24092318 0.33045202 0.6068248 -0.76831657
000370 3e b5 e4 be ca b2 a7 3d 2c 95 31 be 9b c3 32 3e
       -0.44669527 0.08188398 -0.17342061 0.1745743
000380 80 0c af be c4 f7 8e 3d 5f 19 fa be 17 a8 9b be
       -0.34189224 0.06980851 -0.48847482 -0.3040168
000390 70 48 a6 bc 73 e5 0e 3e 99 99 c4 3e 5d b9 3b bf
       -0.020298213 0.13954715 0.38398436 -0.73329717
0003a0 62 46 e3 be 40 90 00 bf 48 26 f8 be 37 58 b1 bc
       -0.44389635 -0.5022011 -0.48466706 -0.02164851
0003b0 e7 de 12 be 99 16 a8 be fc e7 45 3e dd fb ef 3e
       -0.14342843 -0.3282974 0.19326776 0.46871844
0003c0 3a dd 22 3f 1e 50 1d be 37 0d 98 3e ec 4e ca be
       0.63618815 -0.15362594 0.29697582 -0.39513338
0003d0 6c c2 4f 3f ba 24 7f 3e 18 de c1 be 57 60 04 3f
       0.8115604 0.24916354 -0.37864757 0.517095
0003e0 d1 9d 0b bd ae ac 23 bd 60 13 28 bf 50 3b 21 3f
       -0.034086052 -0.039959602 -0.65654564 0.6298113
0003f0 36 86 45 3f 4b a0 00 bf 33 da 18 3f 91 c5 ec be
       0.77157915 -0.5024459 0.59707946 -0.4624448

decoder.network.0.bias f4 [128]
000000 e5 80 1a be c7 ff 29 bf 22 0b 44 bf c5 4b fe bc
       -0.15088232 -0.6640591 -0.7657949 -0.03104199
000010 59 6b 22 bd 75 11 bc be 5d ee 74 3e 07 0d e8 3e
       -0.039653156 -0.3673207 0.23919053 0.4532244
000020 ec 6f 16 bf 5f 76 28 3e 10 06 25 be 22 a3 11 3f
       -0.5876453 0.16451405 -0.16115594 0.56889546
000030 1c 1c 30 3f fd e8 f2 3e 6b 9b 40 3f fb 7c 67 be
       0.6879289 0.4744338 0.7523715 -0.2260627
000040 1c f8 3a bf 38 d6 cb 3d 88 81 3f 3f 37 9e d1 3e
       -0.73034835 0.09952968 0.74807024 0.4094102
000050 3c 5e a2 3c 7a 73 0f bf 87 7f 93 be 18 61 1d 3f
       0.019820325 -0.5603558 -0.28808233 0.6147628
000060 ff 8e ea be a8 12 0e bf 09 33 1b 3f d9 e6 01 3f
       -0.45812222 -0.5549722 0.6062475 0.5074287
000070 26 b8 0d bf 18 70 2b 3f 31 de 10 3f f6 f1 f3 3e
       -0.55359113 0.66967916 0.5658904 0.4764554
000080 f5 1b 15 3f 71 de da be bc 98 6b 3f 19 4b 9c bd
       0.58245784 -0.42747834 0.9202993 -0.07631511
000090 29 fe 3f be d1 be d6 3e 8c e8 d2 3e ad 70 8a be
       -0.18749298 0.41942456 0.41193044 -0.2703909
0000a0 a5 1d ae be 9a 83 8a 3e 00 bb 34 bf 0e cb d5 be
       -0.34006992 0.2705353 -0.7059784 -0.4175648
0000b0 2e 9a 98 be 19 7e 1d bf 89 63 9e bd cd c9 2e bc
       -0.2980513 -0.61520535 -0.077338286 -0.01066823
0000c0 78 a4 da be e5 cc f0 3e 16 a2 fa 3d f0 08 2b 3f
       -0.42703605 0.47031322 0.12237947 0.6681051
0000d0 5c e1 b5 3e 65 f0 84 3e 07 4e ab 3e 2b ae a0 3e
       0.35523498 0.25964656 0.33457968 0.3138288
0000e0 7d fc d7 3e 6e cf 23 3f aa 77 0f 3f e2 f9 f3 3e
       0.4218482 0.6398839 0.5604197 0.47651583
0000f0 57 cd c1 be 43 c5 fa be 6b 76 4f be df 28 0b 3f
       -0.37851974 -0.48978624 -0.20260017 0.5435924
000100 0d 31 9c be eb 3a bb be fb 7e 9d 3e 58 eb 1d be
       -0.30506173 -0.36568388 0.3076094 -0.15421808
000110 4c 5a c3 be 2c ce 16 bd 2d f0 d3 be 13 2e 35 3f
       -0.3815483 -0.036817715 -0.41394177 0.7077343
000120 bb fc 1c bf 79 c5 eb be 42 8e 0b bf 99 50 c6 3e
       -0.61323136 -0.46049097 -0.54513943 0.38733366
000130 1e 63 3e 3d eb 38 cc be 15 e9 8f be 9e de f5 bb
       0.046481244 -0.39887175 -0.28107515 -0.0075033447
000140 4d 26 ab 3e 11 ac 61 3d 64 88 61 bf fc 57 db be
       0.3342766 0.055095736 -0.8809874 -0.42840564
000150 a5 d7 b8 3e 28 ff ae bc 99 a6 30 bf 15 a8 20 bf
       0.36102024 -0.021361902 -0.6900421 -0.6275647
000160 8f 87 52 3f 23 0e 4c be 84 6f 63 3f eb a8 68 be
       0.82238096 -0.19927268 0.88842034 -0.22720687
000170 df f4 91 be f8 5b 7e 3e 0c fc 18 3f d5 54 0e 3f
       -0.28507134 0.24839771 0.59759593 0.55598193
000180 78 b9 2e 3f 7b 04 fc 3d 0f d1 24 3f 3a 57 58 3f
       0.6825175 0.12305542 0.643815 0.845081
000190 2e 07 38 3f a5 77 96 3e e8 e3 19 3f ed 9a 14 3e
       0.71885955 0.29388157 0.6011338 0.14512224
0001a0 bc 86 05 be 11 58 36 3f aa a6 12 3f bd d6 6a 3e
       -0.13039678 0.7122813 0.5728556 0.22933479
0001b0 a0 89 96 be 8a 23 00 3f 16 8f bc 3e 88 43 0d 3f
       -0.29401875 0.5005423 0.36827916 0.5518117
0001c0 0c 31 44 3f 83 85 16 bf 57 19 22 3f 2a aa e2 3e
       0.7663734 -0.5879747 0.63319916 0.4427045
0001d0 ee ed 35 3e e4 9b 34 3f 1a f4 85 bf 1c f3 95 bb
       0.17766544 0.7055037 -1.0465119 -0.0045761
0001e0 b3 cb 8f 3e 40 b1 88 be c7 5f cb be 10 a9 b0 3d
       0.28085098 -0.2669773 -0.3972151 0.08625996
0001f0 a4 83 74 3e b1 5c 08 bd 98 65 2d 3e f5 07 32 bd
       0.23878342 -0.033291522 0.16933286 -0.04346462
