models/mnist_vae_dims_128/vae_5d.pth (torch, 951450 bytes, 14 tensors)

encoder.network.1.weight f4 [128, 784]
000000 f7 73 ae 3b 41 31 b9 bb ee ed 7d 3b fa 79 c3 bc
       0.0053238827 -0.0056516235 0.0038746553 -0.023861874
000010 fc 50 92 3c 1e 28 88 3c 05 60 1c bc 53 49 e2 3c
       0.017860882 0.016620692 -0.009544377 0.027622854
000020 bc 2a 7a 3c 06 50 0d 3d 2e 83 1c 3c 30 2b 96 bc
       0.015268978 0.034500144 0.00955276 -0.01833114
000030 97 77 1d 3c 81 28 6a 3b 03 6c 85 bc 01 20 ec bc
       0.009611032 0.0035729709 -0.016286856 -0.028823854
000040 4a 27 5e 3b 25 22 ac bb 93 5d 43 3c 4e eb 1a 3c
       0.003389793 -0.005253094 0.011924165 0.009455515
000050 0e 97 10 bd 0a 18 94 bb 4a cd 59 3c fc ee 12 bc
       -0.035300307 -0.0045194672 0.013293574 -0.008968111
000060 7c 24 cd 3c 05 ea 00 3c ea 84 df 3c 93 15 81 bb
       0.025041811 0.007868295 0.027285058 -0.0039393394
000070 25 ee a1 bc 1c 97 39 bc ae 6e c8 3b 17 d2 ad 3c
       -0.019766876 -0.011327531 0.0061167097 0.021218343
000080 8a fc ec 3b aa b5 72 bc 25 bd 5d 3a 9a 3b 0b 3d
       0.0072322534 -0.01481382 0.00084586657 0.033992387
000090 0a 13 2a 3c 18 31 0c bd 7a 3f b9 bc 0d 69 bc bb
       0.010380516 -0.034226507 -0.022613276 -0.0057498277
0000a0 fc 19 9a 3c c4 b9 d3 3c 17 3a 28 3c 0e e0 02 bc
       0.018811218 0.025845416 0.010267756 -0.007987989
0000b0 22 7d 05 bd 38 8d 68 3c 8e 4b 0c 3c 08 65 f2 3c
       -0.03259004 0.014193825 0.0085629355 0.029589191
0000c0 05 d4 e0 bc b3 94 26 3c 01 04 31 ba 83 cc df bc
       -0.027444849 0.010167289 -0.0006752611 -0.027319198
0000d0 fd 8c 08 bd b7 f5 0f 3a b8 0d 78 bc 7c b5 6e 3c
       -0.033337582 0.00054916315 -0.01513999 0.014569636
0000e0 a3 65 8a 3c 57 c2 b8 bc f7 4e be 3c d3 f4 0c bc
       0.016894167 -0.022553606 0.023231013 -0.0086032925
0000f0 f0 17 0e bd 41 c1 db bb ba 98 c4 3c 86 1e 55 bb
       -0.034690797 -0.0067063873 0.023998607 -0.0032519414
000100 54 b8 b5 3b 13 57 da bc fc 23 c2 3b e5 88 d2 3c
       0.0055456553 -0.026652848 0.0059247 0.025700042
000110 6d c9 f9 3a 33 ba da bc 8b 4a c1 bc e0 fa ef 3c
       0.0019057222 -0.026700115 -0.023595115 0.029294431
000120 b1 f7 af 3c a0 72 9c bc fb ae 0d 3c 8f db a1 bb
       0.021480413 -0.019097626 0.008647676 -0.0049395035
000130 7b 47 33 bc 9d db 1e 3c 6e a7 5c 3c e5 7f 97 bb
       -0.010942335 0.009695915 0.013467653 -0.0046234005
000140 b8 c8 fe bb 17 d2 0d 3d 5e 7d bd bc 85 08 64 bc
       -0.0077753924 0.034624185 -0.023131069 -0.013918047
000150 25 f9 8b b8 ca e3 0b 3d 4a 15 54 bc 8c 86 fe bc
       -6.674443e-05 0.034152783 -0.012944529 -0.031070016
000160 6e 15 b3 ba f5 23 a6 3c 47 0d 7c bc 44 56 d8 3c
       -0.0013663003 0.020280818 -0.015384025 0.026408322
000170 b6 64 b4 3c 16 c9 7f 3c 34 27 05 bd 9d e1 1b bd
       0.022020679 0.0156119075 -0.03250809 -0.03805696
000180 0e 3e b1 3c 89 36 f0 3c b2 80 e4 bc b5 8b a0 bc
       0.021636035 0.02932288 -0.027893398 -0.019597868
000190 fe 0c 86 3c 2f 96 9c 3c 8e bc 12 bd f8 9a aa 3b
       0.016363617 0.019114582 -0.03582435 0.005206462
0001a0 fc 56 8e 3b 45 07 c5 3c 53 d5 0a bc d1 c5 a4 3c
       0.0043438654 0.024051318 -0.008473712 0.020113857
0001b0 77 8c 97 bc 37 76 47 bc 65 af 42 3c d6 b5 01 3d
       -0.018499596 -0.012174181 0.011882638 0.031667553
0001c0 03 45 8b 3c ca a3 37 3c 67 2b 9e 3c ae ee e4 bb
       0.01700068 0.011208484 0.019307805 -0.0069864606
0001d0 6f f8 b5 3c d3 f3 dd bc 4c 03 57 3c c8 f1 a4 bc
       0.022213189 -0.027093804 0.013123345 -0.020134822
0001e0 f2 12 31 3c 3d 20 32 bd 17 6e b9 3c 23 78 ae bc
       0.01080774 -0.043487776 0.022635503 -0.02129752
0001f0 6a 23 37 bc b9 e5 8d bc 06 51 06 bd d3 01 7a bc
       -0.011177877 -0.017321454 -0.032792114 -0.015259224
000200 f3 ec 1b bb bd 3a 17 bc ce 60 0c 3c a4 9d e0 3b
       -0.0023792356 -0.009230313 0.008568002 0.0068547297
000210 66 32 39 bc 8e ba 31 bc ff 9a 2c bd 6b 0d 1d bd
       -0.01130352 -0.010847701 -0.042140003 -0.038342874
000220 4f 09 0b 3d b1 3a c9 3c 0a e6 17 3c 8b 90 08 bd
       0.033944424 0.024564119 0.009271154 -0.033340972
000230 5c 8f dc 3b 16 a4 10 3d 4e 49 14 bd 43 89 aa bc
       0.006730957 0.035312735 -0.03620272 -0.020817405
000240 e1 4b 10 bd 13 41 33 bc 64 2d a6 bc 92 54 a2 bc
       -0.035228614 -0.010940808 -0.020285316 -0.019815717
000250 fe de a1 b9 48 c6 51 3a 7c 52 ba 3c cb cb 23 bd
       -0.00030874455 0.00080022635 0.02274441 -0.039989274
000260 9e 05 e0 3a cb 56 f4 bc 0d c8 6a 3b d5 6f 32 bc
       0.0017091518 -0.029826542 0.0035824806 -0.010890921
000270 98 04 96 bc bd b3 e0 bb a8 19 24 bd 6d 1f d2 3b
       -0.018312737 -0.006857364 -0.04006353 0.0064124377
000280 e7 69 4d 3c 4b 00 68 3c 68 30 fd bc 9b b8 84 3c
       0.012537456 0.014160226 -0.030906871 0.016201308
000290 06 b1 de bc e1 b6 bc 3c e5 74 c2 bc 2e b5 ad 3c
       -0.02718402 0.023036422 -0.02373738 0.021204557
0002a0 e3 38 a9 3c 66 a0 07 3d f7 28 3d 3c 6b 2a ec 3b
       0.020657009 0.033111952 0.011545411 0.007207205
0002b0 5a 8c ee 3c 54 72 77 3a 04 73 cf bb 58 83 0c bd
       0.02911966 0.00094393385 -0.0063308496 -0.034304947
0002c0 62 d0 26 3b b9 ab d5 3b 03 ca 37 b9 6f bd 45 bc
       0.0025453796 0.006520715 -0.00017527495 -0.01206909
0002d0 7a b7 ac 3c 18 f4 95 3c ff 2e 0e bc c3 ee b0 3c
       0.021083582 0.01830487 -0.008678197 0.021598225
0002e0 01 6b c9 3b 41 f6 d3 bc 0a ed 77 bc 2a 57 7c bc
       0.006146789 -0.025874259 -0.015132198 -0.015401641
0002f0 5a 3a 15 3c f0 fa 02 3c 28 d9 ea bc 88 fe a2 bc
       0.00910815 0.0079943985 -0.028668001 -0.01989676
000300 1c e9 2b bc 90 25 9a 3c 20 08 07 bd c1 31 59 3c
       -0.010492589 0.01881674 -0.032966733 0.013256491
000310 f8 63 ef bb 9a 27 b4 bc 4e bd 93 bc 24 77 c2 bb
       -0.0073056184 -0.02199154 -0.018034603 -0.005934613
000320 60 06 1e 3c 7d 95 2a bc 53 c0 32 bb 2d 5c 5c 3c
       0.009645075 -0.010411617 -0.0027275279 0.013449711
000330 30 94 41 3c f3 ec 6d bc a6 23 67 3c 64 e5 11 bd
       0.011815116 -0.014521825 0.01410762 -0.035619155
000340 ed ec 33 bd 53 37 48 bb 17 d0 52 bc 5b 7c 92 bb
       -0.043927122 -0.0030550554 -0.012866995 -0.0044703907
000350 08 18 e1 bb 40 fa eb 3b 33 4d 85 bb a6 78 c4 bc
       -0.00686932 0.007201463 -0.0040680408 -0.02398331
000360 94 a5 9c bc 6c 4a 72 3c 02 75 f5 bc 3c a7 b2 3c
       -0.019121923 0.014788251 -0.02996302 0.02180826
000370 cd ea 68 bb 36 9c 66 ba 2c ad 0d bd e1 c6 53 3c
       -0.0035540343 -0.0008797081 -0.034588978 0.012925834
000380 4f bc 0b 3d 81 b5 76 3c 5c 1d e2 3c 1c 59 cb bc
       0.034115132 0.015057922 0.02760189 -0.024822764
000390 04 8c 30 bc 18 7e 84 bc 0b 43 f7 bc 6a d0 a8 3b
       -0.01077557 -0.016173407 -0.030183336 0.005151798
0003a0 33 2e a9 bc b2 5c 0d bd 9d c5 02 3b db 3c 98 bb
       -0.020651912 -0.03451223 0.0019954212 -0.0046459264
0003b0 e4 c3 b2 3c 43 4b e1 bc 95 69 36 3b 89 a6 4a bb
       0.021821924 -0.027501708 0.0027833928 -0.0030922017
0003c0 26 5d 2e bc 63 59 44 bd a2 09 32 bd b8 72 74 3b
       -0.0106423255 -0.04793681 -0.043466218 0.0037299823
0003d0 a3 d0 db 3b 20 08 fe bc f1 30 9e bc 91 b2 a2 bc
       0.006708221 -0.031009734 -0.019310446 -0.019860538
0003e0 16 ab 02 bd 6a d1 fd 3c b3 af 6f 3c 83 9f d7 bc
       -0.03190144 0.030983645 0.014629292 -0.026321178
0003f0 c1 b7 ad 3b 45 70 bf bc 23 b8 ea 3c 57 f1 f2 3c
       0.005301446 -0.023368964 0.028652256 0.029656095

encoder.network.1.bias f4 [128]
000000 eb fb 10 bd ed ad f8 bc df bf 10 3e 10 ac 3a 3e
       -0.035396498 -0.030356372 0.14135693 0.18229699
000010 43 c6 d9 bd 82 de 21 bd f1 68 33 bd d7 e6 e1 3e
       -0.106335185 -0.03951884 -0.04380125 0.4412143
000020 05 81 a8 bc 25 a8 e3 3d f8 f4 6d 3f e1 6c b6 3b
       -0.020569334 0.111160554 0.9295192 0.0055671786
000030 40 c1 82 3e ed 81 7d be dc 45 89 3e 0a ad 47 3d
       0.25538063 -0.24756594 0.2681111 0.048749007
000040 67 db b6 3e 08 63 3e bc ee a1 3d be b3 d6 96 3d
       0.35714266 -0.011620291 -0.18518803 0.073651694
000050 5f 5b 97 3e a8 6e 0b bd be dd 12 3d 50 41 70 bc
       0.29561898 -0.034041077 0.035856 -0.014664009
000060 b6 d3 c4 3e 88 5c be 3e 61 de 9c 3e 99 7d 2e 3c
       0.38442773 0.3717997 0.30638412 0.010650062
000070 21 7a fc bd 33 a3 65 3c 86 d3 ba 3c b7 80 62 3d
       -0.12327982 0.0140159605 0.02280594 0.055298533
000080 3c d9 f0 bb 53 67 55 3d 79 3a 84 3d d1 1c ca 3e
       -0.007350115 0.05210049 0.06456465 0.3947511
000090 ff 7c ed bc d1 3e f2 be 50 80 c8 3e a9 aa 20 bd
       -0.028990267 -0.4731355 0.39160395 -0.039225254
0000a0 5d cb ef 3e 08 40 0d 3e b0 b2 a4 bc 1e ed 29 3e
       0.4683484 0.13793957 -0.020104736 0.1659436
0000b0 5c d0 b1 3e 70 3c de bc a2 d4 ce bd 46 7e dc bd
       0.34729278 -0.027128428 -0.1009915 -0.10766272
0000c0 da 97 0f be f4 17 b4 bc 20 d7 37 bd ec 8b 90 bd
       -0.1402277 -0.021984078 -0.044882894 -0.07057938
0000d0 b6 03 36 3c 3b 90 73 bb 4a 4c a7 3e 0b 84 98 3c
       0.011109283 -0.0037164825 0.3267539 0.01861765
0000e0 24 91 b8 3c c7 28 0e bd bf a7 72 3e 3e b4 21 3e
       0.022530146 -0.034706857 0.23696803 0.15791413
0000f0 32 72 9e 3e 07 c8 c0 3c 69 5e 2f 3e bd 5e a1 bc
       0.309465 0.02353288 0.17125858 -0.019698495
000100 a6 f8 eb 3e 19 ce 4b be 28 5f d7 3e d5 1f 94 3e
       0.4608814 -0.19902839 0.42064786 0.28930536
000110 60 26 b1 be a5 76 cc 3d 2d 20 db 3e bb f9 d0 3d
       -0.3459959 0.09983567 0.42797986 0.10203882
000120 98 af d8 3e 80 60 a5 bc 4b bc ee bc fc a0 36 3c
       0.42321467 -0.020187616 -0.02914252 0.01114678
000130 b4 9a a0 3c af a7 8b bc 6e d0 6b 3c 74 48 45 3c
       0.019605018 -0.017047731 0.014392955 0.0120412
000140 1c 01 4e 3e 29 ff ed 3e df 5b db ba 1f 70 be 3e
       0.2011761 0.46483734 -0.0016735754 0.37194917
000150 95 3b cd bc 9a 2c 3a bc 50 ed 05 3e 52 a3 57 bb
       -0.025052825 -0.011363173 0.13078809 -0.0032903743
000160 94 03 88 3c 68 16 07 bd d9 99 f9 3d 52 58 51 3e
       0.016603269 -0.032980353 0.12187547 0.20443848
000170 6d fc 15 3f 41 43 6c be 62 be 9e bd c4 d4 1c bd
       0.58588296 -0.2307253 -0.077511564 -0.038288847
000180 15 9c 06 3e f5 78 21 bd 6b b3 66 3e 69 c6 8f 3d
       0.13145478 -0.039421994 0.2252938 0.070202656
000190 94 35 96 bc 5c 1c 32 bd fe 13 11 be 62 37 20 3d
       -0.018336095 -0.043484077 -0.14167783 0.039115317
0001a0 ef 5d af bc 5a 29 94 3e 1f 5b ba 3c 7d 19 28 3f
       -0.021407096 0.289378 0.022748528 0.6566389
0001b0 b1 a4 9f 3e 6a 70 1a be eb 3d 2d 3e 41 ee 0a 3f
       0.31180337 -0.15081945 0.16918151 0.54269797
0001c0 4b 7b e1 3d 71 62 14 bd a3 8d d4 bb 5d 5a 64 3e
       0.110098444 -0.036226694 -0.006486611 0.22300096
0001d0 c6 8a c5 3b d7 63 91 3c 39 98 eb 3c 5f 43 be bc
       0.006028506 0.017747803 0.028759109 -0.023225484
0001e0 37 61 c2 3c da 3f ad 3c c2 5a f4 3c 79 d4 f9 38
       0.023727996 0.02114861 0.029828433 0.00011912821
0001f0 5e 3b b5 bc 75 57 2b 3d 25 25 d4 3d b3 cf 47 3e
       -0.022123035 0.041831452 0.10358647 0.19512825

encoder.network.3.weight f4 [128, 128]
000000 21 33 c9 3d cd 78 56 3d 84 62 05 3e 01 bc 15 3e
       0.09824205 0.0523613 0.13025862 0.14622499
000010 97 b2 da bd be e8 86 3d 3f 26 8e bd 35 27 82 bc
       -0.106785946 0.06587361 -0.069408886 -0.015887836
000020 08 80 2a 3d 38 8b 9d 3c af 1a b1 3d 40 c8 06 3b
       0.041626006 0.019231424 0.086476676 0.0020566136
000030 84 7e 94 3d fa 55 76 3d f8 d6 fa 3c 27 f0 3e bc
       0.072506934 0.060140587 0.030620083 -0.0116539365
000040 ef 66 53 bd fb 0e 1b 3d ea 2b 1b 3e 78 53 01 be
       -0.051611837 0.037856083 0.1515347 -0.12629497
000050 20 22 e3 bd c1 3f 47 bd 57 54 bf 3b 6c 13 3d bd
       -0.11090493 -0.048644785 0.0058389115 -0.0461611
000060 31 26 cc 3d e9 2b 07 be 34 3c 85 3d a7 d4 f2 3c
       0.09968222 -0.13200344 0.065056235 0.029642416
000070 de 03 47 bd 6f 86 31 3e 9a 70 57 3e 1e 3b aa 3d
       -0.048587672 0.17336439 0.21039048 0.08312057
000080 7e 77 92 3d e7 9c b5 3d 41 0f 8c 3e 91 15 e3 bd
       0.071516976 0.08867817 0.27355388 -0.11088098
000090 ce 80 8b bc 2b b4 84 3d be a0 fe 3c 5b c4 39 3d
       -0.017029192 0.06479677 0.031082507 0.045353275
0000a0 e6 f6 6d 3d d8 a1 1b 3e 30 44 ec 3c 15 8e 6b 3d
       0.05809679 0.15198457 0.028841108 0.057508547
0000b0 38 6d b9 bd 8e 2c 78 3c d0 36 c1 3d 70 6a 27 bd
       -0.09054035 0.015147341 0.09434283 -0.04087299
0000c0 c3 cb a6 3b 1d 20 9d 3c fc 9b 52 bc a3 ec 88 bb
       0.0050902083 0.019180352 -0.012854572 -0.0041786
0000d0 9f d9 be bc aa f5 f2 bc cc 45 fc 3d 91 2b b9 bc
       -0.02329713 -0.029658157 0.12318 -0.022603782
0000e0 9c ff 25 bd e1 18 6d bd 98 16 02 3d 40 d8 25 3e
       -0.04052697 -0.057885054 0.03175983 0.16195774
0000f0 94 6f 8e 3d ec 50 75 bd 61 db f6 3c d2 19 be 3d
       0.069548756 -0.059891626 0.030133905 0.092822686
000100 b3 a4 92 bb a9 45 41 3e 53 8c a9 3d 03 4e 6c 3d
       -0.0044752 0.1887423 0.08278718 0.057691585
000110 7e d4 9b 3d 8a e0 bf bd 48 d8 b2 3c bf 6e 63 3c
       0.07608889 -0.09368999 0.021831647 0.013881384
000120 72 8e e9 bc 3b 93 62 bd ff b4 d7 3c b0 c8 93 3d
       -0.028510306 -0.05531619 0.026331423 0.072160125
000130 08 c5 1f 3d e6 38 60 3c 82 42 8e bc 08 29 3d 3d
       0.039006263 0.013685441 -0.017365698 0.04618171
000140 7e 4f c8 3d 92 bf a8 3d 6c 04 84 3b 3d 4c 02 be
       0.09780787 0.08239664 0.0040288474 -0.12724395
000150 97 2c 9f 3d 0e 9d 62 bd 02 f2 8c bb 8e f5 98 bd
       0.07772177 -0.05532556 -0.0043013105 -0.07468711
000160 02 e8 07 3b 7a d0 3c 3d b3 ee 93 3e e8 69 87 3d
       0.0020737653 0.046097256 0.2889305 0.06611997
000170 5d 19 5f bc 51 5c 22 3e a3 41 f0 3b 09 4f 8f 3d
       -0.013616887 0.15855528 0.0073320433 0.06997497
000180 92 63 87 bd 66 be 5a bd 5b cc 0c 3e 6c 03 0d 3e
       -0.066107884 -0.053404234 0.1374983 0.13770837
000190 d8 d2 82 bd 1e e3 07 bd 7b 3a 88 3c d4 97 14 be
       -0.063878715 -0.03317558 0.016629448 -0.14511043
0001a0 cd 06 6a 3d 82 7e 0b be ba cd 11 bd 40 93 b7 3d
       0.057135392 -0.13622478 -0.035596587 0.089636326
0001b0 91 b3 09 3e a7 2d 82 3d b3 b0 ab 3d 35 dd e2 3d
       0.13447405 0.06356364 0.08383312 0.11077348
0001c0 b1 32 2d 3e e8 20 91 bd c6 f1 63 3b 7b 6f c3 bd
       0.16913868 -0.070863545 0.003478156 -0.095427476
0001d0 06 44 b8 3d 8e 56 a8 3d 08 b1 20 3e 67 ef 8a bd
       0.089973494 0.08219634 0.15692532 -0.067839436
0001e0 19 26 ad 3c ad 0b 9d bd 96 70 5e 3d e8 6c 6e 3d
       0.02113633 -0.076682426 0.05430659 0.05820933
0001f0 3b e0 ac bd 63 fd 73 3c 4e ae 21 3d 63 94 01 3e
       -0.08441206 0.014891955 0.03947287 0.12654261
000200 28 41 2a bd 1e b8 ca 3c bf 37 15 3e 3d 6c 0b 3e
       -0.041566044 0.024745997 0.14572047 0.13615508
000210 22 fa b4 3d 22 4d 43 bb 28 45 8b bd 9b 54 c4 bc
       0.088367715 -0.0029800613 -0.068003 -0.023966124
000220 8a bf b3 bd a3 41 b2 bd f7 0f 51 3e d0 42 af 3d
       -0.087767676 -0.087039255 0.20416246 0.08557665
000230 a3 9f ea 3d e2 3b 35 bc e1 ed 83 3d 3e 88 93 bd
       0.114562295 -0.01106164 0.06441856 -0.072037205
000240 89 b7 41 3d 3a 4d 6f 3d 29 54 13 3a 0d 78 8e bc
       0.047294173 0.05842326 0.0005620146 -0.017391229
000250 c6 4c 8e 3c 35 76 d2 3d b3 80 23 3c a1 6e 84 bd
       0.017370593 0.102764525 0.009979415 -0.06466413
000260 e0 00 bf 3c ae 56 cb bd af 4b 93 3d 68 bc ab bd
       0.023315847 -0.09928642 0.0719217 -0.08385545
000270 a9 e4 24 be c2 4f 8a 3d a0 38 90 3d d1 b5 59 bd
       -0.16102852 0.06753494 0.0704205 -0.05315191
000280 e6 6d 99 bd 3e 00 b7 3d 87 28 61 be bf 81 91 bd
       -0.074916646 0.08935593 -0.21988116 -0.07104825
000290 12 46 4b 3d dc 4c 3d bd 9f a6 43 3e eb 04 5f bc
       0.04962737 -0.046215877 0.1910653 -0.013612012
0002a0 1d 94 02 be 39 f8 32 be 53 7d 4c 3b c6 3a 45 3e
       -0.12751813 -0.17477502 0.0031202629 0.19260702
0002b0 78 a6 6f 3d 53 7b 74 bd 59 20 2b 3e 81 c4 25 3e
       0.058508366 -0.059687924 0.16711558 0.16188242
0002c0 25 4a c9 ba 6d 37 e6 3c 8f 8b 26 3d 83 65 a8 3c
       -0.001535718 0.028102601 0.040660437 0.020556217
0002d0 16 d2 8b bd 36 e6 4f 3d d9 1b ce bc d1 9b 8b bd
       -0.0682718 0.050756656 -0.025159763 -0.06816829
0002e0 db 90 dc bc 71 27 fc 3c 9c 00 8b 3d 2c b4 be bd
       -0.026924541 0.030780526 0.067872256 -0.09311709
0002f0 70 2b f0 3d bc b8 1e bd 4a 91 c1 3d 07 c6 ed bb
       0.11727035 -0.038750395 0.0945154 -0.0072562727
000300 b0 07 0d 3e a9 a0 d7 bd 1b bd 42 3d 7e e3 aa 3c
       0.13772464 -0.1052869 0.047543626 0.02086043
000310 c0 37 c8 bd 9c 14 ba 3d 56 02 6a 3e ca ac 2c 3b
       -0.097762585 0.09085962 0.22852454 0.0026348107
000320 1f 02 1d 3c 07 db 9b 3d bf 32 85 3d 92 7b c4 bd
       0.009583025 0.076101355 0.0650382 -0.09593882
000330 40 d0 60 bd d4 47 83 3d 30 f4 d5 3d 1e 2d 8a 3d
       -0.054886103 0.064101845 0.10446966 0.06746887
000340 f7 a3 0d 3e 9b 3c 3e 3e 23 a7 a3 3d f1 17 8b 3d
       0.13832079 0.18577807 0.07990863 0.06791676
000350 7a 14 53 3d ea 9a bf bc 1e 32 d0 bd 4a 50 87 3d
       0.0515332 -0.023389298 -0.10165809 0.06607111
000360 a2 d0 b6 bc fe 3a b6 bd ca cc c9 bd 40 d8 0b 3d
       -0.02231628 -0.088979706 -0.098535135 0.03414178
000370 88 80 3c 3e f7 ec 47 bc 72 e7 87 3d 94 89 d7 b9
       0.18408406 -0.012202493 0.066359416 -0.000411105
000380 fb d8 64 3e 33 52 f5 bd 39 4f a2 bb 55 d3 6e 3d
       0.22348396 -0.11978569 -0.0049532917 0.05830701
000390 ca 35 90 3d f0 9d 13 bd cb d4 de bb 90 b8 fe 3c
       0.070415094 -0.036039293 -0.0068002692 0.031093866
0003a0 e4 7a a4 b8 64 c7 50 bd 75 b3 6a bb 9d c7 2c 3e
       -7.8430196e-05 -0.050971404 -0.003581253 0.16873021
0003b0 5e f3 57 3d 13 98 f9 3d 3a d7 16 bc 24 93 c2 3d
       0.052722327 0.12187209 -0.009206587 0.09500721
0003c0 ba 5f c7 bd b2 ea 92 bc 29 5a 91 bd f1 a0 f0 3c
       -0.09735055 -0.017934177 -0.07097275 0.029373618
0003d0 04 da ea bc 93 7a a4 3d f7 91 2c bd 06 31 3a 3d
       -0.028668411 0.08031192 -0.04213139 0.04545691
0003e0 9e 26 8b bd 9d 55 3d bd ad f2 33 3e 7c 0a 74 bd
       -0.06794475 -0.046224225 0.17573042 -0.05958031
0003f0 d6 ed b3 bc fe 35 31 3e 97 4b b6 3d b5 3f 56 3e
       -0.021963995 0.17305753 0.08901136 0.2092274

encoder.network.3.bias f4 [128]
000000 02 af 45 3e 09 b2 9d 3e 80 bb 96 bc f7 f2 1b 3c
       0.19305041 0.30799893 -0.018399954 0.009518377
000010 19 b2 1d 3d a2 74 c1 bc 51 db 4c 3d ed 76 29 bd
       0.038499925 -0.023615185 0.050013844 -0.041373182
000020 09 92 ba 3e d8 49 b1 3e 90 e0 ba 3e af 8a 68 3e
       0.3643954 0.3462665 0.36499453 0.22709154
000030 5f bb 28 3e 97 95 c4 3e a1 3f 6e 3d 0f 07 c0 bd
       0.16477726 0.38395378 0.05816615 -0.09376346
000040 43 98 c5 bd 4e 7e cc bb ac 3e b5 3d 39 01 a4 3e
       -0.09648182 -0.0062406426 0.08849844 0.32032183
000050 d3 03 45 3e 8f 91 1a 3d 8b f0 6c 3d f8 42 3b bd
       0.1923974 0.03773647 0.057846587 -0.045718163
000060 bb 59 7d 3d 57 ff d1 3d a0 ad 82 bd 1e 94 62 bc
       0.06185315 0.1025378 -0.063807726 -0.013829259
000070 b1 67 09 3e f3 bc df 3e 67 71 6a bd f2 5a 02 bd
       0.13418461 0.43698844 -0.057237055 -0.031825013
000080 0f 3c 66 3d 13 96 67 3d b7 00 a1 bc 95 2c 93 3e
       0.05620962 0.056539606 -0.019653661 0.2874495
000090 41 c4 2e bd c1 ad 09 3c 83 14 e2 bd 46 c3 2f bc
       -0.04266763 0.008403243 -0.110390685 -0.010727709
0000a0 fa 03 ec bd 8c 17 3c bd cc db 71 3e 2b d4 10 bc
       -0.11524196 -0.045920894 0.23619002 -0.008839647
0000b0 1f 4b b6 bd 43 3a 26 3e 39 a2 12 3d b3 21 aa bb
       -0.08901047 0.16233163 0.03579924 -0.0051920055
0000c0 0a e5 05 bd 2d a1 95 bd be 56 ef 3d 8b 6c 7c 3e
       -0.03268913 -0.073061325 0.11686467 0.24650781
0000d0 8f 30 92 3e 35 97 83 3e 91 07 16 3e 5a e5 f2 3c
       0.28552672 0.257013 0.14651324 0.029650379
0000e0 b1 6e 1a 3d 47 53 eb bd 34 7a ad bd 25 5e 74 be
       0.03770322 -0.11490493 -0.08470574 -0.23864038
0000f0 e7 57 0f 3c bf e4 0d 3c b2 09 72 3e c9 1c ab 3b
       0.008748985 0.008660494 0.23636511 0.0052219373
000100 7c 45 d9 bd 56 7f 16 bd c7 51 92 3d d9 1d e6 bd
       -0.10608956 -0.03674253 0.07144504 -0.11236162
000110 16 ec f7 3c ce af 29 3e d3 20 72 bd 56 2f 82 3b
       0.030263942 0.1657097 -0.059113335 0.003972928
000120 4e eb 66 3d 80 78 4c bd 2b 66 3f bd ce 34 e3 3e
       0.056376748 -0.049919605 -0.046728294 0.44376224
000130 d7 64 2a be 29 5c a6 3d e8 94 fd bb 28 ef da bd
       -0.1664003 0.08123047 -0.0077386983 -0.10690147
000140 6c 75 18 bd cf 79 6b bb 97 a1 37 3c a4 23 71 bc
       -0.037221357 -0.0035930758 0.01120796 -0.01471797
000150 fc e3 c2 3d a6 ef 18 be 3a 81 12 be cb a3 15 3e
       0.09516141 -0.14935169 -0.14307109 0.14613263
000160 3f 21 a3 3d 23 e4 a4 bd 45 e9 5b 3e 20 07 23 3e
       0.079653256 -0.08051326 0.21475704 0.15920687
000170 7f bf ee bc 54 73 18 bd c6 b9 d9 3c ba 56 78 bd
       -0.029144047 -0.03721936 0.026577841 -0.060629584
000180 25 94 58 3e 63 f5 c5 bd f0 eb 45 3d 4d d8 53 be
       0.21150263 -0.096659444 0.04832071 -0.20687981
000190 bc 67 e5 3e 64 f3 95 be f7 81 6d 3e fe dc 3e be
       0.44805706 -0.29287255 0.23194109 -0.1863899
0001a0 c2 78 9b 3c 8c 77 40 bd 19 73 f0 3c dc d0 ae bd
       0.01897848 -0.04698901 0.029351758 -0.085359305
0001b0 1d 13 e0 bb c5 39 17 bd f4 1e 25 3d f8 e1 b1 3e
       -0.006838216 -0.036920328 0.040312722 0.34742713
0001c0 78 7c 52 3e f6 5c 03 be 34 30 a8 3d 95 1d 1c 3e
       0.20555294 -0.1282843 0.08212319 0.1524566
0001d0 24 c6 b3 3e 56 dd 57 3d 5c bb 09 3e 9b ec d5 3c
       0.35112107 0.052701317 0.13450378 0.026113799
0001e0 45 e6 fc 3c b5 2a ca 3b 10 de c0 3e ef b7 6f 3d
       0.03087152 0.006169642 0.3766942 0.058525022
0001f0 20 8f be 3d a9 08 17 3e 8f 71 6e be 7e bf 29 bd
       0.09304643 0.14749397 -0.23285507 -0.041442387

encoder.output1.weight f4 [5, 128]
000000 6c f2 c0 bd 40 f1 cd 3c 37 25 15 bd 5b 12 9f bd
       -0.09421238 0.025139451 -0.036412444 -0.07767173
000010 3e 28 0e 3d fb c5 52 3c d7 61 ce bd a9 30 12 3d
       0.034706347 0.012864585 -0.10077255 0.035690937
000020 57 75 6a 3e 82 b9 8c 3d 5c 32 58 3d e2 c3 37 3e
       0.22896324 0.0687132 0.0527824 0.17945817
000030 8d ec 2a bd f0 7d 1c 3d bb 15 25 3d af ab 82 3c
       -0.0417295 0.03820604 0.040303927 0.015951006
000040 77 b0 5b 3c 93 d6 61 3c 0b bb 70 3d bb a5 16 bd
       0.013408772 0.013784069 0.058772128 -0.036779147
000050 3d 02 94 bd eb 5a 4c bd 6c 99 88 bd e8 86 e5 3c
       -0.072269894 -0.049891394 -0.06669888 0.02801843
000060 ef c5 82 bd d1 ef 96 3d 54 fd aa 3c b1 84 4e 3d
       -0.06385409 0.0736996 0.02087275 0.050419513
000070 ac f1 e0 bc b4 2d 55 3e cc b7 9c 3d b8 52 a5 bd
       -0.027458988 0.20818216 0.07652244 -0.08072418
000080 e6 42 05 3e b3 75 21 bd b4 75 ac bd 99 9a 76 bd
       0.13013801 -0.039418887 -0.084208876 -0.06020603
000090 53 18 69 bc 3a e6 1c 3d 08 62 f8 bc 55 e3 e5 3b
       -0.014226991 0.0383055 -0.030320182 0.0070156255
0000a0 10 e5 c3 bc 5f f4 3e bd 30 d9 cd 3d ae 6f 2f 3d
       -0.023912936 -0.04661977 0.10051191 0.042831115
0000b0 93 d4 6f 3b 81 d1 2e 3e ca 20 34 bd 7b 0f 2c bc
       0.003659521 0.17072107 -0.043976583 -0.010501738
0000c0 59 7e 9b bc 04 91 f6 bc f6 dd 68 3d e2 e5 6e 3c
       -0.018981146 -0.030098446 0.056852303 0.0145811755
0000d0 fd 99 11 be b2 26 0f 3d 1e 2d 9e bd e2 a4 ae 3d
       -0.14218898 0.034949012 -0.07723449 0.08527543
0000e0 7d c1 a6 bc ef 7a 71 bd 21 56 87 bd 77 e5 a7 3d
       -0.020355934 -0.05895513 -0.06608225 0.08198064
0000f0 00 0b 89 bd 40 30 5e 3d bd e8 94 bd ed 06 4d bc
       -0.06691551 0.054245234 -0.07270954 -0.012513858
000100 ce 36 25 3d 94 22 f6 3c 1f e3 1d bc 01 ee fa bc
       0.04033547 0.030045785 -0.009636669 -0.030631067
000110 04 aa 7f ba 52 22 9a bd 80 f2 a4 bc 20 44 8a 3d
       -0.00097528123 -0.07526077 -0.020135164 0.06751275
000120 f1 65 af bd 00 03 cb 3d c3 d3 66 3d 46 2f 8c 3d
       -0.08564366 0.099126816 0.056354295 0.06844954
000130 f4 3f 74 3d 92 a2 3f bc 56 f1 28 3d 30 20 1c bd
       0.059631303 -0.011696475 0.04124578 -0.038116634
000140 a4 b2 5d bd f7 9d 11 39 e4 ad 6d 3d 05 3e 37 3e
       -0.054125443 0.00013887124 0.058027163 0.17894752
000150 a5 be 83 3b 93 ff d3 bc 1b 19 ea 3d cd 74 06 bd
       0.0040205293 -0.025878703 0.1143057 -0.032826234
000160 56 59 f7 3a 0b f3 9d 3c b8 29 f0 bd 72 4f b1 3c
       0.0018871229 0.019280931 -0.11726707 0.021644328
000170 42 c1 6a 3d 78 fb a0 3a 6a 81 84 3c a4 63 cd bd
       0.05731321 0.0012281975 0.01617499 -0.100287706
000180 e3 c5 24 bd d0 6d e1 bc 53 72 37 bb a6 ad 3d bd
       -0.040227782 -0.027518183 -0.0027991727 -0.046308182
000190 4d 7f c3 3d 22 3b 8d 3d c2 ed 49 3e a2 34 9b 3d
       0.09545765 0.06896044 0.19719604 0.07578398
0001a0 7e 28 78 bd 41 5e 12 3d 69 ca e1 3b a8 af c4 bd
       -0.06058549 0.03573442 0.0068905842 -0.09603816
0001b0 8d 9d e0 bd 11 bd a5 3d 5d b9 d7 bc f1 b6 59 be
       -0.109675504 0.08092702 -0.026333505 -0.21261193
0001c0 64 d5 0c 3e 2f b7 1c 3d d6 a2 9a bd f2 41 c5 bd
       0.13753277 0.038260635 -0.0755059 -0.09631719
0001d0 90 1c c4 bc 03 68 f0 3c eb c8 07 3d 68 5e 12 bc
       -0.0239394 0.029346472 0.033150595 -0.008933641
0001e0 63 fb 0c 3c 9b e9 65 3c 02 63 28 3c 47 b3 75 3d
       0.008604857 0.014032747 0.010277512 0.059985425
0001f0 79 67 dd 3d e5 1d 68 bd 58 e2 4d bd 46 2d 39 3c
       0.108107515 -0.056669135 -0.050264686 0.011302298
000200 06 80 a5 3c 27 87 4b be fd 0b 51 3b bc df cb 3d
       0.020202648 -0.19875775 0.0031898015 0.09954783
000210 de ea ff bc a8 7c 4f 3d fe 44 57 3c 27 c7 8e 3c
       -0.031239923 0.05065599 0.013139008 0.017428948
000220 b1 d3 39 3e 91 0f cc 3d 13 df 15 3d de 40 46 3d
       0.1814716 0.099639066 0.036589693 0.048401706
000230 19 ce aa 3e a9 85 17 3d aa 12 a3 3c 96 99 b7 bb
       0.33360365 0.036992703 0.01990636 -0.0056030257
000240 c2 9c 42 bd b9 28 01 bb 78 19 2c 3e c6 ba 67 bd
       -0.047512777 -0.001970811 0.1680659 -0.056574605
000250 63 e1 33 bd fa ef 88 ba 06 0b 40 3d b5 cf 35 bd
       -0.043916117 -0.0010447495 0.046885513 -0.044387538
000260 90 53 82 bd 4c 60 74 bb 10 08 d7 3c 34 db 2b 3d
       -0.063635945 -0.0037288843 0.026248962 0.041957095
000270 7c 24 87 bb 7a d3 0d bd 1b 9a 25 3d 10 32 46 3d
       -0.0041242223 -0.034625508 0.04043017 0.048387587
000280 ca dd 08 bd 49 0a ad 3c b8 b5 8f 3d 72 1c 07 3e
       -0.03341464 0.021123068 0.07017082 0.13194445
000290 88 a7 da bc c5 a8 80 3d c1 63 3f 3c 00 9e 95 3c
       -0.026691213 0.0628219 0.011681498 0.018263817
0002a0 5d 32 22 3c 8a 46 3f bd 72 13 29 bd 3e 5f ec 3b
       0.009899703 -0.04669813 -0.04127831 0.007213502
0002b0 a9 cd 12 3d b9 9d c7 3b ac 4c 1b be 64 c7 97 3d
       0.035840664 0.0060918 -0.15165967 0.074110776
0002c0 87 cd 5e bd 65 6f 08 3d 60 c0 59 3e 22 ae be 3d
       -0.054395225 0.03330936 0.21264791 0.09310557
0002d0 31 db 5a 3d ba ec 07 be 13 8d 72 3d 78 84 1e be
       0.053431693 -0.13273898 0.05921657 -0.1548022
0002e0 a8 12 5f 3c a6 65 68 3d 59 94 b5 bd 91 87 c3 3c
       0.013615288 0.056737565 -0.08866186 0.023868354
0002f0 22 e7 3e 3d 06 64 c0 3c ec e2 72 bd 35 ec ce bd
       0.046607144 0.023485195 -0.05929844 -0.10103647
000300 fb 38 3b 3d 61 1b 5b bd b8 54 28 be a9 f0 51 3d
       0.045708638 -0.053492907 -0.16438568 0.051254902
000310 aa 56 16 bd 4b e6 ae bd bd ed ab 3c e3 9f 63 bc
       -0.036703743 -0.08540019 0.020987386 -0.0138931
000320 65 eb d3 3d 8a 4c 19 be 49 66 c5 3c 09 c4 96 3d
       0.10347632 -0.14970604 0.024096625 0.073616095
000330 35 5c 29 bd a7 6c 1d 3d c4 fb 0d 3c b6 2e 85 bb
       -0.0413477 0.038433697 0.008665983 -0.0040644063
000340 e0 04 90 bd fc b0 4a 3d 58 45 b0 bd c6 84 17 be
       -0.0703218 0.04948519 -0.08606976 -0.14796743
000350 df 30 d3 bd 8f 62 3d bd 5d 73 bb 3d 15 6a 46 bd
       -0.10312056 -0.04623657 0.09152863 -0.04844101
000360 34 24 8c bd 77 13 61 be 0b f8 90 bd 53 35 39 bd
       -0.06842843 -0.21980081 -0.070785604 -0.04521687
000370 7a 4a f6 bd 06 2e c9 bd 8a 16 b8 ba 51 0a d5 3d
       -0.12025924 -0.098232314 -0.0014044803 0.10402358
000380 7a 6c 78 bd 34 44 44 3d 35 a1 f6 bc d1 66 10 3e
       -0.060650326 0.047916606 -0.030106166 0.14101721
000390 6a 8e 3a bd 79 b9 80 3d f6 57 24 bc 1a be 3f be
       -0.045545973 0.06285376 -0.010030737 -0.18724862
0003a0 0d fa c5 bc 7c 26 c2 3d 6b c3 43 3d 50 4a af bc
       -0.024167085 0.094799966 0.047793787 -0.02139774
0003b0 78 17 1b bd dc 2b a5 3c f0 2e 7d 3d 23 e8 ba 3d
       -0.03786418 0.020162515 0.06181234 0.09126308
0003c0 84 21 5f 3d f9 99 4e bd 34 29 35 3d 3f 5f 75 3d
       0.054475322 -0.05043981 0.044228747 0.059905287
0003d0 1f f1 84 bd 41 ac 85 bd b5 9d 41 bd 31 36 04 3e
       -0.06491303 -0.065269955 -0.04726954 0.12911297
0003e0 c3 8f c4 bc 82 fa 84 bd fc 63 5c 3c c2 8b 8f bd
       -0.023994332 -0.06493093 0.0134515725 -0.070090786
0003f0 13 2a 29 bd a6 06 56 bd 69 5a c4 3d 58 f7 e1 bd
       -0.04129989 -0.052252434 0.09587557 -0.11033505

encoder.output1.bias f4 [5]
000000 b3 a4 a0 ba a3 5d 54 bc 73 69 0a bc e2 12 bd 3d
       -0.0012256115 -0.012961778 -0.008447993 0.09232117
000010 a1 61 71 3c
       0.014732749

encoder.output2.weight f4 [5, 128]
000000 f7 64 18 be 33 7e 15 be 46 5f ee 3d f3 a3 1f bd
       -0.14882265 -0.14598922 0.11639266 -0.038974714
000010 96 7f b6 bd 15 a8 d1 3a ff ca f5 3d f6 9a 6a bd
       -0.08911054 0.0015995527 0.12001609 -0.05727669
000020 20 0f 7d 3d 6b 7c a3 be 05 05 39 be a2 1d bb 3c
       0.061782002 -0.3193086 -0.18068321 0.022841278
000030 7a ea e7 bd be 63 cc bc 93 5f ac bc 03 5c 08 3e
       -0.1132402 -0.024949905 -0.021041667 0.1331635
000040 0e cc c7 bc 77 5b 5f 3d b3 66 fa 3c ab 8f 13 be
       -0.024389293 0.054530587 0.030566549 -0.14410274
000050 df 87 cc bd ec 13 cd ba 4c 68 1d 3d cd b2 16 3e
       -0.09986853 -0.0015646196 0.038429543 0.14716645
000060 9c 17 f6 bc f2 2e 21 3d 85 0b 10 3b cd 5e 08 be
       -0.030040555 0.03935141 0.0021979522 -0.13317414
000070 93 cc 05 be e8 07 29 3c e2 ee 77 bd de 6e ca 3d
       -0.1306632 0.010316826 -0.06053055 0.098844275
000080 cc 34 11 3e b6 ec 12 bd 35 f1 8d 3c f8 1b e6 bd
       0.14180297 -0.035870276 0.01732693 -0.11235803
000090 c0 b9 d9 3d db d1 46 3d 3e 9b e0 3d 13 d9 43 bd
       0.10631132 0.048539978 0.1096711 -0.04781444
0000a0 9e 32 31 bd 78 2f 46 bc 85 39 77 bd f0 bd 3c 3d
       -0.043261163 -0.012096278 -0.06035759 0.046079576
0000b0 ad 0a 83 bd da 93 4d 3e 03 5a df 3c 4b 4c bc bc
       -0.063985206 0.20075932 0.0272646 -0.022985598
0000c0 c6 a4 d8 bc 3b 94 28 3d b1 9d 89 bd c9 42 4f be
       -0.026445758 0.04115699 -0.067195304 -0.2024032
0000d0 32 d8 a1 be e8 73 88 be 72 13 ba bd 16 91 32 3d
       -0.31610256 -0.2665093 -0.0908574 0.043595396
0000e0 e6 ae 67 bd 60 39 0b 3d 1c 70 c3 3d 4c 73 4e 3e
       -0.05656328 0.033990264 0.095428675 0.2016117
0000f0 5d ca b8 3a e9 8b 44 3c ba 18 0e be 44 1b 12 bd
       0.0014098395 0.011996248 -0.1387662 -0.035670534
000100 e8 ca e5 bc 9f 10 99 3c 56 e1 2c be 05 bc 77 bc
       -0.028050855 0.018684683 -0.16882834 -0.015120511
000110 01 12 f4 bc a3 16 30 bb fe 1c 83 bd fa f6 fa bd
       -0.029793741 -0.0026868961 -0.06402014 -0.12254138
000120 86 6d c5 bb 0a 31 92 3d a8 40 0e bd 27 dc 99 be
       -0.006025019 0.0713826 -0.03472963 -0.30050775
000130 4a d6 a7 3c 37 b2 01 bd 39 14 63 bc 9c 05 0f 3d
       0.020487923 -0.0316641 -0.013859802 0.03491746
000140 e6 33 ac 3d 2f 3d 08 3e bd de 2e be 7c 24 4f 3e
       0.08408336 0.1330459 -0.17077155 0.20228761
000150 48 da 90 3c 53 dd f1 3d fb 2d 0f 3c ad bd c3 bd
       0.01768221 0.11809792 0.00873899 -0.09557662
000160 69 63 45 3d 9c 18 6f 3d 36 8b 6a be 21 8a 9f be
       0.048190508 0.05837308 -0.22904667 -0.31160071
000170 81 eb 6e bc c2 ac 9e bd 9d 33 5b 3d ae 08 4e 3b
       -0.014582516 -0.07747795 0.05351602 0.003143828
000180 47 ac dc bd 9e 44 12 bd c5 9d 5b 3d 2e f1 7d bd
       -0.10775047 -0.03570997 0.053617258 -0.061997585
000190 3d e5 f7 be c4 20 c3 3e 03 bd dd 3c ac fe a9 3e
       -0.48417082 0.38110936 0.027067667 0.33202112
0001a0 f9 42 4e 3d 49 7c 2e 3d 69 df 8c bd 0b c9 18 3d
       0.05035684 0.042598996 -0.068785496 0.037301105
0001b0 c7 2f 65 3e 55 7f 97 3d db 8f 77 bd aa f7 a4 3d
       0.22381507 0.073973335 -0.060439926 0.08055051
0001c0 58 be 13 be d3 56 12 bc c7 53 3c be 2a 93 2b 3c
       -0.14428079 -0.008931833 -0.18391334 0.010472098
0001d0 e8 f7 75 be e3 bf 9a bd 64 9a 2d be d2 f5 80 3c
       -0.2402035 -0.07556131 -0.16953427 0.015742216
0001e0 a9 df 06 bd 12 82 6a bd f3 d8 2b be cc d3 13 bd
       -0.032928143 -0.05725295 -0.16781978 -0.036090657
0001f0 35 e2 ff bd e5 a3 d3 3c 06 ae 23 bd c9 e9 d3 3c
       -0.124943174 0.025834987 -0.039960884 0.025868313
000200 18 a4 9e bd 26 2f 96 be bb 5c b0 3d 87 d7 8e 3d
       -0.07746142 -0.29332846 0.08611437 0.06974702
000210 65 e2 1d bd e5 58 79 bd 20 ac 90 3d cd 1e 6d bd
       -0.038545985 -0.060875792 0.0706408 -0.057890702
000220 01 7b d7 bc 3c 7e 52 be cb c0 8d be 9c 1a 70 bd
       -0.02630377 -0.20555967 -0.27686152 -0.058619127
000230 17 59 41 3b b2 7c 87 be 91 9f cb 3c 2e 5f 9a 3b
       0.0029502565 -0.26462322 0.02485636 0.0047110533
000240 98 c4 ee bc 01 12 dd 3d bd 80 b1 3c 16 18 23 bc
       -0.029146478 0.107944496 0.021667833 -0.009954473
000250 1b 9a a0 bb 37 64 af 3c da a5 05 be 6b a1 56 3c
       -0.0049011833 0.02141009 -0.13051549 0.0131000085
000260 3c da 00 bd 92 09 3a 3d 6b 08 1b bd 0e 3b ea 3c
       -0.031458125 0.045419283 -0.037849825 0.028592613
000270 b1 86 a4 bd 1f 69 b9 bd a7 fa 8e 3d 2f cd 53 bd
       -0.08033503 -0.090532534 0.06981402 -0.05170935
000280 32 36 44 3e ea 20 bf 3d b9 04 7c bd fb 52 2f bd
       0.19161299 0.0933245 -0.06152794 -0.042803746
000290 31 c0 2e bc 4c 0c 3d 3d 97 eb 12 3e 43 19 8c 3d
       -0.010665939 0.046154305 0.14347683 0.06840756
0002a0 07 e4 47 3d c4 19 1a 3c c5 97 9d bd 9a 7c be bc
       0.04880145 0.009405557 -0.07694963 -0.023252774
0002b0 3a ec 97 bc b8 4a b4 3d 9c a6 28 3d 47 61 94 bd
       -0.018545259 0.08803314 0.041174516 -0.07245117
0002c0 74 1c 46 3d 3b 62 9d 3d 5c c7 29 be a6 c4 1a be
       0.04836698 0.076847516 -0.16579956 -0.15114078
0002d0 64 5a ac be 0e 40 0f be 14 52 bc bd 29 2c 02 be
       -0.33662713 -0.13989279 -0.09195343 -0.12712158
0002e0 b9 c4 c5 bd c8 ee 94 bd 42 3b 6f 3d 20 76 62 3e
       -0.096566625 -0.072721064 0.058406122 0.22115374
0002f0 ef 61 8f 3d 53 bc b6 3c 2f 62 33 be c4 93 7d ba
       0.07001101 0.022306597 -0.17517923 -0.0009673203
000300 cb 40 cb 3d ef 56 a5 3d 88 b0 e5 bd 2a fe 37 3c
       0.09924468 0.08073222 -0.11215311 0.011230031
000310 fd 95 a3 3d 80 bb 37 3d ef 31 56 3d b4 38 a3 bd
       0.07987592 0.04485655 0.052293714 -0.079698
000320 02 b1 ef bd 89 12 a4 3c 60 08 e4 bc e8 4a 94 be
       -0.117036834 0.02002837 -0.027836025 -0.289634
000330 ff 1d b7 3c d6 37 a8 3c f8 e2 1e bc 63 58 3d 3c
       0.02235317 0.020534437 -0.009697668 0.011556718
000340 47 60 65 3d 01 9b cd 3b 8e 6f 6f 3b da 0c de 3b
       0.05600002 0.0062745814 0.0036534998 0.0067764344
000350 2c ce 91 bd c1 1a a3 3d 8e 23 07 3e 4c fa 1b bd
       -0.07119402 0.07964087 0.13197157 -0.0380805
000360 d3 fb 1f 3c b3 46 09 bb 12 85 6b be 83 8f 66 be
       0.009764629 -0.002094668 -0.22999981 -0.22515683
000370 46 21 a7 3d 38 24 29 3d 36 92 75 3d bc 36 0c 3d
       0.08160643 0.041294307 0.05995389 0.034231886
000380 56 8a 07 bd bb da 86 3c 81 a2 52 bd de bb 99 3d
       -0.03309091 0.01646172 -0.051424507 0.07506536
000390 44 1d 19 bf 30 df 9b 3e a7 fe ac bc 3c 25 3a 3e
       -0.5981028 0.30443716 -0.021117521 0.18178266
0003a0 25 37 90 bd b9 f5 3f bd ae 10 09 3d cd 87 98 3d
       -0.07041768 -0.0468652 0.033463173 0.07447777
0003b0 7d 0a 91 3c 3b b2 53 3d 72 c8 9f bc 40 bf 35 bd
       0.017705197 0.051683646 -0.01950476 -0.044371843
0003c0 8a eb 50 bd 8f 54 83 3d d3 50 96 bd fd 15 4a 3d
       -0.051005878 0.06412613 -0.07339635 0.049337376
0003d0 e9 31 14 be 07 3a 9c 3d 65 93 5d bd 34 41 7b bd
       -0.14472164 0.07628255 -0.054095645 -0.06134148
0003e0 c3 9b c2 bc 39 58 5c 3c f2 27 8d be 98 10 7d bd
       -0.023755914 0.013448768 -0.27569538 -0.061783403
0003f0 49 fb 2b be 5c 81 18 bd f9 f4 98 3d b0 1d 18 bc
       -0.16795076 -0.03723274 0.074686 -0.009284422

encoder.output2.bias f4 [5]
000000 91 06 13 bf 54 55 58 be b9 9c 9b be 96 06 92 be
       -0.57431895 -0.211263 -0.30393007 -0.2852065
000010 c3 c8 76 be
       -0.24100022

decoder.network.0.weight f4 [128, 5]
000000 95 ff 1b 3e 01 a9 19 bf 28 df 28 3f 7a 39 f3 be
       0.15234216 -0.60023504 0.6596551 -0.4750479
000010 d5 c6 a8 be ab 14 6a bf 99 40 ef 3e 69 74 d9 3c
       -0.32964197 -0.91437787 0.46728972 0.026544767
000020 91 5f d8 be 9e 37 89 3e c5 97 93 bf fa 70 6d bc
       -0.4226041 0.26800245 -1.1530691 -0.014492268
000030 93 04 22 bf 18 22 82 3c 8d 42 9c bc fa 1d ae be
       -0.6328823 0.015885398 -0.019074703 -0.34007245
000040 d5 97 0e bf 27 3d 70 be 5f 05 55 bf 5a e8 57 be
       -0.5570043 -0.23460828 -0.8321132 -0.21084729
000050 6f 32 c5 be d5 9b 81 be d7 13 c9 be 74 f9 0d 3f
       -0.3851504 -0.25314203 -0.3927295 0.5545876
000060 fa ea dc be 58 1e 19 3f a6 54 49 3f b4 ca f7 be
       -0.43148023 0.59811926 0.7864479 -0.48396838
000070 5d 88 1e bf ad eb c1 3e 27 6f 04 3c 90 75 49 3f
       -0.61926824 0.3787512 0.008083141 0.7869501
000080 73 ec 08 bf 7e ba 46 3e 51 a4 3f bd ee b3 41 3f
       -0.5348579 0.19407079 -0.046787564 0.75665176
000090 91 be 19 3e 22 c0 35 3f 16 2a 29 3f 22 28 3b bf
       0.15014102 0.70996296 0.66079843 -0.7310811
0000a0 c6 bc 57 3f df 82 9e bd 95 50 9e 3e dc a2 40 3f
       0.8427242 -0.077398054 0.30920854 0.75248504
0000b0 92 8a 6e 3d ee f2 5c 3f c9 be a8 3d b1 67 61 3e
       0.05823762 0.8630818 0.082395144 0.22012211
0000c0 d3 63 f0 3e 74 3f b3 be 5b a0 05 be 25 20 1d bf
       0.4695116 -0.35009348 -0.13049452 -0.61377174
0000d0 15 70 de be 51 4c 05 bf a8 1e 3b 3e a1 eb 1a 3f
       -0.43444887 -0.52069575 0.18273413 0.6051579
0000e0 57 87 24 3f 8d dc 99 be 6b 74 af be af 19 88 be
       0.6426901 -0.3005108 -0.34268507 -0.26582095
0000f0 0c cf 42 bf 10 37 d9 3e 0a 2e e4 be c7 07 fb 3c
       -0.7609718 0.42424822 -0.44566375 0.030643357
000100 55 42 c1 3e ed bd 85 bf 23 b3 8f 3e 52 1f cb 3c
       0.3774592 -1.0448586 0.28066358 0.024795208
000110 ed c8 0b bf 63 34 db 3d 34 39 95 3e ec 2e 65 3e
       -0.54603463 0.10703351 0.29145205 0.2238118
000120 23 a7 c3 3e 53 c3 46 3f d5 84 b8 3e 00 54 cd be
       0.38213453 0.7764179 0.36038843 -0.4010315
000130 3f 2d 74 be ed 1f b6 be ab c3 00 3f 97 39 1a 3f
       -0.23845385 -0.35571232 0.50298566 0.60244125
000140 03 e9 2d be e6 e8 d2 be 6f d1 80 3f b0 28 06 bf
       -0.16983418 -0.41193312 1.0063914 -0.52405834
000150 ab a1 63 3e 03 e7 a3 be 62 2a 9d be c8 12 a9 3e
       0.2222964 -0.32012185 -0.30696398 0.3302214
000160 a9 9d ca 3e f0 31 4c 3f 2c 2e f7 3e 47 3f c3 be
       0.3957341 0.797637 0.48277414 -0.38134214
000170 20 e5 ce 3e e0 b5 2c 3e 0d 70 51 3f 39 fc a8 bd
       0.40409184 0.16866255 0.818116 -0.08251233
000180 d7 9d 1d be 64 ac 44 bd 29 fd 19 3c 26 fa c6 3c
       -0.15392242 -0.048015967 0.009398737 0.024289202
000190 d6 6a 31 3f 08 01 dd be 43 1f 0b 3f 28 76 9e be
       0.69303644 -0.4316485 0.54344577 -0.3094952
0001a0 1a 6a 76 be 2b 1f 32 3f 19 0f 9b be 48 73 5d 3f
       -0.24063912 0.6957881 -0.30284956 0.8650403
0001b0 85 c9 ff 3e 21 5b 3b 3d 63 5e 4e bf 0e b6 ee be
       0.49958435 0.045741204 -0.8061277 -0.46623272
0001c0 d0 b6 9b 3e d9 7a 73 3d 58 f5 4c 3e ff 07 fb be
       0.30412912 0.05944333 0.20015466 -0.49029538
0001d0 4e 29 6a 3e a3 0f 26 bf 06 fb 81 bc 5f dd 67 be
       0.22867319 -0.6486761 -0.015866768 -0.2264304
0001e0 77 76 4a bf af 0f ce 3d f6 ed c7 3e c5 bb 01 bf
       -0.79087013 0.10061585 0.39048737 -0.5067714
0001f0 a7 f1 d6 bd a0 0a 01 be 9a b8 cf 3c da ce f8 3d
       -0.1049531 -0.1260171 0.02535658 0.12148829
000200 7e d5 9e bd 08 53 f6 3d cf c4 2a 3f e8 7d 64 3e
       -0.07755564 0.12027556 0.66706556 0.22313654
000210 df 73 1a 3e 96 cb eb 3e d4 75 26 bf f9 bf e2 3c
       0.15083264 0.4605376 -0.6502354 0.02767943
000220 26 9f dc bd c2 f8 ff 3b f4 b2 43 3f 34 07 3e bf
       -0.10772543 0.0078116367 0.76444936 -0.7422974
000230 ae a4 cf 3e 98 31 33 3e e6 90 2d be dd b6 00 3f
       0.40555328 0.17499387 -0.16949806 0.5027903
000240 17 56 e7 3e 87 6e ce be 39 96 e9 3e 51 40 3e 3f
       0.4518287 -0.403187 0.45622423 0.7431689
000250 e4 16 65 bf 9b 41 78 3f dd 52 22 bf 8f 37 b7 3d
       -0.89488053 0.96975106 -0.6340769 0.08946144
000260 11 85 81 3e f5 9b 93 3b 3c 5d 27 be f3 bd 3e be
       0.25296834 0.0045046755 -0.1634416 -0.18627147
000270 65 44 4e bf b2 0c f6 be db 86 0c 3f 2b 98 ef bc
       -0.8057311 -0.4805656 0.54893273 -0.029247364
000280 95 c0 3f 3f 8a c5 74 be da c3 d3 3e 24 2d 16 bf
       0.7490323 -0.2390348 0.4136036 -0.5866263
000290 3b 36 bc 3d e1 d1 0a bf df 7d 60 bf 13 10 25 3f
       0.09190031 -0.542265 -0.87692064 0.6447765
0002a0 4d e9 5a 3e ef ba 96 be 9a 7d 5a bf ca 9b 04 3f
       0.2137806 -0.29439494 -0.853479 0.51800215
0002b0 2f ef 3c bf 29 93 2d be 6d 2f 99 3e 7d d9 af be
       -0.73802465 -0.16950668 0.29918995 -0.34345618
0002c0 96 40 24 3f d2 a7 63 bf 4c 3d 2f 3e 72 dd b7 be
       0.6416105 -0.8892795 0.17113227 -0.35911137
0002d0 09 b1 6a bd a0 14 62 3e 83 e6 87 3e 6f b8 d5 be
       -0.05729774 0.2207818 0.26543054 -0.41742274
0002e0 8f 68 fb bd c9 46 a8 be 3f f0 10 3f a4 3b ef 3e
       -0.12275802 -0.32866505 0.56616586 0.4672519
0002f0 ce 48 97 bf 40 8b a7 bd 31 8d 44 bf 95 a0 c6 3e
       -1.1819093 -0.08180857 -0.7677794 0.3879439
000300 79 85 33 bf a1 54 c7 3e 49 b2 c5 3e a9 ba 37 bf
       -0.7012554 0.38931754 0.38612583 -0.71769196
000310 63 2b aa 3e 9f 72 9b be 60 a2 a6 3e 7c 3f b8 be
       0.33236226 -0.30360886 0.32545757 -0.35985935
000320 22 34 f8 be ed e6 f9 be 47 97 c0 3e 35 a2 0b 3f
       -0.48477274 -0.48808995 0.37615415 0.54544383
000330 1d 4a 69 be a2 b9 01 be 1f 91 16 3e b6 69 5f bf
       -0.22782178 -0.1266847 0.14703797 -0.8727068
000340 6a b7 ae be d5 e4 de 3e 83 e8 16 3f ef 46 2a 3f
       -0.3412431 0.4353396 0.58948535 0.66514486
000350 05 85 94 3e aa 67 b4 3c 21 ae 71 3f 8d d1 4a bf
       0.29007736 0.022022087 0.94406325 -0.79226
000360 40 8c ba be 5d 20 cc 3e f6 e9 db 3e 8a 1c 91 3e
       -0.36435127 0.3986844 0.42951936 0.28342086
000370 8a 31 15 bc 29 43 58 bf 7a 6b 19 3e d1 58 3a bf
       -0.009106049 -0.8447748 0.14982405 -0.72791773
000380 67 22 c1 be 4e 5b 77 bf 4c a7 7f 3e 33 0c f3 3e
       -0.3772156 -0.96623695 0.24966162 0.47470245
000390 9d 49 0c 3f 21 80 25 3d 61 67 a2 3e 5f 3a 1b bf
       0.54799825 0.040405396 0.31719497 -0.6063594
0003a0 7a 51 5d bd 6b 82 22 3f db 8b 4b be 60 ba aa 3e
       -0.05403278 0.6348025 -0.1987757 0.33345318
0003b0 fe 2f 85 3c 3f 4a 49 bf f7 33 18 bf cf 9c 9e 3e
       0.016258236 -0.78628916 -0.5945429 0.3097901
0003c0 15 0b 2a bf e3 cb ef 3e 4a ef 05 bf da b3 06 3e
       -0.6642316 0.4683524 -0.5231825 0.13154545
0003d0 6c 4d d5 be 33 43 76 bf 8c 28 ac 3e 10 00 83 be
       -0.4166063 -0.9619629 0.33624685 -0.25585985
0003e0 d6 92 a6 3e da d0 95 bd a0 07 0e bf 52 b8 0b 3d
       0.32533902 -0.07315226 -0.55480385 0.03411133
0003f0 24 0e 46 be 77 16 d6 bd 20 02 79 3e 99 68 fb be
       -0.19341332 -0.104535036 0.24317217 -0.4910324

decoder.network.0.bias f4 [128]
000000 12 bf e8 3e 8d f0 a2 bc b6 12 f0 be 96 77 7b bd
       0.45458275 -0.019890094 -0.46889275 -0.061393343
000010 46 16 a8 3e 71 32 9e be 7b 64 aa 3e d3 fc df bd
       0.32829493 -0.3089786 0.33279786 -0.10936894
000020 1b 5f 26 3e 55 6f 17 bf 82 07 89 bc 52 1b 00 3f
       0.16247217 -0.59154254 -0.016727213 0.5004169
000030 63 28 dd be 8b 7c 45 bd b2 fb b4 3e 9a 5c 44 3e
       -0.43194875 -0.048214477 0.35348278 0.1917595
000040 ca b7 c5 3e f6 71 ec be 55 d6 3d bf 42 d5 2b 3f
       0.38616782 -0.46180695 -0.7415517 0.6712228
000050 66 61 23 be e4 18 49 be 91 15 95 bc a9 05 8e 3e
       -0.15955123 -0.19638401 -0.01819876 0.27738693
000060 0f 35 32 3e a4 53 5d 3f c5 31 90 3e c4 fd 8c 3d
       0.17403053 0.8645575 0.2816297 0.068843395
000070 dc 7a 95 be e5 a6 01 bf 2d 88 21 3f 37 07 c8 be
       -0.29195297 -0.50645286 0.6309841 -0.39068004
000080 9a 4c 85 3e cb 8b 23 bf ed c1 92 be 80 1a bf 3c
       0.26035005 -0.6388518 -0.2866358 0.023328066
000090 f6 fd 07 3f b2 68 70 bd 71 ee 25 bf e8 30 19 3f
       0.5312189 -0.058693595 -0.6481696 0.5984025
0000a0 df 0e b6 bd 7c f5 ee be 26 34 96 bd 3e 0b 09 bf
       -0.08889555 -0.46671665 -0.07334165 -0.5353278
0000b0 99 24 ed bc ef 3a 25 bf 56 cd c9 3e d2 c0 96 3e
       -0.028948115 -0.6454305 0.3941447 0.29443985
0000c0 62 24 42 3e b9 1f 2e be 65 8a ec 3d c7 59 7f bc
       0.18959191 -0.17004289 0.11549834 -0.015585369
0000d0 14 e0 04 3f e2 d2 f1 3e b6 d4 ea 3e c8 75 05 3f
       0.51904416 0.47231203 0.4586541 0.52132845
0000e0 e7 8f 06 be 31 7c a7 3d 33 65 0f 3f 83 6c a3 3e
       -0.13140832 0.081779845 0.5601379 0.31918725
0000f0 5e d3 25 3f 5d 26 3a 3f 83 e5 b7 3e c5 a9 96 3e
       0.64775646 0.7271479 0.3591729 0.294264
000100 8e d1 2a 3e a0 e6 42 3f 81 93 d8 3c 68 1e 82 3c
       0.16681501 0.76133156 0.026437523 0.01588364
000110 f5 21 24 bf 65 31 a0 be 96 92 96 be 97 c5 c4 3e
       -0.64114314 -0.31287685 -0.2940871 0.38432
000120 09 93 77 3d 9e 44 34 bd 2b 15 85 bd fc 47 d5 3e
       0.060442958 -0.04401075 -0.06498178 0.41656482
000130 2d ae a3 be 80 fd 59 3e 15 90 2b bf 28 34 1e 3f
       -0.31968823 0.21288109 -0.67016727 0.61798334
000140 d3 a8 d4 3e 48 23 22 3f c0 1c 31 bf d5 9e 58 bd
       0.41535053 0.63335085 -0.69184494 -0.05288585
000150 a3 d3 01 3f 60 38 e8 3e ac d8 cf 3e 87 bd 2f 3e
       0.50713557 0.4535551 0.40594995 0.17162143
000160 59 55 1e 3f e6 bc 45 3e af 66 28 3e 53 59 2f 3d
       0.6184898 0.1931034 0.1644542 0.042809796
000170 c2 f7 ef be ae 89 19 be d6 be 0f 3f b4 38 a8 b9
       -0.46868712 -0.14993927 0.5615057 -0.00032085704
000180 a1 06 04 3f 7d 9e 37 3e cb 56 e0 3e 55 83 5e 3e
       0.51572615 0.17931552 0.43816218 0.21729787
000190 bd 19 12 be fc f7 a0 3e 77 af c3 3e 4d 0a 3c bf
       -0.14267631 0.31439197 0.38219807 -0.7345322
0001a0 48 11 81 3e b2 e5 90 bd a5 41 fe bc 31 1f e3 3d
       0.25208497 -0.07075061 -0.031037161 0.11089934
0001b0 71 78 8f be 7a ac 1c 3f 89 23 c7 be d5 16 36 bf
       -0.28021577 0.6120068 -0.388943 -0.7112859
0001c0 ac 34 86 3d 59 14 84 bd 81 a3 a6 be 38 82 04 3f
       0.06553015 -0.064491935 -0.3254662 0.517612
0001d0 d3 9c 1b 3f 4e 0b f4 be 33 ee da be de 84 30 3e
       0.6078617 -0.47664875 -0.42759857 0.17238185
0001e0 dc 6c 40 3d cb 2f bb 3e cb 05 b2 3e eb c9 dc bd
       0.046978816 0.365599 0.34770045 -0.107807
0001f0 e3 16 52 3e 79 8e 29 3f 79 aa 35 3e ce 33 3b 3e
       0.20516543 0.6623302 0.17740811 0.1828148
