models/mnist_vae_dims_128/vae_7d.pth (torch, 954522 bytes, 14 tensors)

encoder.network.1.weight f4 [128, 784]
00000000: 1cd7 b13c edd6 043d 8a22 d63c 782b ebbc
00000010: 9251 043d bc77 f73c 2e01 91bc 4c25 c8bc
00000020: b3e0 3dbc dc0b fdbb ca79 0cbc b0dd 023d
00000030: 5ad3 b23c a7ed 8c3c f4c0 1ebd dc42 30bd
00000040: d7d2 483c 4ade 6ebc 1ede f0bc 5716 0fbd
00000050: 473f cf3c a021 0bbc 8cee 973c 51ee bfbc
00000060: 57a3 3ebc a377 b4bc 0568 c5bc acfa 85bc
00000070: 2164 6d3c 95e6 afbc 65ca 0abc f7a0 cfbc
00000080: 09ce dbbd 3166 80bd c5c9 43bc 10a2 99bd
00000090: 13a6 013d d73f 6cbb e953 1cbd c539 e6bb
000000a0: f1eb 263d 302e 943d cc7e a6ba 4cf8 05bb
000000b0: 9820 1e3d 54fc 9a3b 590c 5b3d 211f 5e3d
000000c0: afc4 b239 5be6 a83d 03c8 043d dadd 39bd
000000d0: 931d 443b 0087 a0ba a5aa 713b eebe b23b
000000e0: eeb6 48bc 37f4 50bb 437a 22bc 86f2 c53b
000000f0: 8d2e 9d3d e32e a23d 388a a4bd 3c12 6fbd
00000100: db78 373a dffb babc f6fa c3bc ba53 56bd
00000110: bc42 05bd a5f0 2d3c ddac cdbb 06e3 72bd
00000120: 69a2 8ebc 9866 9bbc 141d 5cbd 5db1 53bc
00000130: c982 9139 dfc7 08bc 2a95 afbd 97c0 b2bd
00000140: 747b 21be a1ef d5bd 4ac8 76bc e799 9c3c
00000150: 312c d03c 417f be3c ca10 eebd ddb2 333c
00000160: 8f75 133d 39c2 263d b854 7bbd 7d94 6abd
00000170: ae69 bbbd 62df f2bd c6dd 42bd bb70 8fbd
00000180: 4bcf 1ebd 4038 c4bc 75d6 e4bb 74e0 a73c
00000190: c29b 063d 180f 663d c285 7b3d 58d9 dd3d
000001a0: 733f b43d 7365 e13d d782 563d 2545 053c
000001b0: fcd7 a8bd 5df4 88bd ecff 1e3d 93b3 843b
000001c0: 9321 a83b 8336 90bc 2cd5 debd ca58 44bd
000001d0: 3b06 53bb b6f7 36bc 6655 9fbd 09ec d3bc
000001e0: 0d6f f8bd 4fca 9cbd e7fb 10bd ca95 e0bc
000001f0: 34d2 ddbc 8183 9b3c 1c4b 7e3c c569 5a3d
00000200: fb06 233c 5ae4 ae3d dd06 af3d 0de0 6e3d
00000210: db71 843c 9c43 71bc 3ad9 4e3b 0c47 87bc
00000220: c5d7 613c d127 b53c 9fae 84bc f095 d53d
00000230: 13b0 53bc 0ae1 5cbc be8b cb3b 427f 7fbd
00000240: 8567 a0bd 0dfd 23bd 127c 4fbd 0d55 32bd
00000250: bb29 bcbd 5875 2abd 05b7 4cbd 7da8 43bd
00000260: fc10 acbc 3aee fabb c0d7 f33b 1054 2c3c
00000270: 093d 383b f35b 5a39 c05f 3cbc a8dc 53bc
00000280: 0d52 46bd 5cbc 38bd a7c2 f33c 6c1a 09bb
00000290: a8a5 73bd 4afd 213d 831f 513d cd69 ae3d
000002a0: 4ef2 bbbc 1629 a0bd 59f6 dabd 0dde e1bd
000002b0: a54a 79bd 68d8 4cbd 0888 78bd 9b82 8cbd
000002c0: 7632 84bd cf2e 4dbd aad5 3abd e676 74bd
000002d0: b70e b43b 59da 423c a5df 6f3d 1ac8 063d
000002e0: 4f83 ec3b 7c26 033d 8be6 ccbc f7b7 6b3c
000002f0: 0174 51bc 51ef 54bc 8a9e 15b9 2c66 a43c
00000300: 83dd 3cbc f715 123d 81e4 d53d 39b8 8b3b
00000310: 7c87 99bd 7768 dcbd e68b fc3c d611 d9bb
00000320: 295e c3bd 758f 35bd 94a4 4abd 4a84 d5bd
00000330: f321 6bbd 44fc a6bc 8e78 29bc 69dc 15bc
00000340: b412 863d d7d8 953d 273d a93d 3039 013d
00000350: 9d38 103d fe76 9f3c f1ce 51bd 711d 3abb
00000360: 03e4 4ebd 21dd 44bd 963f eabc ec6a b7bd
00000370: 1f74 b0bd 9be8 10bc 2402 da3b efd6 ae3c
00000380: e2e1 5bbd b4c3 c0bb 92dc cb3d 1b2b 9cbd
00000390: 538e 25bd e234 a1bc 4efa b6bd 4439 0abc
000003a0: 1d09 82bb b017 b33c f3ac 413d 11ca 1c3d
000003b0: 76f4 d53d d861 ca3d 0d2a 263d dbf2 2f3d
000003c0: 0359 f53c 0554 de3b 1c69 233d 828e f1b8
000003d0: 0868 8fbb 5643 21bd 3b95 553a ff93 923c
000003e0: 1705 39bd 97d8 a43c eae8 0e3c 133b 9dbb
000003f0: 6b07 a0bd 359f 573c c136 183c bb32 67bd
0.021709017 0.03243153 0.026139516 -0.028707251 0.032304354 0.030208461 -0.017700758 -0.024431847
-0.011589217 -0.007722361 -0.008573959 0.0319497 0.021829296 0.017203165 -0.038758233 -0.043032512
0.012257299 -0.014579365 -0.029402789 -0.034933414 0.025298728 -0.008491904 0.018546365 -0.023429068
-0.011635623 -0.022029703 -0.024097452 -0.016354881 0.014489205 -0.021472255 -0.008471106 -0.025345309
-0.107326575 -0.062694915 -0.011949961 -0.07501614 0.03165252 -0.0036048794 -0.03816596 -0.0070259296
0.040752355 0.07235372 -0.0012702583 -0.0020442186 0.038605303 0.004729787 0.053478573 0.054228906
0.00034097346 0.08247062 0.03241731 -0.04537759 0.0029924854 -0.0012247264 0.0036875394 0.0054548895
-0.012250645 -0.0031883845 -0.009916845 0.006040874 0.076748945 0.07919099 -0.08034176 -0.058367
0.0006998905 -0.02282518 -0.023923378 -0.05232594 -0.032534346 0.010616456 -0.0062767104 -0.059298538
-0.017411428 -0.018969819 -0.05373867 -0.012920705 0.00027753998 -0.008348434 -0.08573373 -0.0872814
-0.1576975 -0.10446096 -0.015062401 0.019116355 0.025411697 0.023254039 -0.11624296 0.010967937
0.036000784 0.04071257 -0.06136009 -0.057270516 -0.09151016 -0.11859013 -0.04757478 -0.070039235
-0.03877191 -0.023952603 -0.006983573 0.02049277 0.032863386 0.05616674 0.06140686 0.10832471
0.088011645 0.11005678 0.052370872 0.008134161 -0.08244321 -0.066872336 0.038818285 0.004049727
0.0051309555 -0.017604118 -0.10880503 -0.04793624 -0.0032199759 -0.011167457 -0.0777996 -0.025869386
-0.12130556 -0.07655775 -0.035396483 -0.027415175 -0.027077772 0.018983604 0.015520837 0.053323526
0.009950395 0.08539648 0.08546231 0.05831914 0.016167572 -0.014725592 0.0031562583 -0.01651337
0.013784354 0.022113713 -0.016196547 0.10428989 -0.012920397 -0.013481388 0.006211727 -0.062377222
-0.07832245 -0.04003625 -0.050655432 -0.043538142 -0.09187647 -0.041615814 -0.04997923 -0.047768105
-0.021004193 -0.0076577934 0.007441491 0.010518089 0.0028112552 0.00020824354 -0.011497438 -0.0129310265
-0.048418093 -0.04510151 0.029755903 -0.002092029 -0.059484154 0.039548196 0.051055443 0.08516274
-0.022942688 -0.078203365 -0.10691518 -0.11028681 -0.060862202 -0.05001107 -0.060676605 -0.068608485
-0.06454937 -0.05009347 -0.045613922 -0.059683703 0.005494918 0.011892878 0.058562893 0.032905675
0.0072178016 0.032019123 -0.025012275 0.014387122 -0.012784005 -0.012996511 -0.00014268808 0.02006825
-0.011527422 0.03566548 0.10443974 0.0042639044 -0.07496545 -0.107621126 0.030828428 -0.0066244407
-0.09539444 -0.044326264 -0.04947336 -0.10425623 -0.057405423 -0.020383961 -0.010343684 -0.009146788
0.06546536 0.073167495 0.08263617 0.03154868 0.03521024 0.01946592 -0.051222745 -0.0028398896
-0.050510418 -0.048062447 -0.028594773 -0.089559406 -0.08615898 -0.00884452 0.006653087 0.021342723
-0.053682216 -0.0058827046 0.0995418 -0.07625409 -0.040418934 -0.019678537 -0.089344606 -0.008436505
-0.0039683715 0.021861881 0.047284078 0.038278643 0.10447018 0.098819435 0.040567447 0.042956214
0.02994967 0.0067849183 0.039895162 -0.0001151832 -0.004376415 -0.039370857 0.0008147542 0.017892836
-0.04517087 0.02012281 0.008722523 -0.004798302 -0.07813915 0.0131605165 0.009290398 -0.056444865

encoder.network.1.bias f4 [128]
00000000: c16b 313f 1b6f 363c 9152 c5bb 16cb 18bd
00000010: af6b 923e f1ea da3e 5767 663e 3337 9f3e
00000020: 9fce 59bb bedd 803e 1e53 35bd a1f3 01bd
00000030: 1a71 31bc 8e32 35bd ded4 f63d 7077 513c
00000040: d368 35bd d34c d63d 1816 17bd 18b0 803e
00000050: dc10 2dbe 78b5 d93e 2b51 473e d86f 3b3e
00000060: 8064 b23c 1c85 423e bdd0 0b3e 7a43 163c
00000070: 45e4 19bd 3767 b6bd f4b6 d03e bbc7 81bd
00000080: 92c1 0f3e a8f4 d4bd 46b1 55be a86b ae3e
00000090: 5651 2ebd dd4a 223e b94a 603e a0d0 953e
000000a0: 498f c03d 21d8 c9bc cdc5 cc3e 8bf7 a83e
000000b0: 7c97 e93e e5d2 ea3b 33a7 e43c 7b83 623e
000000c0: e891 7e3b bd82 6f3e eff3 1a3b 71b5 86be
000000d0: cd0f 9a3e 6221 b93e c893 9ebc 942b f5bc
000000e0: 0923 463c 41de 223e 30dc 29bd d128 a03d
000000f0: 86b1 b63e 9eb5 3e3d 858c a9bc a8a3 dbbd
00000100: 6922 fa3e 6661 c83e 522b 35bd 5c78 1abc
00000110: d7e0 c23e ea6f 17bd 2756 33bd cf3e 8f3e
00000120: a16b 693e f689 563e 33ee 90be f912 273d
00000130: 55d6 073e ad0d 833e 4960 b03e d7bd ab3e
00000140: 82b3 9d3e 6923 5e3e 97ef 003e b27f 823e
00000150: 0f20 203e 0c3f b9bd 1a40 fd3c 5e4c 453e
00000160: 02aa 4d3e 35d3 16be 9f7b 0cbc 4603 63bc
00000170: e1b6 ac3e 3a2f dbbc 8000 863e 4147 41bd
00000180: 45d7 1fbb ed35 8b3d cfb6 85be 1f59 093f
00000190: 39d0 3fbd 7b86 bd3d e1d4 0c3e c88b 4a3e
000001a0: 93df b53e b37c 9fbc 2b52 14bc 8f1e 4d3e
000001b0: 9ed6 c13e 30f6 623c d5ef 423e e124 603e
000001c0: 874e c2bc add4 683e 994a 813e 91eb 9bbc
000001d0: c7a2 4d3d ae6b a23d 13fb 913d 588b b13e
000001e0: b62c 20bd d9a1 913e 18b3 25bd c8bc f83e
000001f0: 923e 0f3e 5180 1abd bf20 cd3d be88 0f3e
0.69305044 0.011134888 -0.0060218056 -0.037303053 0.2859778 0.4275737 0.22500359 0.310968
-0.0033234728 0.25169176 -0.04426872 -0.031726483 -0.010830188 -0.044237666 0.1205232 0.012784824
-0.04428942 0.10463872 -0.036886305 0.2513435 -0.16900963 0.42521262 0.19464557 0.18304384
0.021776438 0.1899609 0.13653846 0.009171361 -0.03757121 -0.089064054 0.40764582 -0.06336924
0.14038685 -0.10398227 -0.20868406 0.3406651 -0.042558037 0.1584887 0.21903504 0.2926073
0.094023295 -0.024639191 0.3999466 0.3300136 0.45623386 0.007166254 0.027911758 0.22120468
0.003884429 0.23389716 0.002364393 -0.26310304 0.3009018 0.36158282 -0.019357577 -0.029928006
0.012093314 0.15905096 -0.041469753 0.07820285 0.35682315 0.046559922 -0.020696888 -0.10724574
0.48854378 0.3913681 -0.044230767 -0.00942811 0.38062164 -0.036971964 -0.043783333 0.27977607
0.22794963 0.20951065 -0.28306732 0.040789578 0.13265355 0.2559637 0.3444846 0.33543274
0.30801016 0.21693195 0.12591396 0.2548805 0.1563723 -0.09045228 0.030914355 0.19267413
0.20084384 -0.14729007 -0.008574395 -0.013855761 0.33733276 -0.026755918 0.26172256 -0.047187094
-0.0024389785 0.06797395 -0.26116034 0.53651613 -0.046829436 0.09254166 0.13753082 0.19779885
0.35522136 -0.01946864 -0.0090527935 0.20031188 0.37859052 0.013852641 0.19036801 0.21889068
-0.023719085 0.2273738 0.25252226 -0.019033225 0.050204065 0.079306945 0.07127967 0.34676623
-0.03910514 0.28443792 -0.040454 0.4858153 0.13988712 -0.03772003 0.100160114 0.14017007

encoder.network.3.weight f4 [128, 128]
00000000: 51de 363c 7a0b 563d eb21 133d fa0d ab3d
00000010: 7610 263e b169 bbbe f2af 9abd 2ea6 423d
00000020: befb 53bd d107 21bc 487b 663d a61d 45bd
00000030: db57 7fbd 4c01 d33c c944 97bd d895 463d
00000040: 2b7e 023d 98c9 85bd fc60 babc 73c7 59bd
00000050: 4bf1 0dbb 9b9c 023e 2cba 143c e03b eb3d
00000060: 69fd 153d 2a10 4f3d 7696 05bd 7cb6 8cbc
00000070: 62aa 67bc 4f9f c4bd a9ed 6abd 3c2c aebd
00000080: 8e17 97bd 7064 b63d 9021 00bc ef33 1e3d
00000090: 92aa 743d 68cb 423d 99ee d3bd 4cfb ae3c
000000a0: d5f0 393d 6008 3cbd b9c0 7abd c786 b03d
000000b0: 4560 a53d 012d 343c d386 39bd 55b8 fdbd
000000c0: b796 d73c 3e2a 0e3e 0566 31bd 3323 f3bc
000000d0: 16ef 9fbd 459a a2bd 4605 61bd 5736 afbd
000000e0: ebd9 68bd ced1 ba3c 9b31 c93d ab34 4e3d
000000f0: a7f6 a8bd e54f edbd c25e a0bc 869f bfbc
00000100: 5476 ed3d b866 b23c 2993 d9bb 3e93 98bd
00000110: 7d81 133d 912e 06bd dd6d ebbc d1e8 d5bd
00000120: 8c4c 72bc 940b 2ebd 8475 ccbc 6767 773c
00000130: 41a1 15bd 46a4 e3bd 13d2 e6bd 2df9 7cbd
00000140: 52a6 1ebd 9855 f43d 55c3 a43b ee0b 063e
00000150: 4bbe 053d eff6 af3d d937 373e a28a 83bd
00000160: 7859 f33d e8c8 4a3b 8292 403d 53e3 9abc
00000170: e19a 853c 6c33 c6bc 6511 d0bc 6f0b 2e3c
00000180: 6ede 20bc 1cbe 6c3c 3f76 18be cf82 43bc
00000190: 8751 713d 034e 2d3e b11a bb3d bd58 0dbd
000001a0: be00 263c f7c3 81bd 5d32 3d3d 1d22 3d3e
000001b0: 034c 093e b55a b93d 7473 f83d b71e 3cbd
000001c0: ebc0 84bc f208 d03d f9ad f2bd be7e 8dbd
000001d0: f25f 363d e4bc d83a 7935 073d a447 22bd
000001e0: 481e af3c 3c2b 3b3c 0580 0d3d bddc 15bd
000001f0: 7991 8d3d 2a44 f5bc 9be5 553d cdc8 21bd
00000200: ae1a 0cbd 949f 02bd d293 3dbd a1f2 29bd
00000210: 69e8 113d ccb4 90bd 7cd3 9d3d 9989 e0bc
00000220: f4ad 35bd 9496 8b3c 6ab0 ab3d 384b c13d
00000230: d6c9 a4bd 4525 23bd b58b bebd 5ce4 983c
00000240: b66e 08bc d0e7 c8bd fe7d 1e3d cf5e bfbc
00000250: b9ec 85bd c95d cfbc d212 fc3b f7de 7a3d
00000260: 1386 27bb 5706 c93c 9a9b 09be a298 81bd
00000270: c955 fabc e201 533c 9cd1 94bb 2528 46bd
00000280: 7c53 993d b111 63bc f5d0 edbd e182 433c
00000290: 0308 b7bd 67fd 05be db44 12bd 28e6 393d
000002a0: fd9e 0ebd f1f5 cc3c e765 503c b5b0 b6ba
000002b0: 564e 26bc a260 4a3c cbd3 043c fd3e 08bd
000002c0: fd1c edbb dd45 f43c e0bb b0bd 88a1 4e3b
000002d0: 3aab 1f3d 392d 29bd 92c3 36bd 630f af3d
000002e0: b65d 95bd 9e84 74bd 42dd 133d b6ac 96bc
000002f0: accd a2bd d42f 93bd c6fd a73c 531a 8dbd
00000300: 5343 943c d2b4 823c d6a9 343c 934e 31bd
00000310: 6030 a1bd 70d2 603d 5956 c2bd 49a2 afbd
00000320: 440f b9bc ca1e 203d 1c82 5bbd 3611 d8bd
00000330: ff49 7b3c 0dff a7bc dc32 cebd cf5e a5bc
00000340: c071 debc b270 02bd c276 c63c 3da3 1ebc
00000350: 3272 143d e182 b9bd 7063 39bd e829 d1bc
00000360: 7f15 5439 51c3 82bd cf67 963d 5aef a13c
00000370: 32e7 003d 88af 8fbd 2eac 953d 2ab4 923d
00000380: 6b68 7d3d a707 e4b9 bf79 4ebb c156 d6bd
00000390: d5a2 a33d 690e cf3d d200 143d 6504 c43d
000003a0: f565 bcbd 646c 5e3d a7b8 8b3d 5976 1ebd
000003b0: b876 02bd 2616 8a3c 2768 5dbd fe1f a8bd
000003c0: 99bf 43bb 8b69 543d 3581 d1bd 37fe 213d
000003d0: 5ac2 913c 6a21 f4bc 54cf 27bd b26a 3fbd
000003e0: 0d74 45bd e71e f93c 2163 aa3d 182f 85bd
000003f0: 554d bcbd 968c aabc 289a 1c3d fde1 6e3d
0.011161403 0.05225704 0.03592102 0.08352275 0.16217217 -0.36604074 -0.0755309 0.047521763
-0.051753752 -0.009828524 0.056269914 -0.048123978 -0.062339645 0.025757454 -0.073861666 0.048482746
0.031858604 -0.065325916 -0.022751324 -0.053168725 -0.0021658714 0.12755053 0.00907759 0.114860296
0.036618624 0.050552525 -0.032614194 -0.01717686 -0.0141397435 -0.09600698 -0.057355557 -0.08504531
-0.073775396 0.08905876 -0.007820502 0.038623746 0.05973298 0.047557265 -0.10348243 0.021360062
0.04539569 -0.045906425 -0.06121895 0.08619457 0.080750026 0.010997058 -0.045294594 -0.12388674
0.026316984 0.13883302 -0.043310184 -0.02967987 -0.07809274 -0.07939581 -0.05493667 -0.085552864
-0.056848448 0.02280512 0.098239146 0.050343197 -0.0825017 -0.11587504 -0.019576434 -0.023391496
0.11594835 0.021777496 -0.0066398573 -0.07449959 0.03601216 -0.032759253 -0.02873891 -0.10444797
-0.014788758 -0.04249151 -0.02495838 0.015100337 -0.036530737 -0.11115317 -0.11270537 -0.06176107
-0.038732834 0.11930388 0.005028168 0.13090488 0.03265218 0.08592021 0.17892398 -0.064229265
0.11882299 0.0030942503 0.04701472 -0.018907225 0.016309204 -0.024194442 -0.02539892 0.010622843
-0.009818656 0.0144496225 -0.14888857 -0.011933043 0.05891564 0.1692429 0.0913595 -0.034508456
0.010132013 -0.063362055 0.04619061 0.18470044 0.13407902 0.09050504 0.12131396 -0.04592773
-0.016205272 0.10157956 -0.11849589 -0.0690894 0.044525094 0.0016535786 0.03300998 -0.039619103
0.021376744 0.011423882 0.034545917 -0.036587466 0.06912512 -0.02993973 0.052220922 -0.03949814
-0.03420513 -0.031890467 -0.04628355 -0.041491155 0.035622034 -0.07065734 0.07706353 -0.027409362
-0.044355348 0.017039575 0.08383258 0.09438175 -0.0804631 -0.039830465 -0.09303991 0.018663578
-0.008327177 -0.0980984 0.038694374 -0.023360638 -0.06539292 -0.025313275 0.0076926732 0.061247792
-0.0025562092 0.024539156 -0.13438264 -0.063279405 -0.030558484 0.012878867 -0.004541589 -0.04837813
0.074866265 -0.013859198 -0.11612121 0.011933059 -0.08937075 -0.13084947 -0.035710197 0.04538551
-0.03481959 0.025019618 0.012719608 -0.0013938161 -0.010150513 0.012352141 0.008107136 -0.033263195
-0.0072361217 0.02981847 -0.08629584 0.0031529386 0.038981654 -0.041302893 -0.044620104 0.08547857
-0.072932646 -0.059696786 0.03609968 -0.018392902 -0.07949385 -0.07186857 0.02050675 -0.068897866
0.018098509 0.015955362 0.01102682 -0.043287825 -0.07870555 0.05488819 -0.09489126 -0.08575875
-0.022590287 0.039091863 -0.05359088 -0.10550158 0.015337466 -0.02050736 -0.100682944 -0.02018681
-0.02715385 -0.031845756 0.02422655 -0.009682474 0.036241718 -0.09058166 -0.045260847 -0.025532678
0.00020225903 -0.0638491 0.07344019 0.019767452 0.031470485 -0.07015902 0.07308231 0.0716327
0.06186716 -0.0004349325 -0.0031505672 -0.10465766 0.07990042 0.101101704 0.036133595 0.09571151
-0.09199134 0.054302588 0.06822329 -0.038687084 -0.0318515 0.016856264 -0.054054406 -0.08209227
-0.002986884 0.051858466 -0.102297224 0.03954908 0.01779287 -0.02980109 -0.040969208 -0.046732612
-0.048206378 0.030410243 0.083196886 -0.06503123 -0.091944374 -0.02081899 0.038232952 0.058320988

encoder.network.3.bias f4 [128]
00000000: cb5a 1b3e 15ec f9bc 8655 77bd 90eb 823c
00000010: db25 33bd 74aa 573e 0768 a03c 549e 193e
00000020: 4474 723d 624f 723d 0f9e d83d b354 e13d
00000030: 0989 183e fca8 62be 5f19 0a3f 29a8 353e
00000040: ebef ef3d 1f25 b53e cea0 1a3e 5314 8f3d
00000050: e924 b33e 4fe0 3e3e 70f9 153e 8d38 843d
00000060: 4fdf 3d3e 54ec a1bd 6c5a cc3d c632 053e
00000070: 0655 983e 73e1 013d f637 58be 2f44 cdbd
00000080: 938d 85bd 0f6d debc 0978 6f3d d3e3 413e
00000090: 01a2 99be d240 b8bd d8a9 bebd 5ec0 c73e
000000a0: 7580 2d3e b327 a1be 502d 7ebb 84c6 7c3e
000000b0: bbd7 313e 1bba a33e e9df dcbd 001c 30bd
000000c0: 1054 f8bc e476 4d3b 3a2a dcbd dc9c d13e
000000d0: 566e 333e d734 003e 3e74 a0bd f394 b23e
000000e0: a691 df3d cd76 183f 539f 9abc e6a5 2b3e
000000f0: 838b 833d a283 a83d 1a3c 49be 0ca0 ad3d
00000100: d68e 093d 99cf c43b 957c db3c 3292 183e
00000110: c3c7 82be 6e7b e73b b717 203e 9bce f83d
00000120: 18f6 aa3e 5a71 833e 72de 093d a8da 54bd
00000130: bc0a 033e 7b5b 443e dc5f 0cbe b648 b7bd
00000140: 17a4 48be 99db be3e 5eba 143d e53d 943e
00000150: 342f 913a 54a8 3e3e 9c26 6f3d 5ff9 e83d
00000160: 73c8 a4bd 69b1 a63d 2cd7 3b3c 1daf cbbe
00000170: 07db 88bd 5eaf d53c 620a 673e 4b3c 40bc
00000180: be57 e5bd d579 c13d 239c 6a3e d81e 323e
00000190: 5902 a1bc 7497 cb3d 176a 9a3e 415d 563d
000001a0: 32c5 e33d a94a 0c3e c72c 9bbd 5889 c4bc
000001b0: c32e fc3b 1c98 cabd f3e2 a6bd 5e26 f53d
000001c0: cfdf 8e3d 1f3e 083c e990 b73e b235 90bd
000001d0: cf95 963e a0ba 89bd 8fc1 293e 385f 233e
000001e0: 3502 44be 6e0a 593e 8076 02bd da79 a5bd
000001f0: cfef b73e 4be7 c6bd eea6 26bf 20eb 343e
0.15171354 -0.03050808 -0.060384296 0.015981466 -0.043737274 0.21061116 0.019580854 0.15001804
0.05919291 0.059157737 0.10577022 0.11002483 0.14896025 -0.22134775 0.53944963 0.1773993
0.117156826 0.35379884 0.15100405 0.069862984 0.34989098 0.18640254 0.14645934 0.06456099
0.18542217 -0.07906404 0.09978184 0.1300765 0.29752368 0.031709146 -0.21115097 -0.100227706
-0.06521144 -0.027151613 0.058464084 0.18934564 -0.30006412 -0.089967385 -0.09309739 0.39013952
0.16943534 -0.314756 -0.0038784333 0.24685103 0.17367451 0.31977925 -0.10784895 -0.042995453
-0.030313522 0.0031351382 -0.107502416 0.40939987 0.17522559 0.12520157 -0.078346714 0.34879264
0.10916452 0.59556276 -0.0188748 0.16762504 0.06423094 0.08228232 -0.19651833 0.08477792
0.033583485 0.006006193 0.026792804 0.14899519 -0.2554303 0.0070642745 0.15634046 0.12148782
0.3339088 0.25672418 0.033659406 -0.05196634 0.12797064 0.19175522 -0.13708442 -0.089494154
-0.19593845 0.37276915 0.036310546 0.28953472 0.001107669 0.186189 0.05838643 0.11375689
-0.08046045 0.08139307 0.011464875 -0.39782038 -0.06682401 0.026084598 0.22562554 -0.011733125
-0.11198376 0.09447066 0.22911124 0.17394578 -0.01965444 0.09940997 0.30159065 0.052335028
0.111215964 0.13700356 -0.075769 -0.023991272 0.007696004 -0.09892294 -0.08148756 0.119702086
0.06976282 0.008315592 0.35852745 -0.070414916 0.2941117 -0.06725049 0.16577743 0.15954292
-0.19141467 0.21195385 -0.03185129 -0.08079882 0.35925147 -0.097120844 -0.65098464 0.17667818

encoder.output1.weight f4 [7, 128]
00000000: f596 463e 3c80 f7bc 67f5 2bbd 1d04 3f3e
00000010: 1198 bb3c 8a30 8ebd 8c56 8cbd 0f29 65be
00000020: ca86 14be 5d0c 13bc adf6 353d 3452 51bd
00000030: 70a2 e3bc 5c29 213d e62b 493e fcce 42bd
00000040: ce99 883d 7f75 9dbd 8474 85bd 1ad6 bb3d
00000050: 3b3b 93bd cb2f c4bb 90f1 8ebc 6fd2 1cbe
00000060: dd52 9bbd 29ab 983d 86ec c4ba d4d5 2c3d
00000070: f85f e53c 1112 613e 0769 603c 1c6f 98bb
00000080: a0dd 01bd 5f34 853d e80b fa3c 1689 ccbd
00000090: 4738 2e3d 7199 333c b081 083e d3a6 793d
000000a0: e42f 51bd a848 dc3d 4409 3b3c fc3b 12be
000000b0: 0537 18be 6115 023d a182 ebbc 0369 a3bd
000000c0: 254d 94bd 6506 cd3d be58 7e3d 6cac a7bc
000000d0: b142 4cbd aa51 f9bd 0733 84bc 08b8 a2bd
000000e0: 0aaa 1dbe b28b 41be 677f eebd 0fe9 813e
000000f0: 6638 353d f68f 743d 62f7 873d 5ce0 b23c
00000100: f1ad c23d 09f2 493d 5bef d3bd b49a 343c
00000110: 886f eaba d8a0 90bb 29c4 423e 5978 a93c
00000120: 83e8 8c3c 6a3b 87bd 1c68 c4bd 311c 803d
00000130: 6d1c 313e 5afe 83bb 9e9b debc 65e7 f73d
00000140: a6fe 853d f615 9f3c a096 403d 5706 ccbd
00000150: a4f1 10bd e6b9 a33c 03ef 8e3b cafa c63c
00000160: 7b0f 6abd a69e 8ebd ec38 393d a6a8 85ba
00000170: 525e 34bd a238 a4bc 5436 623e 04fa ffbd
00000180: eb39 563d f53e 9b3c 155e 063e 5d08 44bd
00000190: fc3b 9c3c ec1e 89bc 9e20 63bc ae16 c7bd
000001a0: d077 28bd b36c 2dbd 5703 273d 5916 843d
000001b0: 4500 f93d d4d2 b7bd f72c b73d 4120 4dbd
000001c0: c006 023d 5c6f 703d 0483 2bbe 660d 213d
000001d0: 06de ddbd 90b2 c63c 8c60 9bbc c859 cbbd
000001e0: 6ff8 963b 94c3 23bc 1c2b 22be 55b7 adbd
000001f0: 0a72 54bd 6ce0 083d 9d83 d13d f1f8 75be
00000200: 5f72 7c3d 015b b73d fd69 b93c 7a55 b03d
00000210: 5e93 bebc 2e33 8abe 8c2d e8bc 1d68 c23d
00000220: d300 953d 31a2 a0bd c19b a93d 779a f43c
00000230: d364 a3bc e2a5 383c a861 f83c ae75 b0bd
00000240: f458 683d d966 873b a63f 99bd caf4 603c
00000250: 01c1 103d 45ba 24be 2cc3 4e3d 9eda dbbd
00000260: 3e1f bd3d cf0a 5ebd 5646 5cbc 94e7 aa3d
00000270: 25b4 f0bd 0527 423d 0f93 df3d 5a62 a2bd
00000280: e605 e6bc 005c 4ebd 060c 81bb bbbc 573d
00000290: b717 01be 2461 38bd b282 3bbc 3544 223e
000002a0: 658c 55bb 9168 c03c e4fc 17bd a117 e9ba
000002b0: 0ce7 0ebe 1224 3bbd 1e95 cb3d 214d 05bd
000002c0: 5eb0 19be 00d7 af3c e3be 8bbd 3338 2a3b
000002d0: 3dcb c5bd 7cc3 5f3d 3208 babc 733a bdbb
000002e0: 08c3 9f3c 74e5 9e3d 276f 83bd 91e5 83be
000002f0: f53b 543c c320 edbd 7565 543c 9420 02be
00000300: d530 11bd e5f8 7fbc aedc 03be 6109 89bd
00000310: 29e5 5dbc 7b50 eb3c b31f f4bd 8881 963d
00000320: 58a6 133c bd2d bfbd 657c ae3c 11c3 0fbd
00000330: 895f 783e 20fe b83c 97da a23c df9f d73c
00000340: 6a49 a0bc 5d73 78bc 4f4a 023d 7edf a3bb
00000350: e0df 9a3b d009 f53b c296 7fbd 034c 8fbc
00000360: b0bc b03c 603b 963d 91e3 2bbd ddee dc3c
00000370: 1cb3 b53d e101 1b3e 2b75 0e3d c4e8 a73d
00000380: 05eb afbd e18c 1dbe b943 e7bd c351 813d
00000390: ffb8 573c 1b01 443d ee2e b23d b396 9f3c
000003a0: 94da 863c 8023 ab3d f77b 4abd 7adf 35bc
000003b0: 92f1 86bd 8a2f 1fbd 18a1 5abb 55cc aabd
000003c0: aab9 09bc b9e1 043d 63a4 853d 195c b6bc
000003d0: 3aeb ac3d 778b ebba 7756 18bd 213f 80bd
000003e0: dd69 813d 194e 8a3d 5fe3 913d 4c27 933d
000003f0: b7c9 23bd 4900 3bbd 99b8 eaba 5996 53bd
0.19393523 -0.030212514 -0.04198208 0.18653913 0.02289966 -0.06942852 -0.06852445 -0.22378944
-0.14504543 -0.008975116 0.0444247 -0.051103786 -0.027787417 0.039346084 0.19645652 -0.047560677
0.06669961 -0.07688426 -0.06516364 0.09171696 -0.07189032 -0.0059871427 -0.01744917 -0.15314649
-0.07584164 0.07454521 -0.0015024103 0.04219611 0.027999863 0.21979548 0.0136969155 -0.004651917
-0.0317055 0.065041296 0.030523255 -0.099870846 0.04253414 0.010961876 0.13330722 0.06095011
-0.051071063 0.107560456 0.011415783 -0.14280695 -0.14864738 0.03175867 -0.028748812 -0.07979014
-0.07241277 0.10010985 0.06209635 -0.02046796 -0.04986829 -0.12173779 -0.016137613 -0.079452574
-0.15396896 -0.18900946 -0.11645394 0.25373122 0.04424324 0.059707604 0.066389814 0.021835499
0.09505833 0.04930309 -0.10348388 0.011023212 -0.0017886022 -0.0044137053 0.19020142 0.020687269
0.017200714 -0.06603129 -0.0959017 0.06255377 0.17296 -0.004028124 -0.027173813 0.12104682
0.06542711 0.019419651 0.047018647 -0.09962147 -0.035386696 0.019986104 0.0043619885 0.024289507
-0.05714367 -0.069638535 0.0452203 -0.0010197356 -0.044035263 -0.020046536 0.22091037 -0.124988586
0.05230133 0.018950919 0.13121827 -0.04785954 0.019071572 -0.016738378 -0.013862757 -0.09721123
-0.041129887 -0.04233999 0.04077467 0.06449575 0.121582545 -0.08975759 0.08944123 -0.050079588
0.03174472 0.05869995 -0.16749197 0.03931942 -0.10833363 0.024255067 -0.018966936 -0.09929234
0.0046072523 -0.00999536 -0.15836757 -0.084822334 -0.05186657 0.03341715 0.10230181 -0.24020745
0.06163251 0.089529045 0.022633547 0.08610053 -0.02326363 -0.26992172 -0.028342031 0.09492514
0.07275548 -0.078434356 0.08281661 0.02985881 -0.019945538 0.011270018 0.030320004 -0.086161956
0.056725457 0.0041321334 -0.07482843 0.013730237 0.035340313 -0.16086681 0.0504791 -0.10735057
0.092344746 -0.054209527 -0.013444504 0.08344951 -0.1175311 0.047400493 0.10916721 -0.07928915
-0.028078984 -0.050380707 -0.003938201 0.05267022 -0.12606703 -0.045014516 -0.011444734 0.15846331
-0.0032584902 0.023487361 -0.03710641 -0.0017783531 -0.13955325 -0.045688696 0.09940551 -0.03254426
-0.15008685 0.021464825 -0.06823518 0.0025973439 -0.09657905 0.054629788 -0.022708986 -0.00577479
0.019502178 0.077586085 -0.06417685 -0.25761083 0.012953748 -0.115785144 0.012963642 -0.1270774
-0.03544696 -0.015623306 -0.12877151 -0.06691242 -0.013543406 0.0287249 -0.11920109 0.07348925
0.009011827 -0.09334896 0.02129955 -0.03509814 0.24255194 0.022582114 0.019879622 0.02632135
-0.019566257 -0.0151642235 0.031809147 -0.0050010076 0.004726395 0.0074779764 -0.062399633 -0.0174923
0.021574348 0.07335544 -0.04196507 0.026969368 0.08872053 0.15137435 0.03477971 0.081986934
-0.08589748 -0.15385772 -0.11292214 0.06314423 0.013166665 0.047852617 0.087003574 0.019481039
0.016461648 0.083563805 -0.04943463 -0.011100644 -0.06589045 -0.038863696 -0.003336018 -0.083397545
-0.008406082 0.03244183 0.06525495 -0.022260712 0.084433034 -0.0017970641 -0.037191834 -0.06262041
0.0631902 0.06753177 0.07123446 0.0718523 -0.039987292 -0.04565457 -0.0017907798 -0.051657055

encoder.output1.bias f4 [7]
00000000: 7fda 04be 0b78 af3d 467d b33e 7fbf 5f3e
00000010: b015 8dbe df0a 4bbd 4294 e63c
-0.12973975 0.08567818 0.35056514 0.21850394 -0.2755561 -0.049570914 0.028146867

encoder.output2.weight f4 [7, 128]
00000000: 5268 293d 6091 e53d e630 6cbb 4875 8d3e
00000010: 4542 b9bd e9fe 3e3d 9c09 d83c 2abc b03d
00000020: 1b52 093e 2131 05be 7a89 ccbd b1a4 0cbd
00000030: fb6c 28be 696e 9b3d 4fc1 b0be c39e 8bbd
00000040: 2d67 dfbd 5377 69be 0c14 b3bd 7d8f 5b3d
00000050: 5745 7fbe e98c 94bc 8b74 c23b d995 ac3c
00000060: 8ff3 8cbd 577e 373d 43cd 80bc cb22 b63c
00000070: 540b 53bd 8a19 3e3d d8f9 243d c4fb 54bd
00000080: fd16 4c3c c25f 293d e427 e53c 7d9b 843d
00000090: a589 063e 761c 573d a49a 003e a949 8d3c
000000a0: 3408 2fbd 9ece 303e cf0e 8fbd e9e6 3abe
000000b0: 82ef 3f3c 6a1d 96be 2ba7 c23d d37d e33c
000000c0: 28d8 c7bd 98a2 5c39 18aa 313d 21b7 acbe
000000d0: 761b b53d 758c 853d e7ae ce3c e7f7 1dbe
000000e0: cd0a 41bd 4cfd 89be 83b4 703d c3cc 53be
000000f0: eabe 41bd dec9 0fbc 48ef b4ba 81e5 0abe
00000100: 6163 a2bd 7c80 823d 2d08 c9bc 650c 273d
00000110: 3e9f 963d bdf7 03bd 372f 25bd 8ddc c3bc
00000120: 5c44 88be 43f0 443b bbf1 35bd af63 4fbd
00000130: 7905 c9bd ec01 b5bc c592 e53c 5979 b9bc
00000140: 9ad6 02bd 1505 83bd 3a3d a6ba 28a8 78bd
00000150: b440 f6bd c735 4bbc ae07 5d3c aac5 82bd
00000160: 2577 39bd 093b 18be ffb1 0c3d 5b9d 553e
00000170: 8572 fc3b fbe4 03bd 3679 f2bd a93c 9b3a
00000180: 276d 9e3c e283 45bd 584f 0d3d 07b2 ebbd
00000190: 86b7 f2bc 3c79 e1bd cf98 16be d785 aa3d
000001a0: fd9f 15bc cce2 2b3c cfc5 59bd e58c a83c
000001b0: bfef bebd 2f74 b93d 0dfe babc 1e4d 1fbd
000001c0: f979 98bd 778b b6ba 42ce f0bc 1618 5bbc
000001d0: 84b0 81be 8906 973d 4af7 ebbd f8a8 61bd
000001e0: 871c daba b4b2 c43a 3968 4f3d 6471 ac3d
000001f0: c55c 08be 0a2c ce3c ed93 7a3e 131d f53d
00000200: ca50 ccbc 3e26 a3bc cd7c 0d3c c0c9 253e
00000210: 5dac 0ebd 603f 8f3e 28fc c8ba f841 d03d
00000220: 4dee 043d 6945 bcbd a993 3fbd 8c41 c5bd
00000230: 356b 003d c7e2 3c3d eebe adbe 9940 aabd
00000240: 65c8 70bd d966 1cbe 0123 58bd 9542 2f3d
00000250: d600 5abe 8fd8 87bd 4c54 62bd 3c3d f6bb
00000260: c4ab debd eec8 2f3d 2d3c adbc 06dc f3bd
00000270: 9329 473c 5be0 f0ba 3a04 1cbc 6f65 98bd
00000280: db90 8c3d d374 5dbb 4c2c 0e3d c56d 9dbd
00000290: a480 0f3d 3fe7 50bd c8af 033d ce65 8cbd
000002a0: 6fb4 9dbd 9197 f83b 5750 ca3b 4cac e2bd
000002b0: 1857 f4bc de4d 29be 2427 603c 1005 94bd
000002c0: 37ef 423e 8524 0bbc 68db 0cbc a853 96be
000002d0: 6eea 083e fb3b bfbd 041c 463d 27bd 59be
000002e0: 3cfc d63b 0080 a1be 688f 8a3d 4a79 47be
000002f0: 03e9 6ebd 5ff0 09be 6f06 003e a789 67bd
00000300: 135a 46bc e77d 0dbd 0dad 5abd 925e b93c
00000310: 54d5 d33c 2757 153d 4534 3cba 0dd9 e0bc
00000320: 1c5a 8bbe e279 eabd 8b6e 1f3d f948 1dbe
00000330: daa5 b0bd eb5a 27be 5543 b13c 30d3 ef3d
00000340: 4812 b33d 2926 1ebe 0f8c c2bc c49c 64be
00000350: 738a a6bd 0957 d0bd 787c 80bd ae60 713b
00000360: 14f5 013d f5b6 523d e3dd 6d3d b498 303e
00000370: d8e1 243d 5eb2 01bd 4398 2bbe 1fd1 f03c
00000380: eb2b f83d 82da f4bc 22f5 d4bd db69 81bc
00000390: a3e4 7a3c ac1a a4bd 3ab0 1cbe 7683 233d
000003a0: 6dba 21be d591 e23d af76 7fbd 8114 313c
000003b0: 52fa 343d 5783 0d3d a939 8d3d 3d81 8bbd
000003c0: 58d0 93bd e011 40bd 8c4d 60bd a3e6 15bd
000003d0: b3a1 24bd 37a1 fd3d af0e b03b 56d1 3dbe
000003e0: b280 e6bc f16f 48bc 7211 ba3d 6f31 bc3b
000003f0: e657 abbd f395 83bd 3dd9 a13e 8a7c f03c
0.041359253 0.11209369 -0.0036039888 0.2762854 -0.09045843 0.04662982 0.02637177 0.086296394
0.13410227 -0.13007022 -0.09987159 -0.03433675 -0.16447823 0.075894184 -0.34522483 -0.06817391
-0.10908351 -0.22799425 -0.08744058 0.053603638 -0.24928795 -0.018133597 0.005934303 0.021067547
-0.068823926 0.04479822 -0.015722876 0.022233387 -0.051524475 0.046411075 0.040277332 -0.051997915
0.012456653 0.041351087 0.027973123 0.064749695 0.13138445 0.052517377 0.1255899 0.017247038
-0.042732432 0.17266318 -0.069852464 -0.18252148 0.011714818 -0.29319316 0.09504541 0.027769959
-0.097580254 0.00021041406 0.043375105 -0.33733466 0.088431284 0.06520931 0.025229884 -0.15426598
-0.04712944 -0.26951063 0.0587659 -0.20683579 -0.04730121 -0.008776156 -0.0013804222 -0.13564111
-0.07929111 0.06372163 -0.024540031 0.040783305 0.07354592 -0.032218684 -0.04032823 -0.023908878
-0.26614654 0.0030050434 -0.044419985 -0.050632175 -0.09815497 -0.022095643 0.028024087 -0.02264087
-0.03194294 -0.06397454 -0.0012683042 -0.06070724 -0.1202406 -0.012402958 0.0134906005 -0.06385358
-0.04527964 -0.1486627 0.034349438 0.20860808 0.0077040815 -0.032200795 -0.118395254 0.001184364
0.019339157 -0.048221476 0.034499496 -0.115085654 -0.029628526 -0.11009452 -0.1470673 0.08326309
-0.009132382 0.010491084 -0.05316716 0.020574996 -0.09323072 0.090553634 -0.022826219 -0.038891904
-0.074451394 -0.0013927062 -0.029395226 -0.013372442 -0.25329983 0.07374293 -0.11521776 -0.05509278
-0.0016640582 0.0015006871 0.050636504 0.08420065 -0.13316639 0.025167484 0.24470492 0.11968436
-0.024940867 -0.019915696 0.008635712 0.16190243 -0.034832347 0.2797804 -0.0015333937 0.101688325
0.032453824 -0.091929264 -0.04677168 -0.09631643 0.03135224 0.04611471 -0.3393473 -0.08313102
-0.05878486 -0.15273608 -0.052767757 0.042788107 -0.21289381 -0.06633102 -0.055256173 -0.007514624
-0.108726054 0.04291623 -0.021146858 -0.119072005 0.012155908 -0.001837741 -0.009522492 -0.07441222
0.068635665 -0.0033791556 0.034710214 -0.076869525 0.03503479 -0.051001783 0.03215006 -0.06855355
-0.077004306 0.0075864275 0.006174128 -0.11068019 -0.029826686 -0.1653361 0.013681207 -0.07227528
0.19036566 -0.008492594 -0.008597232 -0.293607 0.13370678 -0.09337612 0.04836656 -0.21263562
0.0065608304 -0.3154297 0.06765634 -0.19479862 -0.058327686 -0.134706 0.12502454 -0.05652776
-0.012106436 -0.034543898 -0.05338769 0.022628102 0.025858559 0.036460068 -0.00071794196 -0.027447248
-0.27217185 -0.114490286 0.03892378 -0.15359868 -0.08625384 -0.16343276 0.021638552 0.11710203
0.08743721 -0.15444244 -0.023748426 -0.22325426 -0.08131876 -0.10172851 -0.062737405 0.0036831307
0.031727865 0.051444013 0.058072936 0.17245752 0.040254444 -0.031664245 -0.16757302 0.029396592
0.12117752 -0.029889349 -0.10398318 -0.015797546 0.0153133 -0.080129 -0.153016 0.039920293
-0.15793772 0.110629715 -0.062369045 0.010808111 0.044184037 0.034549084 0.068957634 -0.068117596
-0.07217473 -0.046892047 -0.054761454 -0.036596905 -0.04019327 0.12384265 0.005372844 -0.18536887
-0.028137539 -0.01223372 0.09085359 0.0057431976 -0.08366375 -0.06425085 0.31611052 0.02935626

encoder.output2.bias f4 [7]
00000000: 6997 a8be 34db b9be ee53 42be 75cc 8cbe
00000010: 09e8 3abe c7cc cabe 488b e5be
-0.32928017 -0.3630005 -0.18977329 -0.27499738 -0.18252577 -0.39609358 -0.44832826

decoder.network.0.weight f4 [128, 7]
00000000: f446 023f 261e 453f 1cd2 c63e 6ead 31bd
00000010: 5bab 22bf f107 13bf 9f54 b9be f14a 22bd
00000020: 06c7 0c3e b4f4 f63d f9b8 35bf 3b4f 13bc
00000030: d81e 02bf 02d3 933e a31b f43e 2f94 d8bd
00000040: b18c 6ebe 7519 d23e dc6f a4bd 9708 02bf
00000050: 37b6 143f d1de f6be 4f6f a23e f406 58be
00000060: d77a 8d3c 4065 933e a1cc 29bf 0709 0bbb
00000070: 4020 cbbe fda5 dd3d eef9 d13e 4f6b 8d3d
00000080: 4667 9abe 84cd 013f 53f2 1ebf 3e99 5d3e
00000090: 7ac7 203f 5b66 a6be bc59 953e bf8f 4e3e
000000a0: 4ed5 06bf cdff 34be 3409 a63e d361 32bf
000000b0: 145c bdbe a0ce 6b3f d5b1 d83e 68d2 343f
000000c0: 8a88 793d e026 e7bd a11d 3e3f d40f 273e
000000d0: e9d1 e03e af22 4f3e b41e 0b3f dabb 4bbc
000000e0: e741 f5be 8b18 b73e 012c 073f 3b26 d1be
000000f0: 02d4 aa3e 2880 92be 6bcd c2be 8364 85bd
00000100: 4701 0a3f a481 00be 6d20 203f 27a5 f4be
00000110: d590 c23e ea50 9abe a682 a1be 2752 c93d
00000120: 3959 88bd 1bfa c0be 91e4 85be a7b1 083f
00000130: aa26 a13f 0af4 9fbe fd6d 7c3d 98fe eebd
00000140: 99b5 a83d 7e36 e6bd 6823 2ebf 140f 0a3f
00000150: cfea d63e 1bf9 f4be 8062 16bf 46fd 263f
00000160: 0aac d03e 0d2a cabe da0c 933e 5336 3fbf
00000170: 44a1 a3be 15a8 2b3d 688a de3e 806f b6be
00000180: d15d 203f 6bc6 af3e a28e 473f 9339 83be
00000190: d90c b93e 0eb3 8e3e dda8 6cbf faef 593f
000001a0: 976e 7b3e b3c6 7ebd c923 f83e ea2f 56bd
000001b0: 469e ca3d 556c d3be e1e8 bd3e 4732 8b3e
000001c0: 396f a4be ee44 053f ab08 e13e 0186 e53d
000001d0: e1c7 07bc 851a 0bbf 13af d83e 000c 2c3e
000001e0: a0e4 4abd 98e8 0a3e 9a5f e2bd 736a 043e
000001f0: 256f 85be 4597 e5bb fa93 b13e 0de9 be3e
00000200: 4444 0a3d 8cff 8bbe 2589 a3ba 3de3 d5be
00000210: 4480 b23e 98ea cabe e4ab 333f baa7 063f
00000220: 3d78 49bf a17e b53e 4854 073f ae37 ebbd
00000230: 0b76 133f 483a 75be c988 febe bb5b 6ebe
00000240: 90c9 8a3e cec9 c93e 5af9 533f f551 cb3e
00000250: 27d3 22bf dac9 e5be 868c f13e d4da a8be
00000260: 093d 3cbf e8c5 783e f03f 1c3f e826 46bf
00000270: 97ff 14be 4c7a dc3e 0afc 20be 94a2 b2bc
00000280: 49ca 083d 1c44 e7be 24a1 6c3e 95e4 993d
00000290: 83f4 c53e 22b7 183f 5c7f 6a3f 68bd f13e
000002a0: 0d44 933e 1b42 06bb c4bb 1dbe f147 643f
000002b0: c9c5 d6bd 3d45 523f 2536 003f aa24 913e
000002c0: 7cf6 ecbd 3107 6ebe a0be ba3e 6017 7a3e
000002d0: b561 9b3e fa9a 973e 237b 8fbe 3bf0 29bd
000002e0: d62e 99be 4b7a 52be f38c 20bf 5497 09bf
000002f0: a32f 51be c366 f8be 07ec 3dbc 9360 e4bd
00000300: 5b54 a43e 0899 303f b95a 16bf ad37 01bf
00000310: 5cc1 f7bd 0973 cdbd 7ea2 48be 2f9b 5bbd
00000320: cc45 443e e69d b6be 1678 0a3f 721d 2dbd
00000330: 1309 163f e338 e5be 475c 753e e61e b4bd
00000340: e87e 0bbe 1473 1d3d d980 153e afe2 68bf
00000350: 8fa4 d4be 3332 bebe a2aa 3ebf c833 a0be
00000360: 9830 34be bdbd f73e 1333 133b 45b1 863e
00000370: fb0d 383f 2d61 273f d3d0 d2bd f793 e43e
00000380: 96c7 a5be fdf4 883e 9b05 a7be b31f 153e
00000390: 8f50 d83e 3e6e 30bd 2de3 bdbe 1232 2ebf
000003a0: 8426 803d 86fa 57bf da58 43be 3d74 7f3e
000003b0: 8508 c5bc 8b7a 0a3e d529 343f ec2c 233d
000003c0: cc5e 35bc ad00 e43d 1ae3 c9be 79b9 aebe
000003d0: bdb2 703f 73f7 a6be c539 b83e 0c43 643e
000003e0: 1746 bdbe c6ad 093e a07c 26be 4b7b 593f
000003f0: 55f3 e43d febd 183f ecbb 93bd 17e7 033f
0.50889516 0.7699913 0.38832176 -0.043378286 -0.6354272 -0.5743399 -0.36197373 -0.03962225
0.13747796 0.12058392 -0.7098537 -0.008991058 -0.50828314 0.28871924 0.47677335 -0.10575139
-0.23295857 0.41035047 -0.08029148 -0.5079436 0.5809054 -0.4821687 0.31725547 -0.21096402
0.017270489 0.28788185 -0.66327864 -0.0021215098 -0.39673042 0.108226754 0.41010994 0.06905233
-0.30156916 0.50704217 -0.6208851 0.21640489 0.6280438 -0.32499966 0.29170024 0.20172022
-0.5266923 -0.17675705 0.32428896 -0.6968052 -0.36984313 0.9211216 0.42323175 0.70633554
0.06092123 -0.11286712 0.7426396 0.16314632 0.4391015 0.20228074 0.54343724 -0.012434924
-0.47901842 0.35760912 0.5280152 -0.4084948 0.33364874 -0.286134 -0.38047346 -0.06513312
0.539082 -0.12549454 0.6254948 -0.4778225 0.38001123 -0.30139858 -0.3154499 0.098301224
-0.06657643 -0.37690815 -0.26150945 0.53396076 1.2589924 -0.31240875 0.06162833 -0.11669654
0.08237762 -0.11240862 -0.68022776 0.5392926 0.4197602 -0.47846302 -0.5874405 0.65230215
0.40756255 -0.39485207 0.28720742 -0.7469227 -0.31958973 0.041908342 0.4346497 -0.35631943
0.6264315 0.34331068 0.77952015 -0.25629863 0.36142614 0.27870983 -0.92445165 0.851318
0.24553905 -0.062201213 0.48464802 -0.05229179 0.098934695 -0.41293588 0.37091735 0.27186796
-0.32116106 0.52058303 0.43951926 0.112072 -0.008287401 -0.5433734 0.4232107 0.16801453
-0.04953444 0.1356529 -0.11053391 0.12931232 -0.2606136 -0.007006558 0.3468321 0.3728718
0.03375651 -0.27343404 -0.0012476785 -0.41774932 0.34863484 -0.39632106 0.7018416 0.5259968
-0.78699094 0.35448173 0.5286298 -0.114852294 0.57601994 -0.23948014 -0.49713734 -0.2327718
0.27106905 0.39411777 0.82802355 0.39710966 -0.6360344 -0.44880563 0.47177523 -0.32979453
-0.7353063 0.24294245 0.6103506 -0.77403116 -0.14550625 0.43062055 -0.15721145 -0.021806039
0.03339604 -0.4516915 0.23108345 0.07514302 0.3866311 0.5965444 0.91600585 0.47214818
0.28762856 -0.002048618 -0.15403658 0.89172274 -0.10486943 0.821369 0.5008262 0.28348285
-0.11570451 -0.23244931 0.3647356 0.2442298 0.30347982 0.29610425 -0.28023633 -0.041488867
-0.29918545 -0.20554464 -0.6271507 -0.53746533 -0.20428328 -0.485159 -0.011591918 -0.111512326
0.32095608 0.6898351 -0.5873218 -0.5047558 -0.12097427 -0.10031707 -0.19593236 -0.05361479
0.1916725 -0.35667342 0.54089487 -0.04226441 0.58607596 -0.44769964 0.23960982 -0.08794956
-0.1362263 0.038439825 0.14599933 -0.9097089 -0.41531798 -0.37147674 -0.74479115 -0.31289506
-0.17596662 0.48386946 0.0022460863 0.2630712 0.7189633 0.65382653 -0.10293736 0.44644138
-0.32378834 0.2674941 -0.32621464 0.14562874 0.4224896 -0.043073885 -0.37087384 -0.6804515
0.06257346 -0.84366643 -0.19076863 0.24946685 -0.024051914 0.13523309 0.7037633 0.039837763
-0.011069965 0.111329414 -0.39431077 -0.3412588 0.9402273 -0.32610664 0.35981575 0.22291201
-0.36967537 0.13445196 -0.16258478 0.84953755 0.111792244 0.59664905 -0.07213578 0.5152449

decoder.network.0.bias f4 [128]
00000000: 37f8 c7be e0b7 e43d 2899 763e 4791 483e
00000010: 95de 273d 3ac1 073f 4cdd 4e3d 818d 823e
00000020: 7631 71be 4a55 913e 49f0 b43e 9003 04be
00000030: 19fb 0e3e c12c ab3e 63a7 54be 2be9 0f3f
00000040: 5b5f 1dbf 8da4 3f3f 6c4d 013f 2062 f53e
00000050: 0b7e e13d a55f 8ebd 5127 123e b0cc 6dbe
00000060: c441 1fbe 714f 433f d675 813d adb5 373c
00000070: 5b24 ee3e 6ffd 173f f1c6 3c3e 1c91 993e
00000080: 696f 263f 3466 efbe 63e2 b43d fabb adbe
00000090: 221e 50bf 1aec 78bd c29b 9f3e c2ca a0be
000000a0: 18c5 a8bd 8010 543e ae81 843e 4035 823b
000000b0: 4abd 7d3e 8ddf b4be 79c1 003e 27bc a4be
000000c0: 0114 b8be 3fa0 743e 0df4 f23e ee78 473f
000000d0: 98ce c33e 05b8 5f3e 29e0 2c3f 3dc0 fb3e
000000e0: b838 edbe c75f 6b3d 67c5 bd3e cd79 8fbe
000000f0: 0307 58be 081d 00bd 0204 de3e 4e8f 5c3f
00000100: 5675 1a3c 149f 83be 1eac 32bf 9e3f db3e
00000110: 3c5e 2b3e 1b5f 063f 1085 20bd 1015 abbb
00000120: 5660 80be d968 4e3e c0ac 86be 9195 e9bc
00000130: b3fd 8f3e 0766 4c3e c721 f0be ccce 1b3f
00000140: 81a1 c23e 5da1 8a3e 3036 84be 8e23 6c3f
00000150: f8c5 353f c334 1ebf 712e 89be 30f8 78ba
00000160: 6323 163f 604a 96bd 234c 9e3e ef6f a33d
00000170: f5b9 d4bc 81ac 4a3e 378b c5be c846 b03e
00000180: 6ebf 023f 9126 f5be 1d4b b1bd bbd4 f93e
00000190: a410 413f 0ff0 903e 51ec 8fbe aa37 b93e
000001a0: e80c 183f b58f 533f afe0 03bf 35ed 7b3e
000001b0: 01a4 0cbf 1dfa 813d f686 62be a4fe 49be
000001c0: a03b 0a3f 6c0a 08bd 7a01 4a3f 9608 8f3e
000001d0: 6009 0f3f 6cdf 503e ad3f ecbd 24aa b2bd
000001e0: 3a17 0ebe ddd7 37be 516e 163e 6e93 1ebe
000001f0: 8f81 17be 5115 e9be 679c 2b3e a851 bdbd
-0.3905656 0.11167884 0.24081862 0.19586669 0.040983755 0.53029215 0.050504014 0.25498584
-0.23554024 0.28385383 0.35339573 -0.12891984 0.13962974 0.33432582 -0.20766978 0.5621516
-0.61473626 0.7486046 0.5050876 0.47926426 0.11010369 -0.069518365 0.1427281 -0.23222613
-0.15552431 0.7629309 0.063213035 0.0112127485 0.46512112 0.59371084 0.18435265 0.29993522
0.6501375 -0.46757662 0.08832242 -0.33932477 -0.8129598 -0.06077204 0.3117352 -0.31404692
-0.08240718 0.20709419 0.25880188 0.003973633 0.2477924 -0.35326806 0.12573804 -0.321748
-0.35952762 0.23889254 0.4745182 0.779189 0.38243556 0.21847542 0.6752954 0.49170104
-0.46332335 0.057464387 0.3706467 -0.28022614 -0.21096425 -0.031277686 0.43362433 0.86156166
0.009427389 -0.25707304 -0.6979388 0.42821974 0.16735166 0.5248887 -0.0391894 -0.0052210167
-0.25073498 0.20157184 -0.26303673 -0.028513702 0.28123245 0.19960795 -0.4690077 0.6086242
0.38013843 0.27076235 -0.25822592 0.9224175 0.710052 -0.6179926 -0.26793244 -0.0009497432
0.58647746 -0.07338405 0.30917463 0.07980334 -0.025967577 0.19792368 -0.38582775 0.34429002
0.5107335 -0.47880986 -0.08656905 0.48795113 0.75416017 0.2830815 -0.28109983 0.3617528
0.59394693 0.82641155 -0.51514715 0.24602206 -0.5493775 0.063465334 -0.22121796 -0.19726044
0.5399723 -0.033213064 0.78908503 0.27936238 0.5587368 0.20397729 -0.11535583 -0.08723858
-0.13876048 -0.17953439 0.1469052 -0.15485927 -0.14795516 -0.45524076 0.16758882 -0.0924409

decoder.network.2.weight f4 [128, 128]
00000000: 4a49 dfbd 43c6 cbbd 8789 833d 904c aabc
00000010: 9055 283d 8225 ca3d 713b 57be a423 ccbd
00000020: 2610 acbc 398e 30be 77c1 e33d 1167 bb3d
00000030: d13d 06be 6ff6 77be c047 173e 8bbb dc3d
00000040: 9ec8 c5bd e5ed 053e 7a1a c13c 81b2 03be
00000050: d824 26bd 4435 27be 6623 c6bc f7ee 1f3e
00000060: 233f f8bd a783 673e 9bd9 e7bd fb05 b3bd
00000070: bab3 333c 32aa a63d e754 4bbe d924 8b3d
00000080: be77 5b3c 0507 aebe e61d 7c3d cfd6 1bbe
00000090: dbb8 a63d 9210 e8bd b9dc d43d f4c6 91bd
000000a0: 1c14 99be 65bc 083d 28b4 883c 8616 273d
000000b0: 1558 d73d 68bb 653d 7af9 4d3d 58fa 5d3e
000000c0: c392 aa3d 10c9 553e 1142 b93c 70f7 d43d
000000d0: 23f8 f13d 5f58 09bd fd88 35bc e395 803e
000000e0: 9e68 253c 670f c43c 434b 82bd 016b d8bb
000000f0: e794 1dbd 6b74 853d 1bf1 eb3c d026 063e
00000100: eb74 9dbd 4aeb 163c 14eb ee3e 2ac0 81bd
00000110: f9dd 39bd 2eb3 bd3d c619 2abe 05bd d6bc
00000120: cdf9 913d c60a 88bb 88e5 d5be ab42 c4bd
00000130: 13df f03d c7bc 85bd 01ec 73be 1ac4 72bc
00000140: 21f7 26bc 9ece 7fbc 13e7 84be ddd5 683e
00000150: 556a a13e 2aab 19be 815f 50be 1aab b13d
00000160: 26e0 033e 73b9 293c f62d 663d c0b5 393d
00000170: 21e5 3e3d b54c 423e 1c94 c6be 1bf2 98be
00000180: 1c8e e0bc e9ea 99bd b36d ab3c e953 9c3d
00000190: 09eb 223e 2f02 9b3d ad3b 03be 0e79 91bc
000001a0: 69fd 213e d8ce 143e e6e4 d63d 1777 113d
000001b0: 2adb 8dbc 35bc c83d 3979 8e3d 54a6 5e3e
000001c0: 4827 b2bc 3df7 b03d a59d 2b3e c353 bc3d
000001d0: a125 243d 0489 cabd 0b3f dd3d e4e7 c4bb
000001e0: 5467 173e 1350 903d deaf 083e 25d8 ae3d
000001f0: 4f5f a33d d199 81bd b028 32bd 65b4 22be
00000200: 4e9e 713e 9421 d2bd 131e b9bd 199b 8ebd
00000210: 4be4 b53d bfef 623d ad37 15be 1dd2 683e
00000220: f0a6 abbe 13a9 3c3e 5245 b639 3866 bfbe
00000230: 50ff 36be 5fdd abbc bd26 97bd 119c 3d3e
00000240: d919 2cbd 166c b63d 6a33 c83d 0ac8 b0bc
00000250: b112 303e 6e8e 4ebe 3c9c 14be 20d7 db3e
00000260: 0f90 863b be90 173e 7157 bebd 0931 a53e
00000270: 0ccc 39bc f363 a53d b7c2 ac3d 79f7 c63d
00000280: db66 f83d c65c b5be 5e2e d0bd c90f 28bf
00000290: d038 5e3e 35c3 a93d 47f5 363e 83af 12bd
000002a0: 31a0 f33d c0d1 263e b9ba e6ba e662 e3bd
000002b0: ce09 623d dc3a 11be 5707 1a3e 7b7c 9b3e
000002c0: 6723 2c3e 8fec 103e 8d41 73be 55c2 3b3e
000002d0: eaab abbc 1ac1 2c3d 245a 813e e09a 003e
000002e0: b1e8 923e 8c6b 4b3d 5c64 12be 2057 27be
000002f0: 33c6 80be b602 203d 6947 5b3e ac60 ae3c
00000300: 7196 fcbd 3fd0 ba3e 0f21 c9be b2fb 173e
00000310: 63be 033d 3011 9a3e 0c25 403e 787e e73d
00000320: 3d57 d1bd 1a0f 9f3d b828 a53e 5f3a 923c
00000330: 4060 1f3e da84 d23d c632 edbe a2c9 083e
00000340: d956 823e a064 9d3d a4f2 dfbc a99f fcbd
00000350: e2f2 c73d b3fd 9b3d 94bc 473d a8a1 913d
00000360: 5d10 753e 7735 5bbc 3949 283d 58e1 14bf
00000370: 5932 bdbc d41c e53d ceb7 e5be 1ae5 5d3e
00000380: e955 be3d 360b c7be e5f0 b1bd c7bb 483e
00000390: 7c32 95bd 0b65 403e 2ed4 aa3e e481 89bd
000003a0: 41d5 fc3d 1ad7 b4bc 43cb 0f3f fd50 e83d
000003b0: 63b0 b23e c235 033e 3f45 873d fb33 023e
000003c0: 07ec 15be a412 ef3b 85d9 123e 4db5 f43d
000003d0: 0444 39bd 09c0 873c 9437 08bf 4784 a33e
000003e0: 1bc8 0abe 7754 cbbd a958 413d 66eb d13e
000003f0: 3d87 7b3e 64c4 e13e 4fe5 f23d dfb6 2ebe
-0.10902651 -0.09949925 0.06422716 -0.020788461 0.041097224 0.09870435 -0.21018769 -0.099677354
-0.021003794 -0.17241754 0.11120885 0.09150518 -0.13109519 -0.242151 0.14773464 0.107779585
-0.09657405 0.13079031 0.023572195 -0.12861063 -0.04056248 -0.16328913 -0.024186801 0.15618502
-0.121214174 0.22608815 -0.11320802 -0.08741375 0.010968143 0.08137931 -0.19856606 0.067941375
0.013395248 -0.3398973 0.06155195 -0.15218662 0.08140727 -0.113312855 0.10393662 -0.071180254
-0.29898155 0.033382792 0.016687468 0.040792964 0.10514847 0.056086928 0.050286748 0.2167753
0.08328774 0.2087748 0.02261451 0.103987575 0.118149064 -0.033531543 -0.011080024 0.25114354
0.010095743 0.023933126 -0.06362011 -0.0066045527 -0.038472082 0.065163456 0.028801491 0.13100743
-0.07688316 0.009211371 0.46663725 -0.063354805 -0.045377705 0.092626914 -0.16611394 -0.026213178
0.07127724 -0.004151675 -0.4177668 -0.095830284 0.11761298 -0.06530147 -0.23820497 -0.014817262
-0.010190756 -0.015613226 -0.25957546 0.22737832 0.31526437 -0.150067 -0.20348932 0.08675213
0.12878475 0.010359156 0.056196176 0.045339346 0.046605233 0.18974574 -0.38784873 -0.29872212
-0.027411513 -0.07515509 0.020926332 0.07633192 0.15909971 0.07568776 -0.12815733 -0.017757919
0.15819325 0.1453203 0.10492878 0.035513964 -0.01731642 0.09801523 0.06956715 0.21743137
-0.021747246 0.08640907 0.16759355 0.09195664 0.04007495 -0.09889415 0.1080304 -0.006009089
0.1478551 0.07046523 0.13348338 0.0853732 0.07977163 -0.06328166 -0.043495834 -0.15889128
0.23595545 -0.10260311 -0.09038939 -0.06963176 0.08881434 0.05540442 -0.1457202 0.22736402
-0.335258 0.18423872 0.00034765393 -0.37382674 -0.17870831 -0.020979581 -0.073804356 0.18516566
-0.042016838 0.089073345 0.097754315 -0.021579761 0.1719463 -0.2017152 -0.14512724 0.42937565
0.0041065286 0.14801309 -0.09294022 0.32263973 -0.0113401525 0.080757044 0.084355764 0.097151704
0.12128993 -0.35422343 -0.10165094 -0.65649086 0.2170136 0.08289186 0.17867003 -0.035811912
0.118957885 0.16290951 -0.0017603255 -0.11102848 0.05518513 -0.1418261 0.15041862 0.3036841
0.1681038 0.1415274 -0.23755474 0.1833585 -0.020955998 0.042176344 0.25264084 0.1255908
0.28693154 0.04966311 -0.14296097 -0.1634183 -0.25151214 0.039065085 0.2141396 0.021286331
-0.12333382 0.36487004 -0.39283034 0.14842108 0.03216399 0.30091238 0.18764132 0.11303419
-0.102217175 0.07766552 0.32257628 0.0178501 0.1556406 0.10279246 -0.463278 0.13358167
0.25456885 0.07685208 -0.02733738 -0.1233514 0.09763123 0.07616749 0.048763826 0.071109116
0.23932023 -0.013379446 0.041085456 -0.5815635 -0.023095297 0.11187139 -0.44866794 0.21669427
0.0929373 -0.3887574 -0.08688525 0.19602881 -0.0728502 0.18788545 0.33365005 -0.06714228
0.123453625 -0.022075225 0.5616953 0.11343572 0.34900197 0.12813476 0.066050045 0.12715141
-0.14640819 0.0072959233 0.1434079 0.11948643 -0.04523088 0.016571062 -0.53209805 0.31936857
-0.13552897 -0.0992822 0.047203694 0.40999907 0.24563308 0.44095147 0.118601434 -0.17061947
