models/mnist_vae_dims_128/vae_6d.pth (torch, 952986 bytes, 14 tensors)

encoder.network.1.weight f4 [128, 784]
0	0xbb592b13	-0.0033137247
1	0x3cdf52ca	0.027261157
2	0x3d0f0e8f	0.034925994
3	0x3c7cd1f8	0.01543092
4	0xbca5c33e	-0.0202347
5	0x3cd5623e	0.026047822
6	0x3c2c860e	0.010530008
7	0xbc7491d8	-0.01492735
8	0x3cba6ac7	0.022755994
9	0xbb36f25c	-0.0027915454
10	0xbbc309d3	-0.005952099
11	0x3d10c65b	0.035345417
12	0x3b4942dc	0.0030710017
13	0x3cc76523	0.024340218
14	0xbbd1bd41	-0.0064007347
15	0xbce2ca63	-0.027684396
16	0x3cdd594e	0.027020123
17	0xbcf1a3ca	-0.029497046
18	0xbcb94b01	-0.022618772
19	0x3ba1cdc0	0.0049378574
20	0xbd0ae4f4	-0.033909753
21	0x3bdad28a	0.0066779302
22	0xbbf9462e	-0.007607243
23	0xbc9bd68c	-0.019023202
24	0xbbe5f7b8	-0.0070180558
25	0xbd09ac20	-0.033611417
26	0xbcd53757	-0.026027365
27	0xbc90d925	-0.017681668
28	0xbb86ff80	-0.0041198134
29	0x3d0b011a	0.033936597
30	0xbcbb1661	-0.02283782
31	0xbc82def0	-0.015975446
32	0x3cc4e24e	0.024033692
33	0xbc2b3cc1	-0.010451497
34	0xbbbb6a1c	-0.0057194363
35	0x3d09ce63	0.03364409
36	0x3c71cda2	0.014758499
37	0x3891953b	6.941935e-05
38	0xbc3ea325	-0.011635576
39	0xbc5fe02e	-0.013664288
40	0x3caa8843	0.020816928
41	0x3d061f50	0.032744706
42	0x3d0e9d35	0.034817893
43	0x3aeec0b8	0.0018215394
44	0xbb4d6d01	-0.003134549
45	0xbcf2b2a1	-0.029626193
46	0xbc4a8a93	-0.01236214
47	0xba90e4b7	-0.001105449
48	0x3bc70dee	0.0060746586
49	0xbcbcd37c	-0.023050062
50	0xbd043c45	-0.03228404
51	0x3ce14e8e	0.027503278
52	0x3c909967	0.017651273
53	0xbc4777e5	-0.012174581
54	0xbc00187c	-0.0078183375
55	0xbcce603e	-0.025192376
56	0xbba77740	-0.0051106513
57	0xbcb1e34e	-0.021714833
58	0xbcb11c5c	-0.021619968
59	0xba7ca325	-0.00096373475
60	0xbcfc9e81	-0.0308373
61	0x3bcc81ee	0.0062410748
62	0xbc83117a	-0.015999544
63	0xbbdafa93	-0.006682703
64	0x3c8bad70	0.017050475
65	0x3be30f68	0.006929327
66	0xbbbd1cc3	-0.005771251
67	0xbc9767a3	-0.018482035
68	0xbc70b381	-0.014691235
69	0xbcad37ff	-0.021144865
70	0xba8834ba	-0.001039169
71	0x3baf0cda	0.005342108
72	0x3c1566ff	0.009118794
73	0x3cfcdf9d	0.030868346
74	0x3ce0ea66	0.02745552
75	0xbcf99a8e	-0.030469205
76	0xbcf1e32a	-0.029527266
77	0xbc7a574e	-0.015279604
78	0xbcbbc49a	-0.022920895
79	0xbca488ee	-0.020084824
80	0x3c5ffa8e	0.013670577
81	0x3cfbee5a	0.030753303
82	0xbcf91a43	-0.03040803
83	0x3a181adc	0.0005802342
84	0xbc59f737	-0.0133035695
85	0x3cbf48ce	0.023350146
86	0xbc395161	-0.011310906
87	0xbd0ed550	-0.0348714
88	0xbc027997	-0.00796356
89	0x3bd744ae	0.0065694666
90	0x3cd7ab2e	0.026326742
91	0xbc6168ce	-0.013757898
92	0x3bd78fee	0.006578437
93	0xbb0a63f2	-0.00211167
94	0xbc6f1222	-0.014591726
95	0x3acc15ad	0.0015570425
96	0x3c59975c	0.013280716
97	0x3c8846bd	0.016635293
98	0xbbdce428	-0.0067410655
99	0xbce78cee	-0.028265443
100	0x3c0972a1	0.008389146
101	0xbd261e67	-0.040556338
102	0x3cf3cf65	0.02976198
103	0x3b8c386f	0.0042791883
104	0xbc405cd8	-0.011740886
105	0x3cfc368e	0.030787732
106	0x3b1128d1	0.0022149573
107	0xbc892438	-0.016740903
108	0x3b8b8f0a	0.004258995
109	0x3cc24bdc	0.023717813
110	0x3baf86d3	0.0053566485
111	0xbc35ce33	-0.011096525
112	0xbcc48501	-0.023989202
113	0x3cba2b0e	0.022725608
114	0xbcf5cf53	-0.030006086
115	0xbbddec0a	-0.006772523
116	0xbb6378dc	-0.003470949
117	0x3ca28c8c	0.019842409
118	0x3d0f7603	0.035024654
119	0xbc8c6caa	-0.017141659
120	0xbd18bb8f	-0.037288245
121	0xbcdc25dd	-0.026873523
122	0xbc000527	-0.007813728
123	0x3c2b758f	0.01046504
124	0x3c969b02	0.01838446
125	0xbceaa7f2	-0.028644536
126	0xbd12d0c1	-0.035843614
127	0xbc25a041	-0.010109008
128	0x3c180fb9	0.009281092
129	0xbc8c663b	-0.017138591
130	0xbc8b10a5	-0.01697571
131	0xbd02d841	-0.031944517
132	0x3b2a8016	0.0026016287
133	0xbcc123ee	-0.023576703
134	0x3bb9643e	0.0056577018
135	0xbd292bc7	-0.041301515
136	0x3d015b64	0.031581298
137	0x3cddf9ee	0.027096715
138	0x3c0b317c	0.008495685
139	0xbb815d40	-0.003947884
140	0xbce85835	-0.028362373
141	0x3cbf4741	0.023349406
142	0x3bb38a81	0.0054791574
143	0xbbccf281	-0.0062544947
144	0xbd015ba7	-0.031581547
145	0xbcb104c2	-0.021608714
146	0x3c80a55d	0.015703851
147	0xb933a7a3	-0.0001713322
148	0xbae0fd51	-0.0017165338
149	0xbd09d118	-0.033646673
150	0x3c0f985b	0.008764352
151	0x3ca280b3	0.01983676
152	0xbc932045	-0.017959723
153	0xbc4a8711	-0.012361304
154	0xbd1d1300	-0.038348198
155	0xbc40a0eb	-0.011757116
156	0xbd01514f	-0.031571683
157	0x3b363e0a	0.0027807974
158	0x3ca489f3	0.02008531
159	0x3ca7641c	0.020433478
160	0x3b05617e	0.00203523
161	0xbcee2b3c	-0.02907335
162	0x3cbe4ab6	0.023228984
163	0x3ceadebe	0.028670665
164	0xbcead6b0	-0.028666824
165	0xbc92b882	-0.017910246
166	0xbac7f725	-0.001525615
167	0x3c669265	0.014072989
168	0x3c7ff461	0.015622229
169	0xbc97cb3a	-0.018529523
170	0xbc38104e	-0.011234356
171	0x3badd91c	0.0053054225
172	0x3bbeb9a6	0.005820471
173	0xbc483300	-0.012219191
174	0xbc3ef69e	-0.011655478
175	0xbbe798d7	-0.0070677805
176	0x3d0eaae2	0.034830935
177	0x3c286963	0.010279032
178	0xbcb2d062	-0.02182788
179	0xbcfc07b9	-0.030765401
180	0xbd1090b7	-0.03529426
181	0xbcf2ef84	-0.029655226
182	0xbce54696	-0.02798776
183	0xbc9452b1	-0.018105837
184	0xbc91cb2b	-0.017797073
185	0xbc6e73f1	-0.01455401
186	0x3b70d170	0.0036745928
187	0xbcb7ed27	-0.02245195
188	0xbca5cf52	-0.02024046
189	0xbc5a95c2	-0.013341369
190	0x3c2e6e19	0.0106463665
191	0x3c010016	0.007873556
192	0x3cc86d4f	0.024466185
193	0xbc8e2dc9	-0.017355816
194	0x3c1892ea	0.009312371
195	0xbcc5e34a	-0.024156231
196	0x3cb219c5	0.021740803
197	0x3a1901b7	0.00058367423
198	0xbbaf3b6e	-0.0053476607
199	0xbae7364c	-0.0017640083
200	0xbc6bce77	-0.014392487
201	0x3d01fe9c	0.031736955
202	0xbcf24dda	-0.029578138
203	0x3cd586e6	0.026065301
204	0xbce73a00	-0.028225899
205	0xbc2e1d92	-0.010627167
206	0xb9b3215c	-0.00034166395
207	0xbac90561	-0.0015336686
208	0x3c89054f	0.016726164
209	0xbcfd4247	-0.030915393
210	0xbd0b17b9	-0.03395817
211	0x3ca3cb57	0.01999442
212	0xbcd80099	-0.026367472
213	0x3c079b29	0.008276739
214	0x3b9c51ec	0.004770508
215	0xbba81549	-0.0051294905
216	0xbb9e3917	-0.004828583
217	0xbb54e768	-0.0032486562
218	0xbccc845f	-0.024965463
219	0x3b0ec8c3	0.0021787144
220	0xbcc9a117	-0.024612946
221	0xbaf9cf44	-0.0019058962
222	0x3ab88a5c	0.001407932
223	0x3c571873	0.013128388
224	0xbcd60691	-0.026126178
225	0x3c8555ce	0.016276266
226	0x3c8f1087	0.017463936
227	0xbd0aad4d	-0.03385668
228	0xbd0e9a13	-0.034814905
229	0x3ceb7042	0.028740052
230	0xbd108f8b	-0.035293143
231	0x3b87a333	0.004139328
232	0x3cb9af2c	0.022666536
233	0xbd3c8f4c	-0.046035096
234	0x3c86693b	0.0164076
235	0xbd079174	-0.0330977
236	0xbc2cfe40	-0.010558665
237	0xbd1eebe6	-0.03879919
238	0xbd215623	-0.039388787
239	0x3bd430dc	0.006475551
240	0x3c657aef	0.01400636
241	0x3c862e68	0.01637955
242	0x3c46f5cf	0.012143566
243	0xbceb5928	-0.028729036
244	0xbcac1c08	-0.02100946
245	0xbd059c74	-0.03261991
246	0xbcc38013	-0.023864781
247	0xbcc2322b	-0.023705563
248	0x3d1cc28d	0.038271476
249	0xbc24f3b0	-0.010067865
250	0x3ceebcc0	0.029142737
251	0xbcea4f45	-0.028602252
252	0x3ba89313	0.0051444857
253	0x3c084393	0.008316892
254	0xbcf023b5	-0.029313901
255	0xbcfa5d69	-0.03056212

encoder.network.1.bias f4 [128]
0	0x3bd57386	0.0065140156
1	0x3dfc9276	0.12332623
2	0x3ea56b3c	0.32308376
3	0xbaf73167	-0.0018859328
4	0x3e1ea271	0.15491654
5	0xbc648800	-0.013948441
6	0x3e317276	0.1732882
7	0x3e6f619f	0.23377083
8	0xbdccc509	-0.09998519
9	0xba736512	-0.0009284775
10	0x3a40a275	0.0007348427
11	0x3e904f60	0.28185558
12	0x3e59a2be	0.21253487
13	0x3cb917e2	0.022594396
14	0x3e816803	0.25274667
15	0x3e7cc2d8	0.24683702
16	0xbc468d83	-0.0121187
17	0x3e932b11	0.28743795
18	0x3ea4ba54	0.32173407
19	0x3dd75947	0.10515075
20	0xbc20358f	-0.009778394
21	0xbdf7acdb	-0.120935164
22	0x3e0a28cc	0.13492125
23	0x3c559007	0.013034827
24	0x3e1dfd45	0.15428646
25	0xbd1062df	-0.03525054
26	0x3e5c5660	0.21517324
27	0x3e679a39	0.22617425
28	0xbd0f8532	-0.035039134
29	0x3e071cc6	0.1319457
30	0x3e0aa45d	0.13539262
31	0x3c1e71bb	0.00967067
32	0xbd97f795	-0.074202694
33	0xbb90fd26	-0.004424709
34	0xbd41c5ff	-0.047307964
35	0xbe78ebd1	-0.24308707
36	0xbd61f23f	-0.055162665
37	0x3e8daa02	0.27668768
38	0x3dac4330	0.084112525
39	0xbe7d448f	-0.24733184
40	0x3ddca8e6	0.10774402
41	0xbe124924	-0.14285713
42	0x3d8e5a7b	0.069508515
43	0xbd8b58bf	-0.06804036
44	0xbcc57a96	-0.024106305
45	0x3d9df30a	0.07712372
46	0x3e7adc12	0.24498013
47	0xbb428fc0	-0.0029687732
48	0x3c4ca5ec	0.012490731
49	0xbd548b50	-0.05189067
50	0x3e8544e9	0.26029137
51	0x3e313027	0.17303525
52	0x3e463dc7	0.19359504
53	0x3c607124	0.01369885
54	0x3d520564	0.051274672
55	0x3e984f04	0.29747784
56	0x3cb163f1	0.021654101
57	0xbe0b0bde	-0.13578746
58	0x3ec86546	0.39139766
59	0xbd0f64a9	-0.035008106
60	0xbd19e1a4	-0.037568703
61	0x3cee1eab	0.029067358
62	0x3d0a1d5f	0.033719417
63	0xbd200897	-0.039070692
64	0x3eaf9e02	0.34300238
65	0xbd09680c	-0.033546492
66	0xbe3cf67e	-0.18453404
67	0x3e3c1de3	0.18370776
68	0xba099ae5	-0.00052492163
69	0x3d3bce47	0.04585102
70	0x3e324a7a	0.17411223
71	0xbd18d055	-0.037308056
72	0x3ee9ddc3	0.45677003
73	0x3e04b0e2	0.129581
74	0x3e13d03a	0.14434901
75	0xbc61cf96	-0.0137824025
76	0x3e2c798c	0.16843241
77	0xbd1ed530	-0.03877753
78	0x3d9a4dde	0.07534383
79	0xbd9072d8	-0.07053155
80	0x3ba856d0	0.005137302
81	0x3dd934fe	0.106058106
82	0x3edb465b	0.42827114
83	0x3e822c54	0.25424445
84	0x3c40da9f	0.011770873
85	0x3e154808	0.14578259
86	0x3dac1503	0.08402445
87	0x3c56c6ff	0.013108968
88	0x3ecbba19	0.3979042
89	0xbd163268	-0.036669165
90	0xbc4748ea	-0.01216338
91	0x3efcd795	0.49383226
92	0x3d8c96c2	0.06864692
93	0x3ee0328d	0.43788567
94	0xbd00b72e	-0.031424694
95	0xbc929491	-0.017893108
96	0x3e6bf6ac	0.23043317
97	0x3cd9e426	0.026598047
98	0x3f03dd80	0.5150986
99	0x3f213a56	0.6297964
100	0x3e62fa74	0.22165853
101	0xbc91a902	-0.017780785
102	0xbc13ba99	-0.009016656
103	0xbd94bf35	-0.07263032
104	0xbbe41529	-0.0069605303
105	0xbc5cd509	-0.013478526
106	0x3c7da08b	0.015480171
107	0x3cb0cd02	0.02158213
108	0x3c89c105	0.016815672
109	0x3e0a71aa	0.13519922
110	0x3e0ac4bb	0.13551609
111	0x3de17ba8	0.11009914
112	0x3d8f64c2	0.0700164
113	0xbdf98083	-0.12182715
114	0xbccb4008	-0.024810806
115	0xbc2ea416	-0.010659238
116	0xbcd2f4db	-0.025751522
117	0x3e04d90d	0.12973423
118	0xbb2676bd	-0.0025400363
119	0xbc6d6def	-0.014491542
120	0xbd42bc3a	-0.047542788
121	0x3e1500f0	0.14551139
122	0x3e883a5d	0.26607028
123	0xbd3a7ebe	-0.045531027
124	0x3ee36b5d	0.4441785
125	0x3c415f51	0.01180251
126	0x3eff3b5c	0.49849975
127	0xbf103e05	-0.56344634

encoder.network.3.weight f4 [128, 128]
0	0xbcd0a595	-0.02546958
1	0xbe14ed7e	-0.14543721
2	0x3db28f9b	0.08718797
3	0x3d8669b2	0.065631285
4	0x3b47242c	0.003038655
5	0xbd53b2ad	-0.05168407
6	0xbde52084	-0.111878425
7	0xbdd4fdb6	-0.10399954
8	0x3d9035e5	0.070415296
9	0x3cc18553	0.023623144
10	0xbd9c4e18	-0.07632083
11	0x3e2587cf	0.16165088
12	0x3e4cb6a4	0.19991547
13	0xbd22d82e	-0.039756946
14	0xbe30ffce	-0.17285082
15	0x3d47cf04	0.04878141
16	0x3d4e34b6	0.050343238
17	0xbe00ed33	-0.12590484
18	0xbc8d5be5	-0.017255733
19	0xbdd26bdb	-0.10274478
20	0x3d850cf7	0.064966135
21	0xbdaec943	-0.085344814
22	0x3ccdc96d	0.025120461
23	0xbc9c902c	-0.019111715
24	0x3cb97461	0.022638502
25	0x3d5eeb49	0.054423604
26	0x3b0f3a71	0.0021854902
27	0xbd8f569c	-0.06998941
28	0xbd17bb6b	-0.03704397
29	0xbe0b822e	-0.13623878
30	0x3df080fd	0.117433526
31	0x3d371667	0.0446991
32	0x3ddd6ad2	0.1081139
33	0x3d585075	0.052811105
34	0x3d2a9411	0.041645113
35	0xbd4c0626	-0.04981055
36	0x3cf22a5d	0.029561216
37	0xbcaf07c6	-0.021366011
38	0x3e2ac64b	0.16677205
39	0xbd262055	-0.040558178
40	0xbdb6d388	-0.08927065
41	0xbe941328	-0.28920865
42	0x3ba1c0ff	0.004936337
43	0x3b8e23a3	0.0043377443
44	0xbd832a3b	-0.06404539
45	0xbaac4cbb	-0.0013145426
46	0x3d9fdf7d	0.07806299
47	0xbca14635	-0.019686798
48	0xbd810b87	-0.06301027
49	0x3d4d5290	0.050127566
50	0x3cb622a5	0.022233317
51	0x3daeb445	0.085304774
52	0x3c15271b	0.009103562
53	0x3d7189d5	0.058969337
54	0x3df3a22f	0.118961684
55	0x3d50d97a	0.05098865
56	0xbdd60dff	-0.10451888
57	0xbdaf89e8	-0.085712254
58	0xbe0ea761	-0.13931037
59	0x3d865c89	0.065606184
60	0xbd8151f8	-0.063144624
61	0x3d672bf1	0.05643839
62	0x3e077bf9	0.13230886
63	0xbd150520	-0.03638184
64	0xbd265175	-0.040605027
65	0x3c8b17bb	0.016979089
66	0xbdd6bbf6	-0.104850695
67	0x3dd2121d	0.10257361
68	0xbd0ad5e0	-0.033895373
69	0x3d9da6d8	0.076978385
70	0xbcb317dc	-0.021861963
71	0x3d232195	0.03982695
72	0xbc7b448a	-0.015336165
73	0xbdc6f4c6	-0.097146556
74	0xbe1ec75e	-0.1550574
75	0xbd9d2c85	-0.07674507
76	0xbe32ac75	-0.174486
77	0x3d4a3b8b	0.04937319
78	0x3dc255c2	0.09489013
79	0xbd08eee1	-0.033430938
80	0x3d8f51fa	0.06998058
81	0x3d73a755	0.059485752
82	0xbe0a0cfc	-0.13481516
83	0x3d541c58	0.051784843
84	0xbcdda9fc	-0.027058594
85	0x3d1b58d5	0.037926514
86	0xbdabbdde	-0.08385824
87	0xb9ca6b68	-0.00038608466
88	0x3e2867de	0.16445872
89	0x3d007106	0.031357788
90	0x3d8420c7	0.06451564
91	0xbce07ba1	-0.0274027
92	0xbd38b89e	-0.04509794
93	0xbd56909c	-0.052384004
94	0x3d2d3625	0.042287964
95	0xbd955552	-0.07291664
96	0xbe1de04f	-0.15417598
97	0x3d900117	0.07031458
98	0x3e194e67	0.14971314
99	0xbd17b2b6	-0.037035666
100	0x3d5067a2	0.050880082
101	0xbd33de55	-0.043913204
102	0xbd33e7dc	-0.04392229
103	0xbe80dfa7	-0.25170633
104	0xbd80c5ed	-0.06287751
105	0x3d67a00c	0.056549117
106	0xbd98af06	-0.07455258
107	0xbdc7d4ce	-0.09757386
108	0xbd7ce26f	-0.06173938
109	0xbd530a87	-0.05152371
110	0xbe15363b	-0.14571469
111	0xbe15717f	-0.14594077
112	0xbb782d33	-0.0037868738
113	0xbd04904a	-0.032364167
114	0x3c83cc4e	0.016088631
115	0x3d956f31	0.07296599
116	0xbd075e0d	-0.03304868
117	0x3d29f4f7	0.041493382
118	0xbe742722	-0.23843053
119	0x3d99453d	0.07483909
120	0xbd502619	-0.050817583
121	0x3ba4668f	0.0050171087
122	0x3d77b996	0.060479723
123	0xbce0b7b1	-0.02743134
124	0x3d836756	0.06416194
125	0xbdc51a27	-0.09624129
126	0x3e1a95ca	0.15096202
127	0xbdb18264	-0.08667448
128	0xbc846922	-0.016163412
129	0x3ba12fc1	0.004919023
130	0x3de13494	0.109963566
131	0x3c1d7b1b	0.00961187
132	0x3d169fc1	0.036773447
133	0xbb6862a8	-0.0035459194
134	0xbe15a5ee	-0.14614078
135	0x3d3e1a4e	0.046411805
136	0xbcaef9ef	-0.021359412
137	0x3d48365b	0.048879962
138	0xbd21ebdc	-0.039531574
139	0x3d26109c	0.040543184
140	0xbd449693	-0.04799516
141	0xbd8eba54	-0.06969133
142	0x3d345bc6	0.044032834
143	0xbd0b4aa3	-0.034006726
144	0x3cb8a787	0.02254082
145	0xbd222da5	-0.03959431
146	0xbd018603	-0.031621944
147	0x3d38538a	0.045001544
148	0x3d65a419	0.0560647
149	0xbd8202d2	-0.06348194
150	0x3e58998a	0.2115232
151	0x3c765c06	0.015036589
152	0x3d1063b6	0.03525134
153	0xbc968566	-0.018374156
154	0x3c6228a4	0.013803635
155	0xbcfc2c7f	-0.030782936
156	0xbd8ceb83	-0.06880858
157	0x3e145292	0.14484623
158	0xbde6aca2	-0.11263396
159	0xbd3d8ada	-0.046274997
160	0xbded83db	-0.11597415
161	0xbdab3d47	-0.08361297
162	0xbd99d425	-0.075111665
163	0xbd0fab36	-0.03507539
164	0xbccf3ed9	-0.025298523
165	0x3e01c3f6	0.1267241
166	0x3c63effa	0.013912195
167	0x3ca343d5	0.019929806
168	0x3dc563ce	0.09638177
169	0xbd866757	-0.06562679
170	0xbd0f1a53	-0.034937214
171	0xbd149a74	-0.03628011
172	0xbd48daf3	-0.04903693
173	0x3ba27b4a	0.004958545
174	0x3dc140dc	0.09436199
175	0xbcc27dd9	-0.02374165
176	0xbd8158e7	-0.06315785
177	0xbd85cf87	-0.06533723
178	0x3d98a74a	0.07453783
179	0x3deb0e12	0.11477293
180	0x3e48fcfc	0.19627756
181	0x3c79f8e9	0.015257099
182	0xbdd48a01	-0.10377885
183	0x3e0e56ac	0.1390025
184	0x3cccb855	0.02499024
185	0x3d4b9f21	0.049712304
186	0x3cedce2c	0.029028974
187	0xbc3eff55	-0.011657556
188	0x3db3598d	0.08757315
189	0x3dfa14a8	0.12210971
190	0x3d14ebfa	0.036357857
191	0xbced5591	-0.028971465
192	0x3dc6d35c	0.09708282
193	0x3d89c99c	0.06727907
194	0x3d7c1474	0.061542943
195	0x3e22b969	0.15891041
196	0xbc1d4907	-0.009599931
197	0xbe3a7501	-0.18208696
198	0x3cd178dc	0.025570326
199	0xbda31d74	-0.07964602
200	0x3dac60b5	0.08416883
201	0x3ce22bb4	0.02760873
202	0x3d31ff3f	0.043456312
203	0x3c333f45	0.010940378
204	0xbc3a2330	-0.011360928
205	0x3cc181b7	0.023621423
206	0xbd965e39	-0.0734219
207	0x3c813204	0.01577092
208	0x3d8ffb59	0.07030363
209	0x3cdba75b	0.0268132
210	0x3cff6fec	0.031181298
211	0x3d91729b	0.071019374
212	0x3dad7c16	0.08470933
213	0xba3222b3	-0.0006795332
214	0x3cebe0c6	0.028793704
215	0x3dac4ec1	0.084134586
216	0xbcf0f59d	-0.029413993
217	0xbd2ed72d	-0.042685676
218	0xbd226895	-0.03965052
219	0x3d2de17d	0.04245137
220	0x3d175f8e	0.036956362
221	0xbd36b331	-0.044604484
222	0x3da625b9	0.08112664
223	0xbd42bafc	-0.047541603
224	0xba90557e	-0.0011011807
225	0x3d6c04c0	0.057621717
226	0x3e2c0ca1	0.16801693
227	0xbe02b392	-0.12763813
228	0x3d3bc61d	0.045843232
229	0x3d9f2d5d	0.07772324
230	0xbbc9efe9	-0.0061626327
231	0x3d7a216d	0.061067034
232	0x3d7738b6	0.06035682
233	0xbd9f0a32	-0.077656165
234	0xbcb9e129	-0.022690373
235	0xbdab70b7	-0.08371108
236	0x3b8a2ed1	0.0042170067
237	0x3de9d690	0.11417878
238	0xbdc38a78	-0.09547895
239	0xbd753d7c	-0.05987309
240	0x3d15332a	0.036425747
241	0xbddd5936	-0.10808031
242	0xbc2f0faa	-0.010684887
243	0x3da2ce06	0.07949452
244	0xbcf4cb6e	-0.02988216
245	0x3d68c440	0.056827784
246	0xbcdbd2d3	-0.026833927
247	0x3b9df974	0.004820997
248	0x3cb51218	0.022103354
249	0x3d3dd31a	0.0463439
250	0x3d3ec77c	0.046576962
251	0xbd9d4acb	-0.07680281
252	0x3d9b0f60	0.07571292
253	0xbd5ead2c	-0.05436437
254	0x3d0e99d0	0.034814656
255	0xbd959e0c	-0.07305536

encoder.network.3.bias f4 [128]
0	0x3eab5575	0.33463636
1	0x3e106007	0.14099132
2	0xbdf7d871	-0.1210183
3	0xbda39200	-0.07986832
4	0x3f05d2d5	0.5227483
5	0xbdbfc6c0	-0.093640804
6	0xbc90b27f	-0.017663239
7	0x3d8990d1	0.06717075
8	0xbd7e907b	-0.062149506
9	0x3c23b1b7	0.009991101
10	0xbd932541	-0.0718484
11	0x3eb0caf1	0.34529832
12	0xbd5eefa4	-0.054427758
13	0xbda18d9c	-0.07888338
14	0x3e2dd24b	0.16974752
15	0xbc988c9e	-0.018621739
16	0x3de68e70	0.112576365
17	0x3e75ad16	0.23991808
18	0x3e74eb59	0.23917903
19	0x3e98abff	0.29818723
20	0x3ddc0b15	0.10744301
21	0x3d7202c8	0.059084684
22	0x3df53664	0.11973265
23	0x3d3380c1	0.04382396
24	0x3e4ca7f2	0.19985941
25	0x3e34af76	0.17645058
26	0xbdb85730	-0.09001005
27	0xbe384b02	-0.17997363
28	0x3e8052a6	0.25063056
29	0x3e3b7ca4	0.18309265
30	0x3efe9eae	0.49730438
31	0x3cc885d1	0.024477871
32	0x3e2c4907	0.16824733
33	0x3e90efa6	0.28307837
34	0x3d717ced	0.05895703
35	0x3d885e15	0.0665857
36	0x3d3082cd	0.04309349
37	0xbd803440	-0.06259966
38	0x3e45eca1	0.19328548
39	0xbda7251a	-0.081613734
40	0x3d3acf4c	0.04560785
41	0x3b9bd046	0.0047550527
42	0x3e7422b1	0.23841359
43	0xbd73d250	-0.05952674
44	0x3e093464	0.13398892
45	0xbe47e0e8	-0.19519389
46	0xbe03f7e8	-0.12887537
47	0xbddb8162	-0.10718037
48	0xbda37aad	-0.07982383
49	0x3dffba38	0.1248669
50	0x3d8e96d2	0.069623604
51	0x3d0aaf1e	0.03385841
52	0x3eb0aa14	0.3450476
53	0x3e8de380	0.2771263
54	0x3d253898	0.040337175
55	0x3da44ed1	0.080228455
56	0xbd451d67	-0.048123743
57	0xbda18bc8	-0.07887989
58	0x3e427fb3	0.18994026
59	0x3f1ca109	0.6118322
60	0x3db83785	0.089949645
61	0x3f4cb200	0.79959106
62	0x3e3692ef	0.17829488
63	0xbe240773	-0.16018467
64	0x3de5fdd3	0.11230054
65	0x3dd572a6	0.10422258
66	0x3d71cc4b	0.05903272
67	0x3df840b4	0.12121716
68	0x3e089f27	0.13341962
69	0x3ca3417c	0.019928686
70	0xbb8a21f4	-0.0042154733
71	0xbca4ce96	-0.02011804
72	0x3ddc1203	0.10745623
73	0xbc044269	-0.008072474
74	0xbd56b972	-0.05242295
75	0x3ced28f9	0.028950201
76	0xbdd38528	-0.10328132
77	0xbdb8c959	-0.09022779
78	0x3d87b568	0.06626397
79	0xbd6daf15	-0.0580283
80	0x3e866c47	0.26254484
81	0x3da54264	0.08069304
82	0xbd7ee250	-0.062227547
83	0x3d033353	0.03203137
84	0xbebc4426	-0.36770743
85	0x3d8568c9	0.06514127
86	0x3db156da	0.08659144
87	0x3eec05e6	0.4609825
88	0xbc2535c8	-0.010083623
89	0x3e37c405	0.1794587
90	0x3e028d15	0.12749131
91	0x3e215e3c	0.15758604
92	0xbda8b393	-0.08237376
93	0xbd3300a4	-0.043701783
94	0x3e295f33	0.16540222
95	0x3de321a1	0.110903986
96	0xbda72bdf	-0.081626646
97	0xbd98287b	-0.07429596
98	0x3c10ec68	0.008845426
99	0x3e41010c	0.18848056
100	0xbb92c369	-0.004478861
101	0xbdc2fdb9	-0.0952105
102	0x3d8b0514	0.06788078
103	0xbdb66267	-0.089054875
104	0xbcfb4d0d	-0.03067639
105	0x3e4b8db0	0.19878268
106	0x3b957f5f	0.004562303
107	0x3d7a8b14	0.06116779
108	0x3cab338c	0.020898603
109	0x3f002028	0.50049067
110	0x3dd4d622	0.10392405
111	0x3e8ba219	0.27272108
112	0x3e49da6e	0.1971223
113	0xbdde849c	-0.10865137
114	0x3ddc74be	0.10764454
115	0x3d25075d	0.040290225
116	0x3cf9c968	0.030491546
117	0x3e805756	0.25066632
118	0x3b30e297	0.0026990527
119	0xbd1a4651	-0.037664715
120	0x3e9242df	0.28566644
121	0x3e535f63	0.20641856
122	0xbce824bc	-0.028337829
123	0x3e0ad8bf	0.13559245
124	0xbc9b254b	-0.018938681
125	0xbdfbea62	-0.12300564
126	0x3ea8a7db	0.32940564
127	0x3db84dfd	0.0899925

encoder.output1.weight f4 [6, 128]
0	0xbe0fd8e2	-0.14047578
1	0x3d783082	0.060593136
2	0x3cda9a5c	0.026684932
3	0xbd29f10f	-0.041489657
4	0xbe490000	-0.19628906
5	0x3d4148a6	0.047188424
6	0xbd8e18f6	-0.06938355
7	0xbdc6f35e	-0.09714387
8	0x3cb8d5f1	0.022562953
9	0xbcfcfdee	-0.030882802
10	0xbd74e8c7	-0.059792306
11	0x3de3db6f	0.11125838
12	0xbd01eb94	-0.031718805
13	0xbd332a07	-0.043741252
14	0xbb08dd82	-0.0020883982
15	0xbda6e620	-0.081493616
16	0xbc4b90e6	-0.012424683
17	0x3e338005	0.17529304
18	0x3cecf6ff	0.02892637
19	0xbe80ce25	-0.25157276
20	0xbc4d8fc2	-0.012546482
21	0x3cfd133f	0.030892966
22	0x3e152003	0.14562993
23	0xbc1bb126	-0.009502685
24	0xbd81e91c	-0.0634329
25	0xbd708b39	-0.058726523
26	0xbddbeff0	-0.10739124
27	0xbd9a6696	-0.07539098
28	0x3dd3fcf1	0.10350979
29	0x3c1e75c0	0.0096716285
30	0x3cb713e0	0.022348344
31	0x3d241926	0.040063046
32	0xbd191b3c	-0.03737949
33	0xbcce6b26	-0.025197577
34	0xbc1c973b	-0.0095575405
35	0x3d8c2fac	0.0684503
36	0x3d148692	0.03626115
37	0x3d55413a	0.052064158
38	0xbe15a9b6	-0.14615521
39	0xbd6a35b5	-0.057180125
40	0xbdd97f2b	-0.106199585
41	0x3cf7ee32	0.030264948
42	0xbe33237b	-0.17494003
43	0x3c7d8e31	0.015475796
44	0x3d8f25c7	0.06989627
45	0xbded8aaf	-0.115987174
46	0x3d3450cf	0.044022378
47	0xbcff2a3b	-0.031148067
48	0x3c21237f	0.009835123
49	0x3d2f4e5d	0.042799342
50	0xbbe2cb79	-0.0069212285
51	0x3ca1f5f4	0.0197706
52	0xbdfc4f96	-0.12319867
53	0x3ce8422d	0.028351868
54	0xbd3c4096	-0.04596003
55	0x3d956b0e	0.0729581
56	0xbc89b990	-0.016812116
57	0x3ba4ccf9	0.0050293175
58	0xbcdfde02	-0.027327541
59	0xbc727bc6	-0.014800018
60	0xbdf54b1f	-0.11977219
61	0xbd1b41d3	-0.03790457
62	0x3ca697f9	0.020336138
63	0x3ceeefe7	0.029167129
64	0x3b949925	0.004534858
65	0x3d9f98a8	0.07792789
66	0x3c79dca4	0.015250359
67	0xbe20b071	-0.15692307
68	0x3d8d4105	0.06897167
69	0xbd9c90e0	-0.0764482
70	0xbe027272	-0.1273897
71	0xbd13158d	-0.035909224
72	0x3d1a52dd	0.03767668
73	0x3c85f12f	0.016350357
74	0x3cf46000	0.029830933
75	0xbb9a4f04	-0.0047091264
76	0xbd8d4fbe	-0.06899975
77	0xbc0865d3	-0.008325058
78	0xbd8b64a5	-0.06806306
79	0xbdcb3a1f	-0.09923195
80	0x3c9cbdd8	0.019133493
81	0xbd87aed1	-0.066251405
82	0x3c9f5668	0.019450381
83	0xbb3dafb6	-0.0028943843
84	0x3d31fd53	0.04345448
85	0x3d532fc9	0.051559243
86	0xbc4f403e	-0.012649594
87	0x3d5e6289	0.05429319
88	0xbd1413c1	-0.03615165
89	0x3e36216e	0.1778619
90	0x3dc12bef	0.09432208
91	0x3d560874	0.052254155
92	0xbc1a64f8	-0.009423487
93	0x3bfec10a	0.007774477
94	0xbe80944b	-0.2511314
95	0x3d92cc7b	0.07167908
96	0x3d0f31ef	0.03495973
97	0xbd13d742	-0.036093958
98	0xbd95a768	-0.07307321
99	0x3c8fec14	0.017568626
100	0xbd914596	-0.070933506
101	0x3d4d5ce5	0.05013742
102	0x3cf21ec7	0.029555691
103	0x3d52fec2	0.051512487
104	0x3da241a7	0.079226784
105	0xbe2a5729	-0.16634811
106	0x3db02541	0.086008556
107	0x3b85076c	0.0040597226
108	0xbcc0c801	-0.02353287
109	0x3d49ceb0	0.04926938
110	0x3da0d6e0	0.07853484
111	0x3e021f11	0.12707163
112	0xbdb903f6	-0.090339586
113	0x3d6e1138	0.05812189
114	0xbd861448	-0.06546837
115	0xbd72a1da	-0.059236385
116	0xbb0a9362	-0.0021144976
117	0x3de8739c	0.11350176
118	0x3d5c9463	0.05385245
119	0xbc860208	-0.01635839
120	0x3c0ddde5	0.008658861
121	0x3dda3ae8	0.10655767
122	0x3d84679f	0.06465077
123	0xbdd4d8d9	-0.10392923
124	0x37e335bd	2.7085533e-05
125	0xbc935307	-0.017983926
126	0xbc3197ab	-0.010839383
127	0x3e243253	0.16034822
128	0x3c75efc4	0.015010778
129	0x3d45f4fd	0.048329342
130	0xbd398882	-0.0452962
131	0xbd961610	-0.07328427
132	0x3da67caa	0.081292465
133	0xbc80e697	-0.015734954
134	0xbd24c6ba	-0.040228583
135	0x3d6d3c59	0.05791888
136	0xbcb5a5de	-0.022173818
137	0x3d5d6b5c	0.054057464
138	0xbc8ec0ab	-0.017425856
139	0xbc8e642d	-0.017381752
140	0xbcdc8082	-0.026916746
141	0x3ddbd931	0.10734785
142	0xbe51faa9	-0.20505776
143	0xbd99b03a	-0.07504316
144	0x3cb9271a	0.022601653
145	0xbb488fe5	-0.0030603346
146	0xbd17f445	-0.037098188
147	0xbe87e56c	-0.26542222
148	0x3d10fa90	0.035395205
149	0xbcaaa7c0	-0.020831943
150	0xbdf4b9b1	-0.1194948
151	0x3d833bd3	0.06407895
152	0x3e0944a1	0.13405086
153	0xbdc7bb27	-0.09752493
154	0xbd34f875	-0.04418226
155	0x3d58843b	0.05286048
156	0x3e1836ab	0.14864604
157	0xbe1a9fcd	-0.15100022
158	0xbdaec078	-0.08532804
159	0x3d13de07	0.036100414
160	0x3cd87f46	0.026427876
161	0x3d9aea82	0.0756426
162	0x3d1b0293	0.03784425
163	0xbda07a7e	-0.078358635
164	0x3d667bb9	0.056270335
165	0x3b9f43c0	0.0048603714
166	0x3e0c2251	0.13684966
167	0xbd303e7d	-0.043028343
168	0xbd2ee4e1	-0.042698745
169	0x3debbad9	0.11510248
170	0xbe46dda8	-0.19420493
171	0xbcae790e	-0.021297958
172	0x3c11b290	0.00889267
173	0x3b94febd	0.0045469687
174	0x3c0faa25	0.008768593
175	0x3d8bd26b	0.068272434
176	0xbdf7a0bd	-0.12091205
177	0xbe300c62	-0.17192224
178	0x3bc8165f	0.0061061825
179	0x3d2013e9	0.039081488
180	0x3c48abc8	0.012247987
181	0x3d868ab1	0.06569422
182	0xbd6a059a	-0.05713425
183	0xbe17b368	-0.14814532
184	0xbd80c2b5	-0.062871374
185	0x3d7222f9	0.059115384
186	0x3cacf90f	0.021114854
187	0xbd0c40f7	-0.034241643
188	0xbdf7f76b	-0.12107738
189	0xbb557bc3	-0.0032574988
190	0xbd5b35bc	-0.053518042
191	0x3d54c7a8	0.05194822
192	0x3d1596fd	0.036520947
193	0x3d42dfb9	0.04757664
194	0x3e28ec81	0.16496469
195	0x3db23c2b	0.087028824
196	0xbd31e0d5	-0.043427307
197	0x3b3749ff	0.002796769
198	0x3ce325d8	0.027728006
199	0xbd7480d7	-0.059693184
200	0xbd41d96a	-0.047326483
201	0xbd9ad153	-0.07559457
202	0xbd8beb6a	-0.06832011
203	0xbd9e5bc2	-0.07732345
204	0x3cfd9d3e	0.030958768
205	0xbd1b396a	-0.03789655
206	0xbdbf647c	-0.09345338
207	0xbc83b7d8	-0.016078874
208	0x3dea3a2a	0.11436875
209	0x3db8e738	0.090284765
210	0x3d6f451a	0.05841551
211	0x3e52166a	0.20516363
212	0xbd030007	-0.031982448
213	0xbcc70e3a	-0.024298776
214	0x3dbb5a21	0.0914805
215	0xbc0133fd	-0.00788593
216	0xbcd91aaa	-0.026501972
217	0x3e009e29	0.12560333
218	0xbd9fb748	-0.0779863
219	0x3d2e9804	0.042625442
220	0x3cc4013c	0.02392637
221	0x3dcf0a87	0.1010943
222	0xbca9cc1a	-0.020727206
223	0x3cbe5447	0.023233546
224	0xbcbb7131	-0.022881122
225	0xbd88e163	-0.06683614
226	0xbcbeea83	-0.023305183
227	0xbe0d6dea	-0.1381146
228	0x3d7ca4ae	0.06168049
229	0xbd9a9dc4	-0.07549623
230	0xbda3de77	-0.08001416
231	0x3c98f954	0.018673576
232	0x3a1adf76	0.0005907932
233	0xbc345f1b	-0.011009003
234	0x3d6858a8	0.056725174
235	0xbdcebef7	-0.100950174
236	0xbd0dda5b	-0.034632068
237	0xbe18a3b9	-0.14906205
238	0xbe4d75b7	-0.20064436
239	0x3d466265	0.04843368
240	0xbd99b31d	-0.07504866
241	0x3d714777	0.058906045
242	0xbdced809	-0.10099799
243	0x3b2c99ba	0.0026336745
244	0x3d180af3	0.037119817
245	0x3da760d0	0.081727624
246	0xbd774c64	-0.060375586
247	0xbcfffce4	-0.031248517
248	0xbddbd483	-0.10733893
249	0xbcae64f9	-0.021288382
250	0x3ce0c40c	0.027437232
251	0x3cdd2e16	0.026999515
252	0xbcee392b	-0.029079994
253	0x3ce829d9	0.028340267
254	0xbd1e62b0	-0.038668334
255	0xbdcec3fa	-0.10095973

encoder.output1.bias f4 [6]
0	0x3de146a4	0.10999802
1	0xbc94e758	-0.01817672
2	0xbd31a596	-0.043370806
3	0xbe548527	-0.20753919
4	0xbdcba9d4	-0.099445015
5	0xbe4664f8	-0.19374454

encoder.output2.weight f4 [6, 128]
0	0x3df68b78	0.1203832
1	0x3cda3ab5	0.026639322
2	0x3d66da24	0.05636038
3	0x3de866a7	0.113477044
4	0xbe8e7dbe	-0.2783031
5	0xbd1186fd	-0.035529125
6	0x3cd0b2d8	0.025475904
7	0xbd1dd152	-0.0385297
8	0xbcbace2b	-0.022803387
9	0xbd96cff0	-0.0736388
10	0x3dc93e01	0.098262794
11	0xbeb8bdff	-0.36082456
12	0x3dbd3e32	0.092403784
13	0x3d8c21db	0.06842395
14	0x3b002559	0.001955351
15	0x3d899934	0.06718674
16	0xbe02a0ab	-0.12756602
17	0x3d8ae9de	0.06782888
18	0xbdae2f49	-0.08505113
19	0x3cd5b1d5	0.026085773
20	0xbe46d72e	-0.19418022
21	0x3dfc2b54	0.12312952
22	0x3e2e3bf9	0.17015065
23	0x3d0cc9b6	0.034372054
24	0xbe3c83d9	-0.18409671
25	0xbe3a7ef6	-0.18212494
26	0x3d8676b5	0.0656561
27	0xbb1620f6	-0.002290783
28	0xbe420aec	-0.18949479
29	0x3d0c462c	0.03424661
30	0xbe81ca0d	-0.25349465
31	0x3db30285	0.08740715
32	0xbe15499e	-0.14578864
33	0xbe16ab39	-0.14713754
34	0x3ddf09b3	0.10890522
35	0x3c0cac3e	0.008585988
36	0x3d3531ba	0.044236876
37	0xbdadeb65	-0.084921636
38	0xbd77ace5	-0.06046762
39	0xbcc11571	-0.023569794
40	0xbdcda602	-0.10041429
41	0xbd9c06a4	-0.07618454
42	0xbb8d0078	-0.0043030344
43	0xbb7cc9ae	-0.003857236
44	0xbd1c8ede	-0.038222186
45	0x3d68c102	0.05682469
46	0x3cfa0470	0.030519694
47	0x3c58d2a5	0.013233815
48	0x3cd6e55b	0.026232412
49	0xbbc50b4c	-0.0060133096
50	0xbbb7c1c4	-0.0056078155
51	0xbd761b38	-0.06008455
52	0x3de515e4	0.11185816
53	0xbe222b82	-0.1583691
54	0x3da36663	0.07978513
55	0xbc956a42	-0.018239144
56	0x3cd7e326	0.02635343
57	0x3d181907	0.037133243
58	0xbdbfe76d	-0.09370313
59	0xbf065ca9	-0.5248514
60	0x3da1c100	0.0789814
61	0xbf20ac3c	-0.6276281
62	0xbda621ba	-0.081119016
63	0x3dc79e61	0.09747005
64	0x3dd56ae7	0.10420781
65	0xbe111598	-0.14168394
66	0x3dba1e1b	0.090877734
67	0xbd8cb3aa	-0.06870206
68	0xbe93ab17	-0.2884147
69	0xbd74fcbe	-0.059811346
70	0xbd57a945	-0.052651662
71	0x3d14f8bc	0.036370024
72	0xbdb361cb	-0.08758887
73	0x3d69b1e5	0.05705442
74	0x3b4229de	0.0029627006
75	0xbdbbe968	-0.09175378
76	0xbda85473	-0.082192324
77	0x3c403000	0.011730194
78	0x3d177df6	0.03698536
79	0xbd7070ef	-0.058701452
80	0xbe57e594	-0.21083671
81	0x3cee3a55	0.02908055
82	0xbcca067e	-0.024661299
83	0xbcf83c7d	-0.03030228
84	0x3e6f1efd	0.23351665
85	0x3d76bab9	0.060236666
86	0xbe18b62b	-0.14913242
87	0x3d350b40	0.044200182
88	0xbd4798e4	-0.048729792
89	0x3d99b620	0.07505441
90	0xbd9b228a	-0.07574947
91	0x3c0e7cf1	0.008696781
92	0x3d504930	0.050851047
93	0x3a30c3bc	0.0006743034
94	0x3e142e25	0.14470728
95	0x3d686fa0	0.05674708
96	0xbdd90866	-0.10597305
97	0x3c83d7ad	0.016094053
98	0x3cc795e7	0.024363471
99	0xbdba5a70	-0.09099281
100	0x3c86c554	0.016451515
101	0xbd0fc383	-0.035098564
102	0xbd883561	-0.06650806
103	0xbd663b51	-0.056208912
104	0x3d4e2731	0.050330345
105	0x3e112e5a	0.14177838
106	0x3da1bfcd	0.07897911
107	0xbdc11be4	-0.09429148
108	0xbda5705e	-0.08078073
109	0xbe96e6ae	-0.2947287
110	0x3da77152	0.08175911
111	0xbe085655	-0.13314183
112	0xbe1cccfc	-0.1531257
113	0x3c8446c4	0.016147025
114	0xbd8abd21	-0.06774355
115	0x3b849eb7	0.0040472406
116	0x3d9e70d0	0.07736361
117	0x3d561af5	0.052271802
118	0xbb9c6531	-0.004772805
119	0x3cdd840c	0.027040504
120	0xbe58d8df	-0.2117648
121	0xbe59d70f	-0.21273445
122	0xbd76e60a	-0.060277976
123	0xbda3b6f7	-0.07993882
124	0x3d99ed39	0.0751595
125	0x3d0ab844	0.033867136
126	0xbdecd43c	-0.11563918
127	0x3cb7e998	0.022450253
128	0xbdaf530c	-0.08560762
129	0xbd3e1b4c	-0.04641275
130	0x3d9855bb	0.07438227
131	0x3bd84128	0.006599564
132	0xbef80df5	-0.48448148
133	0x3bb04e5f	0.0053804363
134	0x3c05cdd0	0.008166745
135	0x3da65ed0	0.08123553
136	0x3d930712	0.07179083
137	0xbd9602fa	-0.073247865
138	0xbd879870	-0.06620872
139	0xbe175fca	-0.14782634
140	0x3db9d8d3	0.09074559
141	0x3cd6a0ce	0.026199725
142	0x3d1214b0	0.03566426
143	0xbc53bc35	-0.01292329
144	0x3c166c5d	0.009181109
145	0xbdea4332	-0.11438598
146	0x3cedd290	0.029031068
147	0x3cd313bd	0.025766248
148	0xbe5b038c	-0.21388072
149	0x3c6095c5	0.013707583
150	0x3d863171	0.06552399
151	0x3d879f90	0.06622231
152	0xbd82fa46	-0.06395392
153	0xbd72ec0a	-0.059307136
154	0x3e184c87	0.14872943
155	0x3b230859	0.0024876802
156	0xbe796f34	-0.24358827
157	0xbd2ca4ef	-0.04214948
158	0xbe5786a5	-0.21047457
159	0x3d2d3972	0.042291112
160	0xbe31feb2	-0.17382315
161	0xbdb67d71	-0.08910645
162	0x3d052cb2	0.032513328
163	0xbd51f582	-0.051259525
164	0x3d4050d2	0.046952076
165	0x3d4cd2a1	0.05000556
166	0xbdfe7db7	-0.12426322
167	0xbda5354d	-0.08066807
168	0xbe029327	-0.12751447
169	0xbe466650	-0.19374967
170	0x3e14d1b3	0.14533119
171	0xbb506ad3	-0.0031801953
172	0xbe1db48d	-0.15400906
173	0xbd1253cc	-0.035724446
174	0x3ddeebb3	0.108848
175	0x3b7997b2	0.0038084802
176	0x3db5da32	0.08879508
177	0x3dc5fd42	0.09667446
178	0xbc03ed21	-0.008052141
179	0xbd759d77	-0.059964623
180	0xbccd5739	-0.025066005
181	0xbe2c86b1	-0.16848256
182	0x3daa8db9	0.08327813
183	0x3ba902b1	0.0051577915
184	0xbd45bc35	-0.04827519
185	0x3d631abb	0.055445414
186	0x3d474c95	0.04865702
187	0xbecfaeb6	-0.4056298
188	0x3c967989	0.0183685
189	0xbf2c3586	-0.6726917
190	0x3ca57dac	0.020201527
191	0x3d8e5602	0.069499984
192	0x3c622e4f	0.013804986
193	0xbdd71cfd	-0.10503576
194	0x3c3752dc	0.011189189
195	0xbd03f500	-0.032216072
196	0xbe3aedcb	-0.18254773
197	0xbd62eb4d	-0.05540018
198	0xbcc1260f	-0.023577718
199	0x3c33c603	0.010972503
200	0x3c193e94	0.009353299
201	0x3d43327d	0.04765557
202	0x3d12902e	0.03578203
203	0x3d88a857	0.06672733
204	0xbc1e8094	-0.00967421
205	0x3dba5af5	0.0909938
206	0x3bd697a2	0.0065488378
207	0x3c12fbab	0.008971135
208	0xbd249a7c	-0.04018639
209	0x3cab3a9a	0.020901967
210	0xba77aeee	-0.0009448369
211	0x3daff8af	0.085923545
212	0x3e87948a	0.26480514
213	0x3cc79597	0.024363322
214	0x3b92e7b2	0.0044831866
215	0xbc1266aa	-0.00893561
216	0x3cf76db6	0.030203681
217	0xbce6c4a4	-0.028169937
218	0xbdf8082f	-0.12110936
219	0x3c359ff4	0.011085499
220	0x3d0599df	0.032617446
221	0xbce902fc	-0.028443806
222	0x3cdfd8bb	0.027325025
223	0xbc24a5e8	-0.010049321
224	0x3cfa09a0	0.030522168
225	0x3d851760	0.06498599
226	0x3ca1fcbf	0.019773839
227	0xbce4d318	-0.027932689
228	0xbd0b9a58	-0.03408274
229	0x3d894e35	0.0670437
230	0x3cd03cc1	0.025419595
231	0xbd61ab82	-0.055095203
232	0xbd5f4172	-0.054505773
233	0xbdf94c4e	-0.12172757
234	0x3d326bb0	0.04355973
235	0xbd4e6109	-0.05038551
236	0xbdacfd5b	-0.08446761
237	0xbe8e5029	-0.27795532
238	0x3d736108	0.059418708
239	0xbe4f63b1	-0.20252873
240	0xbe6a8701	-0.22903062
241	0xbcccce02	-0.025000576
242	0xbd79c116	-0.060975157
243	0xbd27e4ce	-0.04098969
244	0x3d8064fe	0.06269263
245	0xbd977e27	-0.073971085
246	0xbcd3d438	-0.02585803
247	0x3c90dd31	0.017683597
248	0xbc67deb1	-0.014152215
249	0xbdd4572f	-0.103681915
250	0xbdbe7222	-0.09299113
251	0xbe12d446	-0.14338788
252	0x3dca3df9	0.098751016
253	0x3d485af2	0.048914857
254	0xbb138e25	-0.0022515145
255	0x3cbaace6	0.022787523

encoder.output2.bias f4 [6]
0	0xbeab9fde	-0.33520406
1	0xbe0ad7c5	-0.13558872
2	0xbe85224a	-0.26002723
3	0xbd84a980	-0.06477642
4	0xbdd73e78	-0.10509962
5	0xbe05e339	-0.1307496

decoder.network.0.weight f4 [128, 6]
0	0x3e0aaf9a	0.13543549
1	0x3f16a706	0.5884861
2	0xbe23f810	-0.16012597
3	0x3e9dc981	0.30817798
4	0x3e84d41a	0.2594307
5	0x3f2b9f41	0.6703988
6	0xbf55973b	-0.83433884
7	0xbf0504aa	-0.5196024
8	0xbf1ffa5e	-0.62491405
9	0x3dc0491f	0.09388947
10	0xbedc7448	-0.43057466
11	0xbe8c5830	-0.27411032
12	0xbf3e9bef	-0.74456686
13	0x3f27b20c	0.6550605
14	0x3e129a5c	0.14316696
15	0xbeb2d2e1	-0.34926513
16	0x3cf9da88	0.030499712
17	0xbdc0343c	-0.09384963
18	0x3f5c9dd8	0.8617835
19	0x3edb264f	0.42802665
20	0x3ed7c42b	0.42141852
21	0xbd96ee3a	-0.07369657
22	0x3e5c2c12	0.21501186
23	0x3df3b272	0.1189927
24	0x3f2260da	0.63429034
25	0x3ed2d90d	0.41181222
26	0xbee512f6	-0.4474103
27	0x3ea114da	0.3146122
28	0xbf05c8f7	-0.52259773
29	0xbed903d1	-0.42385724
30	0x3f1a40bd	0.6025503
31	0x3f0743d4	0.5283787
32	0x3f2e3f44	0.68065286
33	0xbf0c5901	-0.5482331
34	0x3de1b0b6	0.11020033
35	0xbc91e56c	-0.017809592
36	0xbe472559	-0.19447841
37	0x3eaf8477	0.3428075
38	0xbf5fe530	-0.8745909
39	0x3ddd5338	0.10806888
40	0x3dd92dda	0.106044486
41	0x3e398e0d	0.18120594
42	0xbf1c997b	-0.6117169
43	0xbf0ac169	-0.5420137
44	0xbeee63fd	-0.4656066
45	0xbe9563c4	-0.29177678
46	0xbe8dbbe9	-0.27682427
47	0xbe4ec44a	-0.20192066
48	0x3ee3d8f6	0.44501466
49	0xbe1efbb2	-0.15525702
50	0x3f73a013	0.9516613
51	0x3c9ddd4d	0.019270563
52	0x3ca67db1	0.020323606
53	0xbe755989	-0.23959936
54	0x3f843e4f	1.0331515
55	0xbea30344	-0.3183843
56	0xbf1330d8	-0.57496405
57	0xbdebfd10	-0.11522877
58	0xbe0cadb2	-0.13738135
59	0xbe665d11	-0.2249644
60	0x3ed7767e	0.4208259
61	0xbd278683	-0.040899765
62	0xbf6abe5c	-0.91696715
63	0x3dda8961	0.10670734
64	0x3e46713b	0.19379131
65	0xbec24be5	-0.37948528
66	0xbf101c14	-0.56292844
67	0x3f2aa2c7	0.6665463
68	0x3e91f04a	0.28503639
69	0xbd196827	-0.037452843
70	0xbeae6d63	-0.3406783
71	0xbd986776	-0.074416086
72	0x3eb8ed86	0.36118716
73	0xbe9cc782	-0.30620962
74	0xbf06832d	-0.5254391
75	0x3e77b3bd	0.24189658
76	0xbe2a2480	-0.16615486
77	0x3e98a2df	0.2981176
78	0xbe16b3f0	-0.14717078
79	0xbe89a460	-0.2688322
80	0xbed61087	-0.41809484
81	0xbd80c01e	-0.062866434
82	0xbf6facde	-0.9362315
83	0x3d876b57	0.0661227
84	0xbe92381a	-0.28558427
85	0xbed92380	-0.42409897
86	0x3ebed3e3	0.37271032
87	0xbdaaec4b	-0.083458506
88	0x3e9ab589	0.30216625
89	0x3ebfea90	0.37483644
90	0x3f336adc	0.7008493
91	0x3de383b2	0.11109103
92	0x3ee2892e	0.44245285
93	0xbdd134ab	-0.10215124
94	0x3d9aee42	0.07564975
95	0xbf4bd0bd	-0.79615384
96	0x3f178f4e	0.5920304
97	0xbf1a65e3	-0.60311717
98	0xbea924aa	-0.33035785
99	0xbee3778b	-0.44427142
100	0xbeaf223c	-0.34205806
101	0xbf00e86c	-0.5035465
102	0x3f7d0d73	0.98848647
103	0x3ea829bc	0.3284434
104	0xbcc9c7d5	-0.02463142
105	0xbe81bc6d	-0.2533907
106	0x3c6ef565	0.014584874
107	0x3e7dba43	0.24778084
108	0xbed59f38	-0.41723037
109	0xbdb1c230	-0.086796165
110	0xbf3307a8	-0.6993356
111	0x3eac5503	0.3365861
112	0x3dddc281	0.10828114
113	0x3e70ef72	0.23528841
114	0xbe8f008d	-0.27930108
115	0x3e77a773	0.2418497
116	0x3efef7a4	0.4979831
117	0xbc78cc21	-0.015185387
118	0xbec046d8	-0.3755405
119	0x3ddb1ca8	0.10698825
120	0x3f43a533	0.7642395
121	0x3e608838	0.21926963
122	0xbf1e0384	-0.61724114
123	0xbd57bc59	-0.052669857
124	0xbe8ad84e	-0.27118152
125	0xbeaa7d6e	-0.3329882
126	0x3d8ce677	0.06879895
127	0xbeda80d5	-0.42676416
128	0xbd34f97e	-0.044183247
129	0x3eff21e3	0.4983054
130	0xbd9da86b	-0.07698139
131	0xbf4450a5	-0.76685554
132	0xbed07bea	-0.4071954
133	0x3ed5129c	0.4161576
134	0x3e93cb84	0.28866208
135	0x3eaac23a	0.33351308
136	0xbec83b68	-0.39107823
137	0xbe8103fc	-0.25198352
138	0x3ebcade5	0.3685142
139	0xbd3777ff	-0.04479217
140	0x3e9baa70	0.3040347
141	0xbd02110e	-0.031754546
142	0x3f834f21	1.0258523
143	0x3e32a8ba	0.17447177
144	0x3df47f52	0.11938347
145	0xbe928fa9	-0.2862523
146	0x3e3bfba7	0.18357717
147	0xbe6ae18e	-0.22937605
148	0xbf0e40d6	-0.5556768
149	0x3e2e017d	0.16992755
150	0x3f152f82	0.58275616
151	0xbdfde7c8	-0.123977244
152	0xbde2c745	-0.11073164
153	0xbef26371	-0.47341493
154	0xbebdf94f	-0.3710427
155	0x3f356336	0.7085451
156	0x3e8063e9	0.25076225
157	0xbda5c89d	-0.080949046
158	0x3ec3252a	0.3811429
159	0xbe912491	-0.2834821
160	0x3cea2d0d	0.028585935
161	0x3f3e6c3c	0.743839
162	0x3ebe7f48	0.37206483
163	0x3d6830dc	0.05668722
164	0xbf0096cc	-0.502301
165	0x3efe217d	0.49634925
166	0x3e1e3a60	0.15451956
167	0xbe9bb9b9	-0.30415133
168	0xbdaa2b82	-0.0830908
169	0x3f504560	0.8135586
170	0x3f28f196	0.6599363
171	0xbed75cb8	-0.42062926
172	0x3e2825db	0.1642069
173	0x3f00d0ef	0.5031881
174	0x3f0003ed	0.5000599
175	0xbf2a01bf	-0.66408914
176	0x3f23081c	0.6368425
177	0x3da18a1c	0.078876704
178	0xbf004023	-0.50097865
179	0xbea8cb63	-0.32967672
180	0x3e718839	0.23587121
181	0xbe952921	-0.2913294
182	0xbf7ec06f	-0.9951238
183	0x3dd85fce	0.10565148
184	0x3d332fd0	0.04374677
185	0x3dc92fc7	0.09823566
186	0x3e5d1f99	0.21594085
187	0x3f39d2a9	0.72587067
188	0xbe38a4d1	-0.18031622
189	0x3df678f0	0.12034786
190	0xbefed520	-0.49771976
191	0xbe7521cf	-0.23938678
192	0xbefffd0a	-0.4999774
193	0x3f0e89ba	0.55678904
194	0xbf16c05f	-0.58887285
195	0xbefe5fae	-0.49682373
196	0x3ebacb51	0.36483243
197	0x3f397bca	0.7245451
198	0xbebe7dee	-0.37205452
199	0xbefe6d92	-0.4969297
200	0xbf175f87	-0.5913014
201	0x3ef0e614	0.47050536
202	0xbec46e67	-0.3836548
203	0x3dc3be37	0.09557765
204	0xbf1bcc08	-0.608582
205	0x3ea8f4ef	0.3299937
206	0x3c944d79	0.018103348
207	0x3ebabff6	0.3647458
208	0xbd491c9e	-0.049099557
209	0x3e08b6b0	0.1335094
210	0xbf07916f	-0.5295629
211	0xbdd28e74	-0.10281077
212	0xbf009ee4	-0.5024245
213	0x3ddaa248	0.10675484
214	0xbf3329c3	-0.699856
215	0x3ebfe1ca	0.3747695
216	0xbf32a071	-0.69776064
217	0xbe9a5e88	-0.30150247
218	0xbf5c6050	-0.8608446
219	0xbf0325d5	-0.512296
220	0x3f13d8c8	0.57752657
221	0x3e89a9fc	0.268875
222	0xbe672403	-0.22572331
223	0xbf02e1d5	-0.5112584
224	0x3ef29656	0.47380322
225	0x3b99276f	0.0046738903
226	0xbf45c655	-0.77255756
227	0xbe885c20	-0.26632786
228	0x3f458c11	0.7716685
229	0x3c39ffb8	0.011352472
230	0x3e9800c5	0.29688087
231	0x3e9e11a9	0.3087285
232	0x3f03669c	0.51328444
233	0xbe897be4	-0.26852334
234	0x3ea3f94a	0.3202613
235	0x3dc4270d	0.09577761
236	0x3f2bce31	0.671115
237	0x3ed82e62	0.42222887
238	0xbe5558f8	-0.2083472
239	0xbf82892e	-1.0198114
240	0x3f4f1e01	0.8090516
241	0xbebd7d7a	-0.37009794
242	0x3e96589a	0.29364473
243	0x3ea52612	0.32255608
244	0xbece9da5	-0.40354648
245	0x3e90bd44	0.28269398
246	0x3f70dfcf	0.94091505
247	0x3cf4037b	0.029786816
248	0xbf26d1c8	-0.6516385
249	0xbea7f66d	-0.32805195
250	0x3d3f9e24	0.046781674
251	0x3ee97bdd	0.45602313
252	0x3f8bdb42	1.0926287
253	0x3ea121e7	0.31471178
254	0x3f4c1cb0	0.79731274
255	0x3e9aa124	0.30201066

decoder.network.0.bias f4 [128]
0	0xbda7942c	-0.081825584
1	0xbeab72e5	-0.33486095
2	0x3e90652c	0.28202188
3	0x3eb06c93	0.34457836
4	0xbedf2fb2	-0.43591076
5	0xbdd1119b	-0.10208436
6	0x3f51cb74	0.8195107
7	0xbcd2b5d6	-0.025721472
8	0xbbd1cebb	-0.006402818
9	0xbf901db4	-1.1259065
10	0xbf3467ce	-0.70470893
11	0xbe09fd50	-0.13475537
12	0x3f0bb28b	0.5456931
13	0xbeff904b	-0.49914774
14	0x3f31b6e2	0.6941968
15	0x3e52f02b	0.2059943
16	0x3ef50d9a	0.4786194
17	0x3df3297b	0.11873146
18	0xbc10e4b4	-0.00884359
19	0x3f31d04f	0.6945848
20	0xbf35fbe1	-0.7108746
21	0x3ee2f8c1	0.4433041
22	0x3f0d473a	0.5518681
23	0x3f1c44c4	0.6104243
24	0x3e90c87b	0.28277954
25	0xbea0fc26	-0.31442374
26	0x3e06f494	0.13179237
27	0x3e803c77	0.2504613
28	0x3d02b540	0.031911135
29	0xbf1bb361	-0.60820585
30	0xbe12bbe9	-0.14329495
31	0x3f11153d	0.5667303
32	0xbe453fbf	-0.19262598
33	0x3d525040	0.051346064
34	0x3f3974f1	0.72444063
35	0x3e2c52d2	0.16828468
36	0xbcbdb43f	-0.023157237
37	0x3c16d01f	0.009204893
38	0x3ef8f684	0.48625576
39	0x3ea2fe95	0.31834856
40	0x3f273b92	0.6532527
41	0x3cd2d3f2	0.025735829
42	0xbea51b54	-0.32247412
43	0xbf3fb940	-0.74892044
44	0x3cfda56f	0.030962674
45	0x3f0195d3	0.5061924
46	0x3dec53aa	0.11539395
47	0xbf1d24ef	-0.6138448
48	0xbe43156b	-0.19051139
49	0xbf1b14a0	-0.60578346
50	0xbca867af	-0.020557253
51	0x3effff84	0.4999963
52	0xbf09d901	-0.53846747
53	0x3ecc0f07	0.39855215
54	0xbde53d50	-0.11193335
55	0x3d8b45f3	0.06800451
56	0xbe04c019	-0.12963904
57	0xbda9e5ce	-0.08295785
58	0xbddef5e1	-0.108867414
59	0xbe5bf23c	-0.21479124
60	0xbe9f4704	-0.31108868
61	0x3ca7fda8	0.020506695
62	0x3ede6601	0.43437198
63	0x3f422709	0.7584081
64	0xbe72c01c	-0.23706096
65	0xbf66246f	-0.89899343
66	0xbf1f8be5	-0.6232284
67	0x3efa1c38	0.48849654
68	0xbe82f6cb	-0.25578913
69	0x3e6af437	0.22944723
70	0xbe706522	-0.23476079
71	0x3e45dc9c	0.19322437
72	0xbf3febf1	-0.74969393
73	0xbe16a7fa	-0.14712515
74	0xbe832350	-0.2561288
75	0xbd08676c	-0.033301756
76	0x3f4765d3	0.77889746
77	0xbf55b585	-0.834801
78	0x3edafb45	0.42769828
79	0x3ea2d3fb	0.31802353
80	0x3ebe55f7	0.3717496
81	0xbf44705b	-0.7673394
82	0x3f3fe8c0	0.74964523
83	0x3f004f60	0.50121117
84	0x3d785219	0.06062517
85	0xbe3c0d05	-0.18364342
86	0xbca211c5	-0.019783864
87	0xbf215509	-0.6302038
88	0x3f422381	0.75835425
89	0xbddd0b63	-0.107931875
90	0xbf03b1ce	-0.51443183
91	0x3ea65c19	0.3249214
92	0xbe246192	-0.16052845
93	0x3de02a35	0.1094555
94	0x3f05e874	0.5230782
95	0x3e9fd8b0	0.31220007
96	0x3ce8751b	0.028376153
97	0xbf2ea944	-0.6822703
98	0xbf031f30	-0.51219463
99	0x3e8366c6	0.25664347
100	0xbe14bb10	-0.14524484
101	0x3e01d3f1	0.12678505
102	0xbf0c0591	-0.54695994
103	0xbf1c1cb1	-0.6098128
104	0xbe966ecf	-0.29381415
105	0x3e3e17d5	0.18563779
106	0xbf17e791	-0.5933772
107	0x3ee9e631	0.45683435
108	0x3efadd0b	0.48996767
109	0x3f381af8	0.7191615
110	0x3f107d0b	0.564408
111	0x3f465fab	0.7748973
112	0xbe918eb7	-0.28429195
113	0x3e3ca578	0.18422496
114	0x3eac36d6	0.33635587
115	0xbe6301f1	-0.2216871
116	0xbe444a10	-0.19168878
117	0x3cdb9026	0.026802134
118	0xbf00ec06	-0.50360143
119	0xbe391d47	-0.18077575
120	0x3f296159	0.66164166
121	0x3ec680c5	0.38770118
122	0x3f459039	0.7717319
123	0xbdd9e92a	-0.10640176
124	0x3f547294	0.8298733
125	0xbec44aed	-0.38338414
126	0x3ed306ef	0.41216227
127	0xbf435ab1	-0.7631026
