models/mnist_vae_dims_128/vae_10d.pth (torch, 959468 bytes, 14 tensors)

encoder.network.1.weight f4 [128, 784]
00000000: 110e d93c cd6d 113d 80c8 8cbb 9866 ea3c
00000010: a736 9bbc 66c4 0bbd 8a60 103d 734a 6d3c
00000020: 8a1d b93c a5b8 f93c 00eb a53b 557a 95bc
00000030: 2ea8 bfbb e7a3 10bd 2a45 8a3c 2a8f aabc
00000040: 8cec a9bc fcb7 52bc f772 813c 5dca 04bd
00000050: de0c c7bc 1c29 cebc 4e8e 473c 80e1 013b
00000060: 4564 50bc f7e8 d1bb 4c66 e9bc 6524 613c
00000070: ce49 ad3c a5db b63b 33ea 623c 9505 9e3c
00000080: e535 843c f1b8 af3c dc1c 02bb 216b dbbc
00000090: 5c15 99bb 5c26 4c3b dc3d 37bc 1bbf 02bd
000000a0: 8111 563c 095f bcbb 1acf 983c 8f0f 1ebd
000000b0: ecff 26bc b93e 0c3c 3eb6 9cbc a1a6 c53c
000000c0: 553e 98bc 2af1 49bc 533a 433c 5399 47bc
000000d0: 1377 f93b 9cf0 383c 9593 e4bc 53a9 673c
000000e0: 670b a8bc 5ca8 80bb 93b3 ea3b a342 ecbc
000000f0: f795 c23c 1331 dabc eeb3 e8bb 9754 95bc
00000100: d7dd f9bc 1ffa 2dbd 90b2 2cbd 926e 50bc
00000110: d45d d6bc de80 3d3c 4507 1bbd 7e3e b43b
00000120: b582 a33c 203d c1bc 7fc2 fd3c 7d9b 213b
00000130: c0a3 76bc 19e8 05bc f021 c03c 3efc c23c
00000140: b827 66bb 5c3b 3a3b 9eba bbbc be6a 0c3d
00000150: 6a45 29bc 2076 a73c 4aeb c03a ac06 f93c
00000160: bae6 b53c b72f 093d d645 a33c 78d3 adbc
00000170: 65ab b9bc f9b3 a13b 811d 343b 6d77 19bd
00000180: 34ad 02bd 85f3 4e3c c797 39bd 6a6e 6e3c
00000190: 0385 16bd 37c9 ae3b 5217 9b3b 1cc3 86bc
000001a0: 0bd3 dbb9 5e33 e4bc c521 8ebc 92f1 933c
000001b0: 4b1f 253c d894 773c ec37 b93c fc62 3ebc
000001c0: 3c43 8b3c c116 dcbb d4b4 08bd 6adc f33c
000001d0: eed6 ba3b 7d52 c63c a5eb 62bb f20a 18bd
000001e0: be44 0d3b ec40 a23c ce99 453c 57a1 db3b
000001f0: ea80 16bc 4d3b 3d3c 8e02 2d3b 1259 ccbc
00000200: 045f f1bc 345e 283c 947c 74bc 2ae3 18bd
00000210: 06ee 973c 5a86 173c 2a7b 11bd 7bb6 ee3b
00000220: 8d1f c9bc a707 0e3d 02ff 06bd de35 ec3c
00000230: ca90 6dbc d869 693c 5879 04bd 4126 6e3c
00000240: 2d28 dabc c933 223d 25d6 06bd 5d2b 403c
00000250: b4c2 08bd f1f3 b6bc 8019 8bbc db32 e33b
00000260: beee 233c a7db 693a 0018 e93c e22d 7f3c
00000270: da5d 483c 6ea0 93bc 7cad 953b 76ac 07bd
00000280: b1ca 2dbc cb17 bb3c fb0f 803b 8614 2fbd
00000290: ecaa 3f3b ac14 c2bc b77f 563a 4e33 c5bc
000002a0: a051 05bc fc0c 6cbc c178 31bc dc08 eebc
000002b0: fe8b a8bc 9778 87bc 7206 6d3c cd55 bf3c
000002c0: e12c aa3c 8c73 0abd c1a1 edbc 4de4 47bc
000002d0: d0c0 c2bc 90d6 cb3c f258 7abc 6b6b 09bd
000002e0: 15bb cabc d1a8 b33c b5f6 d1bc 8842 d73c
000002f0: 2691 01bd a41e 09bd e670 97bc 6a7c 113c
00000300: 77ce 66bc 5547 68bc ca15 5bbb c7f8 893c
00000310: e525 d03b ea27 b63c e75e 03bc 0089 fc3b
00000320: b4c1 a2bb 8184 103c 40b5 0dbd 1169 bdbc
00000330: ca53 f03b 1460 2b3c 0d13 c53b aa25 bcbc
00000340: f812 1cbd f930 ab3c fd3f fdbb ba01 8abc
00000350: 4408 c2bb bf1b 4b3c 9682 cfbb 4d07 4a3c
00000360: 3635 0abd c309 d5bc 61b0 ea3c f106 c03c
00000370: 2ea0 793c 28d2 c6b9 9146 dc3c aa05 1a3c
00000380: dee9 983c 1d79 ccbc c525 0dbd 6713 20bd
00000390: 79ee cd3c 17aa ca3c 4968 e53b 0842 163c
000003a0: 3dff e2bc d04b a1bc 5555 b7bc 88a8 08bd
000003b0: 2223 b9bb ec1c 20bd 1768 113b 3c8b 663c
000003c0: edc5 923c ab25 e4ba 6663 8bbc 1a0d cdbc
000003d0: 40c9 1dbd c7ad dabc 85a8 e5bc 86aa 2cbb
000003e0: 006d d4bc b7f7 f43c 0c48 893c 7a6c f33c
000003f0: 235c 0fbd 7c2b 933c bfe6 ecbc 5f5a 04bd
0.026495965 0.035505105 -0.0042963624 0.028613374 -0.018946959 -0.034122847 0.035248317 0.014483082
0.022597093 0.030483553 0.0050634146 -0.018246809 -0.005848906 -0.03531256 0.016878683 -0.02082022
-0.020742677 -0.012861248 0.01580189 -0.03241955 -0.024298128 -0.025166087 0.012179924 0.0019818246
-0.012719219 -0.0064059454 -0.028491162 0.013741587 0.021153357 0.005580383 0.013849783 0.019289771
0.01613898 0.021450492 -0.0019853627 -0.026784481 -0.0046717357 0.0031150794 -0.011184182 -0.031920534
0.013065697 -0.0057486338 0.018653441 -0.038589057 -0.0101928525 0.008559876 -0.019129869 0.024127306
-0.01858441 -0.012325564 0.011915761 -0.012182551 0.0076130717 0.0112878345 -0.027902404 0.014139491
-0.02051325 -0.00392632 0.00716252 -0.028840369 0.02375315 -0.026634729 -0.0071015274 -0.018228812
-0.03050129 -0.042474862 -0.042162478 -0.0127216745 -0.026167788 0.011566369 -0.03784873 0.0055006137
0.019959787 -0.023588717 0.030976532 0.0024659329 -0.0150536895 -0.008173012 0.023453683 0.02380192
-0.003511889 0.0028416729 -0.022916134 0.034281485 -0.010331491 0.020442069 0.0014718559 0.03039869
0.022204746 0.03349277 0.019930761 -0.021219 -0.022664735 0.0049347845 0.0027483406 -0.03746741
-0.03190346 0.012631302 -0.04531076 0.014552692 -0.036747944 0.0053340453 0.0047330046 -0.016450457
-0.00041928174 -0.027856525 -0.017350087 0.018059526 0.010078262 0.015111171 0.022609673 -0.011620279
0.016999833 -0.0067165797 -0.033375576 0.029768188 0.005701891 0.024209255 -0.0034625318 -0.037119813
0.0021555866 0.019806348 0.012060596 0.006702583 -0.009186009 0.011549783 0.0026399228 -0.024944816
-0.029464252 0.010276366 -0.01492228 -0.037326016 0.018546116 0.0092483405 -0.03551785 0.007284937
-0.024551177 0.034675267 -0.03295804 0.02883428 -0.014499852 0.0142464265 -0.032342285 0.014535488
-0.026630485 0.039600167 -0.032919068 0.011729089 -0.03338881 -0.022333117 -0.016979933 0.0069335527
0.010005651 0.00089209754 0.028453827 0.015574904 0.012229407 -0.018020835 0.0045678 -0.033123456
-0.010607407 0.022838494 0.003908155 -0.042744182 0.0029246164 -0.023691498 0.0008182483 -0.024072316
-0.008137137 -0.014407393 -0.010832013 -0.029056959 -0.020574566 -0.016536994 0.014466869 0.023356343
0.020773353 -0.0338016 -0.029007794 -0.012200427 -0.02377358 0.024882585 -0.015279995 -0.033549707
-0.02474741 0.021931084 -0.025630334 0.026276842 -0.031632565 -0.033476487 -0.018486451 0.00887976
-0.014087311 -0.014177163 -0.0033429735 0.01684226 0.0063521736 0.02223583 -0.008018232 0.0077067614
-0.004966939 0.008820654 -0.03459668 -0.023121389 0.007334207 0.0104599185 0.006014234 -0.022967178
-0.038104028 0.020897375 -0.0077285753 -0.016846526 -0.0059213955 0.012396752 -0.0063327057 0.012330842
-0.033742152 -0.026005631 0.028648557 0.02344081 0.015235944 -0.00037922082 0.026889117 0.0094007645
0.018666204 -0.024960095 -0.034459848 -0.039081004 0.025138127 0.024739308 0.007000957 0.0091710165
-0.027709598 -0.01968947 -0.022379557 -0.03336385 -0.00564994 -0.039090082 0.0022187287 0.014071282
0.017916644 -0.0017406245 -0.01701517 -0.025030661 -0.038522005 -0.026694192 -0.028034458 -0.0026346757
-0.025930882 0.029903276 0.016757987 0.029714812 -0.034999978 0.01796507 -0.028918622 -0.032312747

encoder.network.1.bias f4 [128]
00000000: d66a c6bc 6d93 adbc 122c 953e 8092 203f
00000010: 6fac ebbc 2051 b13c aad0 c7bc 36ef 5a3e
00000020: fa11 eb3b d107 b43e 8d55 c6bc 0299 853c
00000030: 69d9 883d 3d65 c33e 2074 613e 04d6 d03e
00000040: 391b d03d b0cf 0d3d 2200 3c3e 7c22 b3bd
00000050: c185 9ebc b042 213e 9dc6 b83e 03f8 6fbc
00000060: 5f6f 26bc bff6 073e 298d 82bd 60ec 733b
00000070: cbf4 99be 31fe 633d a840 64bb 0d96 3b3b
00000080: 798e 4e3c bffd 9b3e 6929 753d 161c 3abd
00000090: 874f fabc 5b09 68bc 65cb 11bc 1c23 cb3e
000000a0: ac1a 273e a4ce 14bd e3c8 063e d5dc 063e
000000b0: 0c28 253c df13 c33c c85c a33e 2103 b93c
000000c0: 8e4b 223f 8fd7 20bd ec9c 19bd bb5b 33bd
000000d0: 4ec5 40bd 6bf3 463e 958c be3c 4f4f 983e
000000e0: 61bb 9f3b 82cd af3b 26b1 8f3d 364d 1f3e
000000f0: f17c d1be 84e1 0dbc 9c19 35be c468 a33e
00000100: b7a1 943b 81bc 14bd 6202 61bc 4e96 cdbd
00000110: 9a20 6d3e 3c06 1b3f f3c9 d83e be8c d73e
00000120: 13d9 e3bd 25b8 bfbc 2d7e 7a3e a643 9b3c
00000130: 3d22 32bd a3ee f4bc 6ff9 a13e 170c f53e
00000140: e855 bb3d 3aba 733e ef7b 0bbd 77fd 31bd
00000150: fa9b afbb 6856 4e3e a26a 843e afef 36bd
00000160: cb4b 043f a4f5 59bc b351 633e bac1 73bc
00000170: 5402 4dbc c373 9c3e 79f8 c13d 4efc 3f3e
00000180: cb37 9a3e cfeb 973e f108 9f3e dddd 9c3e
00000190: 85f1 463e b3cb 9fbc ca7b f73e 3307 78be
000001a0: 069d 153c 47af 01be 1b9d 04bd 6e64 d03d
000001b0: 1f0c 953e 0a05 a53c cd52 0f3f 0086 1ebd
000001c0: 416e 283c 2fe4 b3bc 5de8 503c faea 55bb
000001d0: a1a7 e0bc 88d0 83bc 2479 793e bbfc c43e
000001e0: 796f 483b a71b 08bd d7d4 1bbd e14a ab3e
000001f0: 3d86 663c 6ae9 b6bd ca35 693c daba 6d3e
-0.024220865 -0.021188462 0.29135185 0.6272354 -0.028768746 0.021645129 -0.024391491 0.21380314
0.007173774 0.35162213 -0.024210716 0.016308311 0.06682093 0.38163176 0.22016954 0.4078828
0.10161442 0.034621894 0.18359426 -0.08746812 -0.019350888 0.15748096 0.3608903 -0.014646533
-0.010158389 0.1327772 -0.063745804 0.0037219748 -0.30069575 0.055662338 -0.0034828577 0.0028623373
0.01260721 0.3046703 0.059853945 -0.04543694 -0.0305555 -0.014162387 -0.008898591 0.39675224
0.16318768 -0.03632988 0.1316257 0.13170178 0.010080349 0.023813186 0.31906724 0.0225845
0.6339654 -0.039268073 -0.037503168 -0.043788653 -0.047063164 0.19428794 0.023260394 0.29748008
0.004874632 0.0053650746 0.0701621 0.15556797 -0.40915635 -0.008659724 -0.1768555 0.31915867
0.0045358795 -0.036312584 -0.013733478 -0.10038434 0.23156968 0.6055639 0.42341575 0.42099565
-0.11125388 -0.023403237 0.24462195 0.018953156 -0.043489683 -0.029898947 0.31635615 0.47860786
0.09147245 0.23801509 -0.03405374 -0.043454614 -0.00535917 0.20150149 0.25862604 -0.044662174
0.5167815 -0.013303194 0.22199135 -0.014877731 -0.012512762 0.3055707 0.094712205 0.1874859
0.30120692 0.29672095 0.3106151 0.30638018 0.1942807 -0.019506311 0.4833663 -0.24221496
0.009131676 -0.12664519 -0.03237639 0.101754054 0.2911081 0.020144004 0.5598572 -0.03870201
0.010280193 -0.021959392 0.012750712 -0.0032641278 -0.027423682 -0.016090646 0.24362618 0.38474068
0.003058402 -0.033229496 -0.038044777 0.33455566 0.014070091 -0.08931239 0.014234016 0.2321581

encoder.network.3.weight f4 [128, 128]
00000000: 48e1 ebbc db27 9b3d 47d8 883d 4917 a93d
00000010: f802 423c 7239 7fbc f1c2 97bc eb5e e93c
00000020: a314 223d 4526 423c 69b4 3ebd 4533 4a3d
00000030: 646f 8a3d c928 843d 4f1e f13d dce0 9ebe
00000040: c544 b13d ec66 a9bd 66f5 91bc 3284 8dbd
00000050: f369 2fbc 590e a6bc d52b 143d 6c34 863c
00000060: 0f3f 85bb 7737 213e 0e85 93bc 3980 a53d
00000070: 4a92 a6bd 3e52 383e b82e 923b ad3b 9cbc
00000080: ed7b 8e3c 30c7 b0bd 4935 e7b9 1e1d 493d
00000090: bba4 55bd fff1 59bc 8be6 10bd 9dcf 5cbd
000000a0: 44af 673d ac0b 143d a580 8e3d 47c8 e13b
000000b0: 2ddb b93d c50b a43d f015 8abd d0ee bbbb
000000c0: 72a9 70bc 3f1c 98bd 9ec3 70bd 7bdd 323d
000000d0: 08bb 6bbd 855c 23bb 3acb 9ebd 6f4f 473e
000000e0: b2ee 18be 0ea1 1c3d 861c cf3d 5432 853d
000000f0: 89e8 e6bd d728 2bbd 5675 d5bc 6cc9 853d
00000100: 329e 90bd c9a6 7e3d 465f e2bc 87c7 9f3d
00000110: a5a8 80bd 7b47 60bd b4a1 e8bd 1993 843d
00000120: f1f2 75bd 64a1 353a e550 c13d 6910 8e3d
00000130: 26ad 2d3d d359 8d3d 143a 843d 81df 533e
00000140: 19a1 a23d 3586 e93d 4792 1fbd bb0d 80bd
00000150: 46eb 3ebd 36b0 35be afb5 e0bd d3c8 833d
00000160: 3735 1b3e 7365 22bd 5b3d b53b dfde 9a3b
00000170: 60c1 01bd 1b46 863d 0532 2c3b f053 1dbe
00000180: 0905 e23d bdbb 393e 429a 493d d5db 883d
00000190: a2f1 4f3e f75e 27bd a4ec bdbd 1a5a 09be
000001a0: 32c4 7ebd d7d9 e8bc d3b5 933d 028a 0cbd
000001b0: c622 ddbc 2d12 873d 38db adbb 9f13 223d
000001c0: dbeb 89bd fa00 9fbd c0cc 3a3c 4828 623d
000001d0: b91a bcbc 8e51 adbd 1b30 feba c8fa 0c3c
000001e0: b370 8dbd fd00 86bd 1f06 a2bd c5a8 cf3d
000001f0: dd69 993d 05ed 9bbd c0b5 8c3c 74e2 e53d
00000200: 3b5f 223d fed0 033e 4b91 fd3c 6ccf ea3d
00000210: 72b1 bbbd 5a54 33bd bb34 df3c 25ca d73c
00000220: b896 88bd 7741 973d 9444 8dbd f72d 1b3d
00000230: 9be7 6d3d 939c adbc 5139 613d f6ef b33d
00000240: 8895 e93d 0999 acbc 8cea fbbb 551a ab3d
00000250: 8273 02be 69d5 b63d d2d1 943c 7f54 753c
00000260: d516 1f3d 7bc5 1d3d 2e0c 91bd c732 233c
00000270: 37dd 833c a0dd e1b9 b1d9 8ebd 82da a33d
00000280: 8d04 69bd a648 413e 21ec 8fbd 9b98 a8bc
00000290: c563 72bd 50ca fd3c 647b afbd 9bb4 313d
000002a0: c245 8e3d f9a0 1e3d 5606 e23c 86a8 fe3d
000002b0: 28b9 2bbd 856e c6bc aa89 4a3d 09cd adbd
000002c0: 9f89 113e 2bd2 dd3c 3039 97bd 648e 8ebd
000002d0: cf25 393d 11f4 8d3c 40cc 193c 6cad 1f3c
000002e0: 7b13 b13b a214 0a3d 488b 903c b828 e13d
000002f0: c393 a6bd 688f a5bd fcd2 a0bc 3e76 bb3d
00000300: 99bc 28bd 79d8 9abd 6939 18bd a72e 48bd
00000310: ac31 36bd c9cf 983e a1d6 c23d baf2 a0bd
00000320: 8b8e 6abd 6e99 bebd 81d6 7d3d ffe3 5d3d
00000330: d4fe babd 2636 c13c b0b6 823d 8e5a 233e
00000340: 298b ad3d 7a75 1c3b ae00 dd3c 0de4 8bbd
00000350: 9c65 953d 3606 94bc 691e 6a3d d12d 1fbd
00000360: 3547 543e 2922 2b3b bfa5 ed3c 5968 e03c
00000370: 8e87 b43c 0416 033c 546b c1bd 44c4 1abc
00000380: b85c a43d 0397 eb38 259c eb3d 87b2 853d
00000390: e4fc 703d 8819 0a3d b15a ccbc 5d8e f43c
000003a0: bc80 a8bd 0a0e c33c a06e 88bd e0ad e83c
000003b0: 23ce 593d 4c9e 243d 2144 0b3c fa78 ee3c
000003c0: 381a 64bc b405 d83c da21 f039 bc6b 82bd
000003d0: a5ac a73b f1b5 a2bc ca80 af3c 76e7 833d
000003e0: 9014 0f3d b80f 21bd 93b0 4f3d 9d2c d73d
000003f0: 85a3 33bd 1a37 e53d a5d2 3dbd 6583 893d
-0.028793946 0.07575961 0.06681877 0.082563944 0.011841528 -0.015577661 -0.018525572 0.028487643
0.039570462 0.0118499445 -0.04655877 0.0493653 0.06759527 0.06453092 0.11773359 -0.3103093
0.08655695 -0.08271584 -0.01781721 -0.0690998 -0.010706413 -0.020270513 0.036174614 0.016382419
-0.004066355 0.15743814 -0.018007781 0.08081097 -0.08133371 0.18000123 0.0044611357 -0.019071424
0.017393077 -0.08631742 -0.00044099454 0.049100034 -0.052159052 -0.013302325 -0.035376113 -0.053908933
0.05656363 0.036143944 0.06958131 0.00689033 0.090750076 0.08010057 -0.067424655 -0.005735256
-0.014688836 -0.074272625 -0.058780305 0.04366825 -0.057551414 -0.0024926972 -0.07753606 0.19463895
-0.14934805 0.03823953 0.10112862 0.0650374 -0.11274821 -0.041786995 -0.026056927 0.06532559
-0.07061423 0.062170777 -0.02763332 0.07801729 -0.062821664 -0.05475567 -0.113589674 0.06473369
-0.06004614 0.0006928651 0.094392575 0.06936724 0.042401455 0.06901898 0.0645639 0.20690729
0.07940883 0.11402551 -0.03895786 -0.06252619 -0.046611093 -0.17743 -0.109721534 0.064347886
0.15157019 -0.03964753 0.005530996 0.0047262753 -0.031678557 0.0655634 0.002627493 -0.15364051
0.11036117 0.18138023 0.049219377 0.06682555 0.2030702 -0.04086205 -0.09273651 -0.13413277
-0.062198825 -0.028424187 0.072124146 -0.034311302 -0.02699412 0.06595264 -0.005305674 0.039569493
-0.06734439 -0.07763858 0.011401355 0.055214196 -0.022961961 -0.08462821 -0.0019392999 0.008604713
-0.06906261 -0.06543157 -0.07911324 0.10139612 0.07490895 -0.07613567 0.017176509 0.11224833
0.0396416 0.12872693 0.03095307 0.11465344 -0.091647044 -0.043781616 0.027246824 0.026341507
-0.06669372 0.07385533 -0.06897846 0.037885632 0.058082204 -0.021192824 0.0549863 0.08786003
0.11405474 -0.021069067 -0.0076878723 0.08354632 -0.12739375 0.089274235 0.018166456 0.014973759
0.038840134 0.03851841 -0.07082401 0.009960837 0.016096694 -0.00043080468 -0.06975115 0.080006614
-0.056889106 0.1887537 -0.0702746 -0.02058058 -0.05917718 0.03098026 -0.08568457 0.04338513
0.06946899 0.038727734 0.027590912 0.12434487 -0.041924626 -0.024222622 0.049447693 -0.08486373
0.14212655 0.027077755 -0.073839545 -0.069607526 0.045202073 0.017328294 0.009387076 0.009745937
0.0054039336 0.033711083 0.01764454 0.109940946 -0.08133652 -0.08083993 -0.019631855 0.09153412
-0.041195486 -0.0756082 -0.037164126 -0.048872616 -0.044480965 0.29846027 0.095135935 -0.078587964
-0.057264846 -0.09306608 0.061972145 0.054172512 -0.09130636 0.02358539 0.06382501 0.15952513
0.08473808 0.0023873732 0.026977863 -0.068306066 0.07294771 -0.018069368 0.057157908 -0.038862053
0.20730288 0.002611289 0.029009698 0.027393507 0.022037294 0.008000854 -0.09444299 -0.009446207
0.08025497 0.00011233801 0.115043916 0.06528192 0.058834925 0.033715755 -0.024945589 0.02985304
-0.08227679 0.023810405 -0.06661725 0.028403223 0.053175103 0.040190026 0.00850013 0.02911042
-0.013922267 0.026369907 0.0004580159 -0.06368205 0.0051170164 -0.019862147 0.021423716 0.06440632
0.03493172 -0.03932163 0.050705504 0.10506556 -0.043857116 0.111921504 -0.046343464 0.06714515

encoder.network.3.bias f4 [128]
00000000: 09cc fe3d 659e de3e 5e30 203e c3b6 d83d
00000010: c117 8f3d acc1 7fbd 9fb3 cc3e 0110 0dbc
00000020: 598a c33e 3339 57be 286a 0d3d df75 4cbd
00000030: 0df6 debd 7c3b 9d3c a002 41bd cf82 a3bd
00000040: 9cde 183f 93d7 9f3e 00b8 9b3e d175 953d
00000050: dc4a 2f3e 1bdf eabc 1f8a 913e 082a 493d
00000060: a244 b4bd 0fa9 11bd 3bf8 533e f258 a93d
00000070: 1aac ccbc a625 31bd 2ef5 893c b54a 87bd
00000080: 724d c8bd 5510 22be 79ef 143e 84cf b73b
00000090: 2503 223d 1037 f7bc 5df9 36bd e166 2dbd
000000a0: 4ff5 38be ffeb ce3d e5ed 803d f8ac 163e
000000b0: e68d f53d 4cc9 cdbc b606 993d d1ba bf3d
000000c0: 0792 c8bc 527f b23d f540 093d 2955 9a3e
000000d0: 3318 9dbd e0f8 17bd d930 2cbe 5e45 a93e
000000e0: a60d 6c3e af63 99bd 4c36 79be f7e9 a33d
000000f0: cc89 153e 7379 a9bd c61d ec3e bd5b 3f3d
00000100: 3737 44bd 838f 7fbd e25c a93e b2d8 443d
00000110: eb6c a83c 4854 853e aa49 a03e 761e 80bd
00000120: 4fea a73b 784f 923d e7e1 9bbd 0f2b 6d3e
00000130: 32d7 523e d06e 24bd ea20 d43b 86f0 aa3e
00000140: c396 d43d 0a21 2c3e a81a fe3c ecfa 86bc
00000150: 30e1 87bd d9ca 5fbd a5e3 1d3e 1915 123d
00000160: 51f5 e9bd f88b 993d a3c7 dc3d 0ea4 623e
00000170: 149f 553d 55f2 f0bd 04bf 913d 72b1 573e
00000180: b62c abbd 5d3f 553e c876 843d 87ae 873c
00000190: e204 353e 78e7 b23e 16c8 bb3c 1abe e4bc
000001a0: dcf5 a63d 175a 2cbe ca38 cbbd 1079 f0bd
000001b0: 7a2b 923e 8907 3b3e 7fbe bd3e 855e 883e
000001c0: a386 a2bd 74e8 11be aab1 113e c5f9 723e
000001d0: 2a01 9ebd 0d4f 903d 5521 503c 997f 683d
000001e0: 3b11 0e3e 1e3d bf3e efb4 7f3e a279 683c
000001f0: 0379 5ebe 097e 71bd ff06 94bb 67c1 00bd
0.1244126 0.4348022 0.1564345 0.10581734 0.069869526 -0.06244056 0.3998079 -0.008609773
0.38191488 -0.21017914 0.034525067 -0.049917098 -0.10886774 0.019193403 -0.047121644 -0.07983934
0.59714675 0.31219158 0.30413818 0.07297862 0.171184 -0.028670838 0.2842569 0.04911235
-0.08802153 -0.035561617 0.20700161 0.08268918 -0.024984408 -0.043248795 0.016840544 -0.06606046
-0.097803965 -0.15826543 0.14544477 0.0056094546 0.03955378 -0.030177623 -0.044671405 -0.04233444
-0.18062328 0.101036064 0.06295375 0.1471442 0.119899556 -0.0251204 0.07471983 0.09361804
-0.024483694 0.08715691 0.033509213 0.30143097 -0.07670631 -0.03710258 -0.16815509 0.33060735
0.23052081 -0.07489716 -0.24337119 0.0800361 0.14603347 -0.08275118 0.46116465 0.046718348
-0.04790422 -0.062392723 0.33078676 0.04805822 0.020559749 0.26040864 0.313062 -0.0625581
0.0051243673 0.07144064 -0.07611447 0.23160957 0.20589903 -0.04014474 0.00647365 0.3338663
0.10380318 0.16809478 0.03101857 -0.01647707 -0.06634748 -0.05463681 0.15418871 0.03566465
-0.114237435 0.074974 0.10780265 0.22132894 0.05215366 -0.11764971 0.071165115 0.21063784
-0.08358137 0.20824952 0.06467968 0.016562713 0.17677644 0.34942222 0.022922557 -0.027922679
0.08152363 -0.16831242 -0.09922941 -0.11741841 0.28548795 0.18264593 0.370594 0.26634613
-0.07935836 -0.1424883 0.1422793 0.23728092 -0.07715066 0.07046328 0.0127032595 0.05676231
0.1387376 0.37351316 0.24971364 0.014189156 -0.2172585 -0.058958087 -0.0045174356 -0.031434443

encoder.output1.weight f4 [10, 128]
00000000: 0d88 51bd acb9 1dbe 2dc3 d9bc 1c03 173d
00000010: 0d9a debc 74b8 8b3d 21f9 b8bc c3cf 1fbd
00000020: e352 313c d66d 0e3d c5d1 283d 8993 c73d
00000030: 793a 9dbc f719 033e cbf5 eebc 0e18 153d
00000040: 0ecd c83d 0913 633e c8df 1b3e c82b 6f3d
00000050: 27f9 c9bd 9fca 1c3d e256 05bd 1aa5 913d
00000060: eb6e 9bbb b9e0 5e3d 2b80 fa3d c125 3d3c
00000070: 3cc1 8d3d e4a1 75bd dc1c 6abd dd02 293d
00000080: e1bf bd3d 4a59 29bd 74f6 57bd f88e 6f3c
00000090: 5421 e4bb 845f 92bd 5ebf 08bc d03d 42bd
000000a0: ddd1 90bd 0115 1abc 4c3d 93bd ac58 58bd
000000b0: 9733 93bd 4666 0d3d 8b0b 8abc 6696 d03d
000000c0: ce54 0e3d 19c7 40bc 65dc f0bc a095 02bd
000000d0: 3eeb bcbc b392 bcbc 8306 a8bc 7e82 a3bd
000000e0: 8200 b6bd 1437 18bd 0008 bd3c a2d3 94bd
000000f0: fc95 45bd 6f66 17bd 4deb 1abe cd37 2cbc
00000100: 4487 8abd e1f5 93bd 7b07 593d f6f2 d13d
00000110: dbdb 9b3d 8f2e 6fbd 7620 41bd 4954 4e3d
00000120: e51b 7b3d 5512 f43b 646c b8bd 19d2 b8bd
00000130: 50ee 633c 0401 2ebd 0eab 1e3d eed0 ed3d
00000140: 006b b7bc 1e68 673c 68a8 2abd f742 133d
00000150: e7f6 9fbd c3b7 68bd f4f7 66be a979 933c
00000160: 6c26 543d 5333 83bb 7355 bbbd 9f07 b7bd
00000170: 933b 153d d31c 3b3d aea7 beb9 b8ac 5e3d
00000180: 35c6 5b3d fca2 56bd e5b3 adbd 5bac 8dbd
00000190: 21f0 223e 0f9c c73d 4dc9 43bd ed5c 333d
000001a0: da51 3b3e f131 d13d cc8a 91bc 8eff 35bd
000001b0: 4d4a a1bd 89b3 153e ce43 823d bb4d b9bb
000001c0: 0e3f 403c 9b10 e23c 7c43 8abd 1d10 eebd
000001d0: 4b25 923b e8a8 59bd f9cc 933d 1156 433d
000001e0: 7895 3d3d 5565 9b3b 32af 243e 6438 a8bd
000001f0: 3f13 863d 401d a33d b34b 143d 89e1 efbb
00000200: 0076 6cbe bff1 13be 7cfd 533c 08a3 01be
00000210: 1e7b ed3c af5e 073e 8fbf e6bd 9819 083d
00000220: e18a f5bd b540 143d e1d7 eabc b06d bfba
00000230: e029 293d 228f ac3c 09e3 293d 3420 22bc
00000240: 496c 87be 2937 abbe b230 b7be 5289 0fbd
00000250: 18f3 cdbd 8fba 4abd 7ec6 2dbd 342b 8d3d
00000260: 79f9 773d cc1f 3cbd f0fe d7bd faf1 82be
00000270: a985 99bd 98e1 e53d aa52 df3d 4e40 43bd
00000280: 30e3 bc3a 9bcb 483d 25fd 3fbd 862a 8e3d
00000290: c131 f33c 4840 75bd 3434 fa3c d58b 74bd
000002a0: 8003 5a3c 780e babc 7153 be3d bc1b dbbd
000002b0: ae0d ebbd c90a 04bd 95b5 bc3c bc83 4e3d
000002c0: 671d f7bb b35f d43d 6c90 03bd 90b0 8ebd
000002d0: bba2 4bbc 5dc1 dbbc b45f df3d dbea 4b3b
000002e0: 203b 85bc 7564 02bc 7e9e 093e 6a69 59be
000002f0: e1d7 b43c 541b a93d d9d6 f6bd e183 5d3d
00000300: 62e9 3bbc bcf1 6d3d 0487 a7be c314 883c
00000310: 1d27 283d b76a fe3b 247d 3d3d 74ed 273b
00000320: 4da0 d4bd ac6c 013e 6c04 89bd 2e08 ec3d
00000330: ad08 bf3c a645 053d ad1c e9bc 54e0 54be
00000340: f6bf 05be ae7f 593d 66f6 7b3b b9fa b5bd
00000350: 76f3 9f3d c4b7 ecbc ff93 9ebd 2449 c03d
00000360: 272d e5bb df60 773d 2317 c63c 6fed 1e3d
00000370: e178 9fbb ce74 513d cf7c 98bd 7941 0abd
00000380: 0caf 44bc 2aa6 a03d 4222 923c 55bf f6bc
00000390: 0c5f dabc a7e5 c53c 31c1 963d 2922 95bd
000003a0: 5902 e5bc a909 083e f5c5 923d e336 f53d
000003b0: 1d8c af3b 1870 92bd da83 6abe 2b93 41bd
000003c0: 2830 88bd afd8 0abd 4558 c33c 8f01 813d
000003d0: af36 003d a236 17be b4ab 043d b2b8 a83c
000003e0: 14fe 2ebe c284 70be 2ee5 38be 1000 cb3d
000003f0: 703a 5bbd 4b58 a5bd e6fe 943d 2da0 073d
-0.05115514 -0.1540286 -0.026582325 0.0368682 -0.027173067 0.06822291 -0.022579731 -0.039016496
0.010822984 0.034772716 0.041215677 0.09744937 -0.019192921 0.12802874 -0.029169938 0.036399893
0.09804736 0.2217523 0.15222085 0.058391362 -0.09861975 0.038279172 -0.03255356 0.07111569
-0.004743447 0.05441353 0.12231477 0.011544646 0.06921622 -0.059968844 -0.05715643 0.041262496
0.092651136 -0.04134492 -0.05272527 0.014621489 -0.006961981 -0.071471244 -0.008346407 -0.04742223
-0.07071278 -0.009404422 -0.07189426 -0.05281894 -0.07187574 0.034521364 -0.016851207 0.10184936
0.034748845 -0.011766219 -0.029401967 -0.031880975 -0.023061391 -0.02301917 -0.020510918 -0.07983874
-0.088868156 -0.0371619 0.023075104 -0.07266928 -0.04823874 -0.036962923 -0.15128823 -0.010511351
-0.06764081 -0.07224632 0.05298565 0.10251419 0.076102935 -0.05839401 -0.047150098 0.05037335
0.0613059 0.0074484744 -0.09005049 -0.09024448 0.013911799 -0.042481437 0.03873735 0.11612116
-0.022389889 0.014123945 -0.04166451 0.035952535 -0.07810765 -0.056815874 -0.22555524 0.018002348
0.051794454 -0.004003921 -0.091471575 -0.089370005 0.036433768 0.045681786 -0.00036364555 0.054363936
0.05365582 -0.052401528 -0.08481578 -0.0691764 0.15911914 0.09746563 -0.047799397 0.043789793
0.18292943 0.10214604 -0.017766379 -0.04443317 -0.078755 0.14619268 0.06360589 -0.005655018
0.011733783 0.027595809 -0.06751153 -0.11624167 0.004460012 -0.053139597 0.0721683 0.0476895
0.046285123 0.0047423043 0.16082457 -0.08213881 0.0654664 0.07964563 0.036205005 -0.007320587
-0.23091888 -0.14447688 0.012938853 -0.12659848 0.02898937 0.13219713 -0.11267006 0.033227533
-0.1198938 0.036194522 -0.028667392 -0.0014604833 0.0412997 0.021064345 0.041476283 -0.009895373
-0.26449803 -0.3344052 -0.3577934 -0.03504307 -0.10056132 -0.049494322 -0.042425625 0.06893006
0.06054065 -0.04592876 -0.10546672 -0.25575238 -0.07496197 0.11224669 0.10904439 -0.047668748
0.0014410969 0.0490223 -0.046872277 0.069417045 0.02968681 -0.059875757 0.03054247 -0.059703667
0.0133064985 -0.022711977 0.09293259 -0.10698649 -0.114772186 -0.032236848 0.023035804 0.0504186
-0.007541347 0.10369816 -0.032120153 -0.069672704 -0.012428935 -0.026825601 0.10906926 0.0031115327
-0.016263545 -0.007958521 0.13439366 -0.21231619 0.022075595 0.082571656 -0.12052698 0.054080848
-0.011469217 0.058091864 -0.32720196 0.016611462 0.041052926 0.0077641862 0.04626192 0.002562371
-0.103821374 0.12639111 -0.066902965 0.11524998 0.023319567 0.032537125 -0.028456056 -0.207887
-0.13061509 0.05310028 0.0038446425 -0.08885712 0.07810108 -0.02889622 -0.07743072 0.093889505
-0.006993908 0.060395118 0.024180954 0.038800653 -0.004866705 0.051136784 -0.0744568 -0.033753846
-0.012004625 0.07844193 0.017838601 -0.030120531 -0.02665665 0.024157358 0.07361067 -0.07281906
-0.027955221 0.13284935 0.071666636 0.119733594 0.005357279 -0.071502864 -0.2290186 -0.04725949
-0.0664981 -0.03389805 0.023845801 0.062991254 0.03130215 -0.14766935 0.03239031 0.020595882
-0.1708911 -0.23488143 -0.18056175 0.09912121 -0.053522527 -0.08073481 0.072751805 0.03311174

encoder.output1.bias f4 [10]
00000000: 7950 f9bc 56d0 85be 470f 59be c7d8 9bbc
00000010: 9641 f6bd 55bd f4bd 6d23 713d e103 81bd
00000020: b74a bbbd 8ff9 eebd
-0.03043388 -0.2613551 -0.21197234 -0.019024266 -0.12024228 -0.11950175 0.058871675 -0.06299568
-0.0914511 -0.11668693

encoder.output2.weight f4 [10, 128]
00000000: e378 27bd 7a2a a1be 22b3 c6bd e6a3 d63c
00000010: 3685 0a3b 8682 2a3d 168d b5be 8492 42bd
00000020: 7646 38be 23d7 263d 2628 2ebd 3742 6f3d
00000030: 4ca9 8d3d 4f00 573d 4974 8e3d 478c 97bd
00000040: 4edd e1be 57f9 843d 1e3e da3d 4fe6 39be
00000050: 5182 85bc e7a3 e6bd 80e9 b53c f8ed 23bd
00000060: 77d0 8cbc ae67 8c3d b2be 11be b946 6cbc
00000070: c563 18bc 45d6 813d 098f b63d 7c27 b93c
00000080: 1974 bcbd d00e 933d b945 85bd d674 ec3d
00000090: 5fe2 b23c 9edc d8bc dd55 da3b 99b2 81bd
000000a0: 4a23 753d 8459 b63c 4575 1c3d 172d ac3c
000000b0: d30f 733d f914 1d3d 8fb3 943b a801 c3bc
000000c0: 46ed 89bc c029 833d 31dd 8e3d b100 1fbe
000000d0: fc9c c93d f690 82bd 024c 4a3d f4ee 07be
000000e0: 349a 263d 1464 793d a85c 7e3d 8bb6 213d
000000f0: 35bc e7bd 31de 7e3d 6723 c8be 56e4 1dbe
00000100: 1d4d 9d3d 5077 0ebd 0101 44be cff7 d0bb
00000110: 93a7 97bd c7b4 91bd 42e6 8abe 3b8f aebd
00000120: d52f 4b3e aa1b 9bbd 0fdd 993c fd3f a9bd
00000130: 1b1d 9d39 03a4 58bd ede2 65bd 7d06 79be
00000140: 954c cbbd 86c6 83bd 93c1 96bd bf1e 07be
00000150: 11d7 62bd e51a 7bbd e100 4a3e ee33 2ebd
00000160: 3d7a 8abd 96cf fbbc bd57 833d eab6 76be
00000170: be16 e93c 6c15 953d c20e 853b f0eb 20be
00000180: 615e 58bd bdfd 81be a723 c8bd d10b bd3b
00000190: 1a6e 7f3c 755b 4fbe b93c d63c 9c68 853d
000001a0: 8f7f 29be 4dc1 d73a e5fc 5e3c cc93 983e
000001b0: e51d a5be 0e62 9cbe de06 cdbd 1a16 fbbd
000001c0: b77b bb3c 8e18 393d 9674 cebd 3c38 83be
000001d0: 51d6 c8bd 5fee 933b 5407 8abd 93bf c2bd
000001e0: 9379 1ebd f36c b4bd e714 883d fe92 0c3d
000001f0: 562e f83d 355b 733d 09e3 0d3d a9d0 513c
00000200: 4856 bb3d 04c8 38be 1f3d 18bd efb0 a53c
00000210: 8e96 fe3d c76a a43a c86e 1abe a353 51bd
00000220: 8a19 86be 328f 6b3c e6ac 833d ee4d 393c
00000230: 04c6 cb3c 76c4 08bd 526f 803d 7ed8 0ebd
00000240: a7bc ddbe b13b 633e 0b33 1bbd ece7 8a3a
00000250: 34fb 71bd 3ed9 663c 0d06 a63c c2ed b13c
00000260: 05a0 11bc 19fb e93c 9bca 1dbe 368e 613e
00000270: bb5b 273d 740a 793d 20cd 5f3d 302c 23bd
00000280: 62f8 d03c b86c 653b 0beb d43c 72d4 a23d
00000290: 47d4 663c 9e03 77bd 9403 943c ee80 39bd
000002a0: bfa0 2a3b b504 2d3d 71e3 cc3b 1a66 d6bb
000002b0: f9f1 483a a0cf 6a3d 8cb2 8abc f471 eabb
000002c0: 5a13 623d 5add 5f3d 787e 63bd dd64 3fbe
000002d0: 7d00 9c3d 364e 10bd 62e7 883c ed29 52be
000002e0: 19d4 dfbc 10f5 783d 1fa7 163d 93da 5f3e
000002f0: c5f2 5bbc 3c47 9c3d b9cf a9be a6eb bdbd
00000300: 5606 5dbd 4325 f6bc 0a3f e1bb 0078 ae3c
00000310: 0da4 973d e321 99bc 929a 22be 2759 033d
00000320: ffa7 043e c1f9 dabd bec0 0b3d 2b86 38bd
00000330: 0ec3 033d 7aa0 003d 52b4 1cbe f7c7 87be
00000340: 293e da3d 61f6 77bd 41dd 7a3d c950 fcbd
00000350: bdd7 c2bc 930f 4dbd 6ec1 39bd e06f 4b3b
00000360: 07f3 763d 0a63 2fbd e00e 303d 7138 0dbe
00000370: ed6f a33d 77f6 9c3c 5b81 a13d 3b08 03be
00000380: d5f0 803d 3daf 8bbd 1364 bdbb de87 293e
00000390: 4c0a 993c 8455 3fbe 24da 1f3d 7173 abbd
000003a0: 398c 24bd 6553 86bc f1a2 65bc 730f d63d
000003b0: 6c01 34be ed77 0dbe bb44 50bd c632 1fbe
000003c0: 6638 d9bc 2151 59bc 3171 c9bc 7dc4 d3bd
000003d0: 23ff e33c 651b 5e3c 75ba 85bd 0c55 dfbd
000003e0: 4f26 a43d 5ef1 02bc be07 03bd bc03 a0bc
000003f0: 06fb 273e a43d 843b 0402 a1bd 246a 803d
-0.04088677 -0.3147772 -0.097021356 0.0262012 0.0021136529 0.041628383 -0.35459203 -0.04750301
-0.17995629 0.040732514 -0.042518757 0.058412757 0.069170564 0.05249053 0.069557734 -0.07399803
-0.44114155 0.0649287 0.10656379 -0.18154262 -0.016297491 -0.11261731 0.022206068 -0.040021867
-0.017189248 0.06855713 -0.142329 -0.0144211585 -0.009301131 0.06339697 0.089140005 0.022601835
-0.09201831 0.0718056 -0.06507439 0.11545722 0.021836458 -0.026472386 0.0066630677 -0.06332893
0.059848107 0.022259481 0.038197774 0.021017594 0.059341263 0.03835008 0.0045380066 -0.0238045
-0.016836774 0.064044476 0.06975783 -0.15527608 0.098443955 -0.06375305 0.049388893 -0.13274747
0.040674403 0.060886458 0.062100083 0.039480727 -0.113151945 0.062223617 -0.3908951 -0.15419134
0.07680724 -0.034781754 -0.19141008 -0.0063771973 -0.07405009 -0.07114559 -0.27128798 -0.08523413
0.19842465 -0.07573636 0.018782167 -0.08264158 0.0002996706 -0.05289079 -0.056124616 -0.24318881
-0.09926716 -0.0643435 -0.0736114 -0.13195322 -0.055380885 -0.061304945 0.19726898 -0.042529993
-0.06761596 -0.030738633 0.06413219 -0.24093214 0.028453227 0.072794765 0.004060597 -0.15715003
-0.05282438 -0.253889 -0.09772425 0.005769231 0.015590215 -0.20249732 0.026152002 0.06514093
-0.16552566 0.0016460806 0.013610099 0.2980026 -0.3224937 -0.3054356 -0.100110754 -0.12260075
0.02288614 0.045189433 -0.10080831 -0.2562884 -0.098065026 0.0045145 -0.06739679 -0.09509196
-0.03869016 -0.08809843 0.06644612 0.03431987 0.12118213 0.059413154 0.034640346 0.012806096
0.09147316 -0.1804505 -0.037167665 0.02022597 0.1243106 0.0012544029 -0.15081322 -0.051105153
-0.2619136 0.014377402 0.06429462 0.011310084 0.024874695 -0.033390485 0.06271233 -0.03487443
-0.43307993 0.22190739 -0.037890475 0.0010597683 -0.059077457 0.0140898805 0.020266557 0.021719817
-0.008888249 0.028562116 -0.15409319 0.22026905 0.040858965 0.060800985 0.05463898 -0.039837062
0.025509063 0.0035007428 0.025990983 0.07950677 0.014088697 -0.060306184 0.018068112 -0.045288973
0.0026035754 0.042240817 0.006252699 -0.006542933 0.0007665451 0.057326913 -0.01693084 -0.0071546976
0.055194236 0.054654457 -0.055540532 -0.1869082 0.07617281 -0.035230838 0.016711894 -0.20523806
-0.027322816 0.060780585 0.036780473 0.21860723 -0.01342458 0.076307744 -0.33166292 -0.09273462
-0.05396112 -0.030047065 -0.00687397 0.021297455 0.07404337 -0.018692916 -0.15879276 0.032067444
0.1295471 -0.10692168 0.03411936 -0.045049828 0.03216844 0.031403042 -0.15303162 -0.2651975
0.10656387 -0.0605377 0.06124616 -0.12320096 -0.023784513 -0.05006368 -0.045350485 0.0031042024
0.060290363 -0.04281906 0.042982936 -0.13791062 0.079803325 0.019160492 0.07886001 -0.12796108
0.06295935 -0.068205334 -0.005779752 0.16555735 0.018681668 -0.18684965 0.039026394 -0.08371628
-0.04017279 -0.016397187 -0.014015899 0.104521655 -0.17578667 -0.1381528 -0.050846796 -0.15546712
-0.02651615 -0.013263972 -0.024590107 -0.103402115 0.02783162 0.013556336 -0.065297045 -0.10904893
0.08015119 -0.007992117 -0.031989805 -0.01953303 0.16404352 0.0040356684 -0.078617126 0.06270245

encoder.output2.bias f4 [10]
00000000: da4a 7dbe 6f2d 92be 7bbb 3cbe c4e6 00be
00000010: 407c 86bc 872d bdbd 036b 72be 209f 86bd
00000020: 1d22 7cbe 94c1 b6be
-0.24735585 -0.28550288 -0.18430893 -0.1258803 -0.016416669 -0.09237199 -0.23673634 -0.065733194
-0.24622388 -0.35694563

decoder.network.0.weight f4 [128, 10]
00000000: 92e2 53be 2467 a0be 1573 6e3f 32e1 633e
00000010: 2f3d 91bc 2f2b 493d 6de3 7bbd 5ce7 44be
00000020: aefb 39bf f173 9f3e db28 97be c1a1 813d
00000030: 00e5 82bd 0d3c 83be 2eb0 81bd a444 973e
00000040: b6c8 d13e a4ad 85be 0cce 93be 2878 23bf
00000050: 2bc6 bf3e 6945 ce3e 4a41 fabc 52b6 ac3e
00000060: a983 4cbe ff7c 82be 0ff1 923e b305 0cbe
00000070: 002f 0abf f948 993e 16db 0bbf 33bb ddbe
00000080: 78ca 913e 9c85 e5be 4dc2 3a3d efe1 aebe
00000090: 609e 9ebe 1ec7 643e e4d3 b1be 7a74 bfbe
000000a0: 1eab 43bf 2723 943d 1d1a c23e cf1d ad3e
000000b0: 491c 5cbd f33a 4abe 7448 093f 6a13 c6bd
000000c0: 0296 db3e 6338 dcbe 3d42 223f 68a1 15be
000000d0: cbb7 eebe 1e0c 05bf 90c6 9439 ee46 08be
000000e0: c06f 2bbf 2d51 623e 0496 56bd 6f9f 423f
000000f0: 71fc e7be 6d5d b03e ec8a 4abe 1cea 61be
00000100: c31f c93c 574c 973e bb07 9ebe 52dc 413e
00000110: 6ddb b73e bd41 303e 7cca 39bf 1b4a 99be
00000120: 93f3 db3e 1650 37bc 1cf5 10be 84c3 073f
00000130: a1f0 a9be 1864 513c 5407 91bd 67cc 02bf
00000140: 944c 663f 939f d1be 175d fa3e be31 ddbd
00000150: 47dd 07be 5580 063e cff8 14be a70d 3ebe
00000160: 87ce 1cbf f384 c9be a14f dd3e 5860 3a3d
00000170: 48d8 9e3c 3381 b0be 3455 a43e 8bce 52be
00000180: e19d 343f f49e b6b9 0476 833e 8742 4b3e
00000190: 1d87 1d3e 3535 17be 7116 07bd d387 33bd
000001a0: ba10 813e 588f 58bd 3c84 4cbd 9d4f ffbd
000001b0: 018f a1bd 389d 35bd 4e84 0abf 3b97 04bf
000001c0: 09d5 78be aa73 2dbe bc06 acbd b418 ea3c
000001d0: b6e4 a53e 9c0e 0cbd 01ad 4e3f e1ea 3f3e
000001e0: ec71 903c 6002 a23d aa8e 803e 7e12 3e3e
000001f0: 6b19 cabd 1734 d3be a54e 153f 9585 b2be
00000200: 05e5 aabe 4bdf 103f 3d4f 4c3e 2a1e 2d3f
00000210: df58 e63e 1898 a4bd 1a3d 963c fbb0 773e
00000220: a60d 97bc 71b5 a1bb 8a84 c93e a923 763e
00000230: 0b09 133f 186b 9dbe 0f10 383f 5327 0a3f
00000240: 86c5 08bd 1167 b7bd c1f1 3ebe dba0 923e
00000250: 9224 8e3e 569a dd3e e4c8 f7bd 4f54 89be
00000260: e91e 0c3f a765 c1be 291d 00be 4d6a 2c3e
00000270: 07c6 fa3d 5f2a a6be daf6 393e d9b8 583e
00000280: 1602 65bf 6c55 e7bc dd3f 31be b895 8ebe
00000290: ce9b afbe a6c8 0dbf e8a7 8dbc 480f 94be
000002a0: d42b d1be c364 5d3e e0a9 6f3f 7d38 cdbe
000002b0: 0782 0cbe c81f 30be a2b2 ae3e de0b 003f
000002c0: 1955 433e 32b3 b5be 7e52 75be 55d1 2cbe
000002d0: d791 8f3e 1ffe adbe cd11 353e 1fe0 033f
000002e0: a1a2 333e fbfe d13e f19e b13e 2425 863d
000002f0: ba33 313f c1f0 f7be 32ee 74bf b4bf 133d
00000300: 4ffe d0be 5a9e 353e fa48 6d3b 94e8 3dbe
00000310: 9c12 b83d c395 1e3b b7b0 a3be 468b cd3e
00000320: 24ef 2e3f 1212 563e 32cc 90bd f5b0 7fbd
00000330: 751b 7b3d 6d0d 6dbd 558c 48bf 8e3e d2bd
00000340: 8924 5fbf 2660 18be 6a97 29bf b5d4 81bd
00000350: 483f 0c3f 567d b23d 352f b23c de31 febc
00000360: 08b0 30be f920 df3d 4940 8d3e 352d 2cbf
00000370: 8db3 58bf b39f bb3e 4495 fbbe c54c 573d
00000380: 90c3 823e 66a8 753e b1d6 71be 6918 df3e
00000390: 76a7 afbd e2f1 a53e ccca 02bf fe95 09bf
000003a0: 19f2 b6bd 1d2a 2bbe 50bd d83d eb62 573e
000003b0: 243b 2bbc 69b2 4fbd 7303 193f 0f23 78bf
000003c0: c31f 09bf f147 ff3c f808 783d 9219 ffbd
000003d0: c1b9 1dbc 312c b23e eb48 ab3e e958 8cbc
000003e0: 819b 39bd f914 233d 0112 07bf 1f70 993e
000003f0: ff18 40be 0eee 8fbe 9edd 13bd 22c9 963e
-0.20691898 -0.3132869 0.9314435 0.22253874 -0.01772937 0.04911345 -0.061496187 -0.19228882
-0.7264966 0.31143144 -0.29523358 0.0632968 -0.063913345 -0.25631753 -0.06332432 0.29544556
0.40973443 -0.2610904 -0.2886814 -0.6385522 0.37455878 0.4028733 -0.03054871 0.3373285
-0.199721 -0.2548599 0.28699538 -0.13674049 -0.53977966 0.29938486 -0.54631174 -0.43306884
0.28474784 -0.44828498 0.045595456 -0.3415675 -0.30980206 0.22341582 -0.34731972 -0.37393552
-0.7643298 0.07233267 0.37910548 0.33811805 -0.053737912 -0.1974905 0.5362618 -0.09671672
0.42887884 -0.4301177 0.6338232 -0.14612353 -0.46624598 -0.51971614 0.000283767 -0.13308308
-0.6696739 0.22101279 -0.05238916 0.76024526 -0.45309785 0.34446278 -0.19779557 -0.22061962
0.024551278 0.2955043 -0.30865273 0.18931702 0.35909596 0.17212577 -0.7257459 -0.2993935
0.4295927 -0.011188528 -0.14156002 0.5303271 -0.33191398 0.012780212 -0.07081476 -0.51093143
0.899606 -0.40942058 0.48899147 -0.10800503 -0.13268004 0.13134892 -0.14548038 -0.18559895
-0.61252636 -0.39359245 0.43224815 0.045502037 0.01939024 -0.3447357 0.32096255 -0.20586602
0.70553404 -0.00034832174 0.25675976 0.19849597 0.15383573 -0.1476639 -0.032980386 -0.043830704
0.25208074 -0.05287108 -0.049930796 -0.12466357 -0.07888604 -0.04433939 -0.5410813 -0.5179326
-0.24300016 -0.16938654 -0.08399722 0.028576232 0.32401055 -0.03419362 0.80732733 0.18741943
0.017632447 0.07910609 0.25108844 0.18561742 -0.09868129 -0.4125068 0.5832313 -0.3486754
-0.33377853 0.5659072 0.19952102 0.6762415 0.44989678 -0.08036822 0.018339682 0.24188606
-0.018439125 -0.0049349596 0.39358932 0.24037041 0.57435673 -0.3074577 0.71899503 0.53966254
-0.033391498 -0.08955205 -0.1864691 0.28638348 0.27762276 0.4328181 -0.12098864 -0.26822135
0.54734665 -0.37772867 -0.12511124 0.16837426 0.12244802 -0.32454202 0.18160573 0.21164264
-0.8945631 -0.028238975 -0.17309518 -0.278486 -0.34298557 -0.5538429 -0.017291978 -0.2891791
-0.4085375 0.21620469 0.93618584 -0.4008216 -0.13721476 -0.17199624 0.3412066 0.5001811
0.19075431 -0.35488278 -0.2395725 -0.16876729 0.28040954 -0.33982942 0.17682572 0.51513857
0.17542507 0.41014847 0.34691575 0.06550053 0.69219553 -0.48425868 -0.9567596 0.036071494
-0.40819022 0.17736188 0.0036206827 -0.18545753 0.089879245 0.0024198152 -0.3197076 0.4014532
0.6833365 0.20905331 -0.07070197 -0.06242462 0.061305482 -0.057874132 -0.7833913 -0.102658376
-0.87165123 -0.14880428 -0.66246665 -0.06339399 0.5478406 0.08715312 0.021751026 -0.031029638
-0.1725465 0.10894961 0.27588108 -0.6725648 -0.8464897 0.36645278 -0.49137318 0.052563448
0.25539827 0.2399002 -0.23617055 0.4357331 -0.085768625 0.32411104 -0.51090693 -0.53744495
-0.08932895 -0.16715284 0.105829835 0.21033828 -0.010451112 -0.050707255 0.5977089 -0.96928495
-0.5356409 0.031162234 0.06055543 -0.12456049 -0.009626807 0.3479934 0.3345407 -0.01713224
-0.045314316 0.039814923 -0.52761847 0.29968354 -0.18759535 -0.2811131 -0.036100022 0.29450327

decoder.network.0.bias f4 [128]
00000000: 3dac 03be 6feb d23d 3b86 923e badd c73c
00000010: c3dd 03be e1da afbd c30b 1e3f ba5d f03d
00000020: 3a89 55be 2963 a53e f99c 463f 3b5f d9be
00000030: ba84 61be db8e 973e e7d8 9c3d 1018 7b3e
00000040: 7878 83bc 44a9 dfbe 7663 8a3e f906 58bf
00000050: 3d59 bd3e 82b9 b2bc c4cd 95bd bca5 0bbf
00000060: d613 cf3e f6c8 ae3e 6032 53bd cd99 033f
00000070: 7106 b8be 3ac4 c3be 39be 343f 5137 47bd
00000080: 24ac 423e 7568 563f 34ed fc3d 0bb3 2b3f
00000090: aae9 993e 5460 29be 4a18 b83e 37f9 573b
000000a0: 690a a3bd e7be ed3d 3588 5bbe 7f7f cd3e
000000b0: aec9 47be 9e00 c03e 5d94 cc3e 0e7c 583f
000000c0: c207 1e3f 3a74 9b3e 4b96 973e 3646 26bf
000000d0: 8241 32bd 570d 373e 874c 91be 4307 5b3e
000000e0: 71e2 4f3e 286b 203f 0b65 e9be 095d 1d3e
000000f0: f8c9 fb3d d75c 84be eeb7 df3e 10e1 a4be
00000100: 3690 613f ffdb c4be 7fe1 4b3d 00dd 113f
00000110: 3f47 293f a5bb a33e 9ec9 613d 43b1 1d3e
00000120: f1ab d5bb 0499 dc3e d68f 4c3f 3500 9e3d
00000130: 3a28 99be d57a 0c3d 683a 233f 906b 933e
00000140: fb6d ecbd 76cf 053f 55bf 48bd d217 213e
00000150: 7d00 403f 9bf9 43be da94 38bf 1941 6b3f
00000160: 7af8 293f 25e7 09bf 96b0 0a3d 1906 133f
00000170: fa96 bfbe b7b7 6dbe f694 2a3f 683d 923d
00000180: 3208 92bc 5004 c43a 777b e93b 8fc1 ce3d
00000190: b797 f53e c04d afbe 03cc 23bd 1bb0 bbbd
000001a0: dab3 57be 015e a6bc e90b 75bd 4da3 cd3e
000001b0: e4f8 b53e 3371 b33e 8a93 43be 9f5f 753e
000001c0: 70f8 9f3e fe26 223f 19d7 ad3e cf65 553e
000001d0: d164 30bd e9eb 20be 5336 16be b6f3 4ebe
000001e0: 9785 3e3f e0d8 a03c a14b 15bf 0820 abbe
000001f0: dabc 813e 25bb 283f df7f 44bf 911d 35be
-0.12858672 0.10298812 0.28618035 0.02439772 -0.12877564 -0.0858667 0.61736697 0.11736627
-0.20853129 0.32302216 0.7758327 -0.42455468 -0.22023287 0.29601178 0.07658558 0.24520898
-0.016048655 -0.43683827 0.27029008 -0.8438564 0.36982146 -0.021816973 -0.07314637 -0.54549766
0.4044482 0.34137696 -0.051561713 0.51406556 -0.35942414 -0.38235646 0.70602757 -0.04863674
0.19010979 0.8375314 0.123499304 0.6707007 0.30061084 -0.16540653 0.3595603 0.003295494
-0.0796097 0.11608677 -0.21438678 0.40136334 -0.19510528 0.3750047 0.39956942 0.8456429
0.6173059 0.3036211 0.29606852 -0.64950883 -0.043519504 0.17876182 -0.28378698 0.21389489
0.20301224 0.6266351 -0.45584902 0.15367521 0.12294382 -0.2585208 0.43695015 -0.3220296
0.88110673 -0.38449094 0.049775597 0.56977844 0.6612434 0.319791 0.055123918 0.15399651
-0.006520741 0.43085492 0.79906976 0.07714883 -0.29913503 0.03429683 0.63760996 0.28793
-0.115444146 0.52269685 -0.049010593 0.15731743 0.75000745 -0.19138186 -0.7210213 0.91896206
0.6639477 -0.53868324 0.03385981 0.5743118 -0.37419873 -0.23214613 0.66633546 0.071406186
-0.017826173 0.0014954899 0.007125314 0.10095512 0.47967312 -0.34239006 -0.039989483 -0.09164449
-0.21064702 -0.020308496 -0.05982581 0.4016365 0.3554145 0.35047302 -0.1909925 0.23962258
0.3124423 0.6334075 0.3395317 0.20839618 -0.043064896 -0.15714993 -0.1466916 -0.20210156
0.7442259 0.019634664 -0.58318526 -0.33422875 0.25339395 0.6591056 -0.76757616 -0.1768706

decoder.network.2.weight f4 [128, 128]
00000000: ff15 1dbd 5e94 793d debf 8bbd 519f 0ebe
00000010: 8809 103d f2c7 94bd 6e1b 093e 2ca6 673d
00000020: 1713 c03d ed24 82bc ff72 16be 6093 723f
00000030: d90c a43d 8b60 f03d d6dc 013e ef28 a03e
00000040: e8b8 9abd 5ee1 15be 1203 f43d a35f 61bd
00000050: eabe 68be 3916 03be 58dc bebd c5ca 113f
00000060: a9fc c23d 1c37 023e f9fe 20be e30b 3abe
00000070: b514 f93c af17 c33e a299 24be c365 873d
00000080: 5a21 60bd f524 63be d4a9 2f3d 835a c8bd
00000090: 46da c9bd 8925 febd d661 173e bd48 8a3e
000000a0: 2f31 3a3e 4eb9 fd3c 1de2 863e df0a 3c3e
000000b0: d831 5a3e 11ba 4c3d 7f40 4bbe 3ab1 55be
000000c0: 1a57 b93c dc4d 303d f299 81be 5814 31be
000000d0: dda4 93bd ced6 34be d098 dfbd 376e 233e
000000e0: 4132 6f3d 17fe ba3d bdd2 81be a6ab 3a3e
000000f0: 20c1 493e 8cbf d33e 6c32 b63e cb08 a6bc
00000100: 16ff b0bd 89ad debe 79cd 123b b0f0 083e
00000110: d1c6 e03c 2e68 adbd e262 4f3e fb6f 2fbe
00000120: f801 e83c 1896 473e bbd6 863d 8829 99bd
00000130: fda3 ef3c 7611 ac3e 95e6 5b3e d5a3 953e
00000140: 6ac8 41bc 21ad ecbd fa89 fbbc 5c98 11be
00000150: 8894 d33c 3df3 e1be 8008 96be 3d5e ad3d
00000160: f45f 883e 92e4 49be 3a4b 8abd aeb0 7d3e
00000170: f628 e8be b8c2 623e d2f8 bf3c 4748 a0bd
00000180: bbe0 6bbd 25bf 6fbe 28d2 843e 16b6 54bc
00000190: 1a3f 0d3e 1c7b a13e 9aad 17bf 0361 66be
000001a0: 6d6c d03e 6794 9ebb f63b 6a3e cf45 0a3e
000001b0: 5354 1fbe 3536 153d 93e1 70bd 8fc7 043f
000001c0: f58d 59bd a996 523e 65ae 063d 7977 2c3e
000001d0: cc8f 1e3e a180 1f3d 2b48 44bc 1a96 b73e
000001e0: e581 d03c 45d6 a3be 5873 653d c8d1 9cbc
000001f0: 7c2b 78be e927 80bd 696e adbe 2a41 4a3d
00000200: b580 0e3e 98db da3d 21ff 593d 6f8c cb3d
00000210: 66a4 7d3e 27aa 0e3f 5bc4 19bb 2a52 7b3e
00000220: 9816 063e 3f8a c83d 0408 ce3d f3eb 5ebe
00000230: d6a5 e73c 9852 953d f48c 123e 602f cebd
00000240: 98b5 0abe f5df 00bd 847f 9abe b403 3cbe
00000250: 56ff fcbd 6bc5 d73e 76fa 3e3d 3261 f13c
00000260: 8884 27be 5531 83bc 8b52 ed3e fd4a aebe
00000270: 8999 4b3d 6387 323e 3732 263e 6764 863c
00000280: 5c71 c2bd ce5a cb3c 9fbf aa3d ca5d 9cbd
00000290: f93c e03d 343f 333e 8f8d c63d 4156 7e3d
000002a0: a2f5 9bbe 6059 483d 25e8 303e 7714 c43e
000002b0: 6545 a5be ba3e 87ba bb4b 3ebe 28a5 f13c
000002c0: 835e f33d 1993 dc3c 608d 0a3e b384 0dbd
000002d0: 3ee5 963e 0123 663c 00bc 013f 5766 7bbe
000002e0: 861d 02be 0ae0 273e f96e 0c3f 3515 fe3d
000002f0: b726 123d 9e8d 933e bab8 7bbd 602c 60bd
00000300: 4aee 70bd 40d5 09bd b95d 543e 37ab a13e
00000310: 4252 c93d ed90 103e b697 3c3d 2add 91bc
00000320: 2001 f83d c5ec 643d a188 c8b9 e80e c7bd
00000330: c83b fc3e 37cb e5bd 1f0f 463e b005 70bc
00000340: 93c7 37be 9b3e cebc b221 fa3d 664c f03d
00000350: e91b 9bbc 8342 a43c 0728 2bbe f739 52be
00000360: 9736 04bd 82e0 203e 5cdc aa3e 8ff8 7ebe
00000370: 3d81 003f 17aa a0bd 4a97 6a3d 9952 6d3e
00000380: d062 423d ff41 893d 95d5 c53d 772f 3f3e
00000390: 7cdf 32bb 70e7 683d ad84 4f3d 5ad1 a73d
000003a0: 9f9b 87bd a138 c73e 7b01 8d3e cfc5 6b3d
000003b0: 48cc b63d dffe bb3d f122 cabc 838a e03c
000003c0: 3be4 953e 51c2 ad3c 24d4 cfbd f035 85be
000003d0: 58cc a23e f46b 7dbe 8438 df3e 12f9 c2bd
000003e0: 3980 123e 41c2 2e3e 73df d9bd d061 8dbd
000003f0: 0149 9bbc acd0 3cbe 01ad 963e 61e7 72be
-0.038351055 0.06093251 -0.06823705 -0.13927962 0.03516534 -0.07264699 0.1338937 0.05655496
0.09378641 -0.015886748 -0.14692305 0.94756126 0.08010263 0.11737164 0.12681898 0.3128123
-0.07554799 -0.14636752 0.11914648 -0.055022847 -0.22729078 -0.12801446 -0.09319371 0.56950027
0.09520847 0.12716335 -0.15722264 -0.18168597 0.030405382 0.38104007 -0.16074231 0.066112064
-0.054719307 -0.22182067 0.04288657 -0.09782889 -0.098560855 -0.12409503 0.14783415 0.2700862
0.18182825 0.03097215 0.26344386 0.18363522 0.21308076 0.049982134 -0.19848822 -0.20868388
0.022624541 0.043043002 -0.25312763 -0.17292917 -0.072091796 -0.17660066 -0.109178185 0.15960012
0.058397535 0.09130495 -0.25356093 0.18229541 0.19702578 0.41357076 0.35585344 -0.020267865
-0.08642404 -0.43491772 0.0022400303 0.13373065 0.027438553 -0.08467136 0.20252565 -0.17132561
0.028321251 0.1949085 0.06583925 -0.074786246 0.029253 0.33607072 0.21474679 0.29226556
-0.011827568 -0.11556459 -0.03070544 -0.14218277 0.025827661 -0.4413089 -0.2930336 0.0846524
0.26635706 -0.19716099 -0.067526296 0.24774429 -0.4534375 0.22144592 0.023434076 -0.07826286
-0.057587367 -0.2341276 0.25941586 -0.012982866 0.13793603 0.31539237 -0.5924927 -0.22497945
0.40707722 -0.0048394683 0.22874436 0.13503192 -0.15559511 0.03642865 -0.058808874 0.51867
-0.053113896 0.20565285 0.03288116 0.1684245 0.15484542 0.03894103 -0.011980097 0.35856706
0.025452564 -0.31999412 0.056018203 -0.019143 -0.24235338 -0.06257612 -0.338733 0.04937855
0.13916285 0.106864154 0.053221826 0.09938895 0.24769744 0.5572838 -0.0023462984 0.24543062
0.13094556 0.09791993 0.100601226 -0.21769695 0.028277319 0.07291144 0.14311582 -0.1006763
-0.13545835 -0.031463582 -0.30175412 -0.18360788 -0.12353389 0.42142805 0.046625577 0.029465292
-0.1635915 -0.016014734 0.46352038 -0.34041587 0.04970697 0.17434458 0.16230093 0.016405297
-0.09494278 0.024823572 0.0833733 -0.07635076 0.109491296 0.17504579 0.09694969 0.062093977
-0.3046084 0.04891336 0.17276056 0.38296863 -0.32279506 -0.0010318377 -0.18583576 0.029497698
0.11883261 0.02692561 0.13530493 -0.03455038 0.29471773 0.0140464315 0.5067749 -0.24550758
-0.12706575 0.16394058 0.5485683 0.12406389 0.035681453 0.28818983 -0.061455466 -0.05472982
-0.058821 -0.033650637 0.20738877 0.3157594 0.098301426 0.14117785 0.04604312 -0.017805655
0.121095896 0.055889864 -0.0003824877 -0.0971964 0.4926436 -0.11220401 0.19341706 -0.0146497935
-0.17947225 -0.025176337 0.12213458 0.11733322 -0.018934207 0.020051247 -0.16714488 -0.20529924
-0.032278623 0.15710643 0.33371246 -0.24899505 0.501972 -0.07844942 0.057273187 0.2317604
0.047457516 0.06702041 0.09659878 0.1867045 -0.0027293852 0.05686134 0.05066364 0.081942275
-0.06621479 0.38910392 0.27540192 0.05756169 0.08925682 0.09179472 -0.024674864 0.027409798
0.2927569 0.021210821 -0.101478845 -0.26017714 0.31796527 -0.24748212 0.43597806 -0.09520163
0.14306726 0.1706629 -0.10638323 -0.06903422 -0.01895571 -0.18438977 0.29428867 -0.23721077
