models/mnist_vae_dims_128/vae_3d.pth (torch, 948378 bytes, 14 tensors)

encoder.network.1.weight f4 [128, 784]
00000000: d8f9 683c 6a11 e73c b357 0bbc ba89 c9bc
00000010: d5b5 9fbc 0ada 3fbc 577b d3bc 1316 abbb
00000020: 0199 c33a d473 0fbd b137 ea3c 520d 0c3d
00000030: 8030 9dbc 8077 863b b722 983a 25bf 08bb
00000040: ee74 a6bc d33e e83c c17e fdbb 3e61 c13c
00000050: 2049 9d3c d3c4 a63b 43f3 a2bc d337 aabb
00000060: f79e a73c 1fba 013d ec20 ddbc cac0 e03b
00000070: 2560 82ba 6ea7 25bc 7c5b bd3c 0a60 78bc
00000080: e5ac a03c 0aba 43bc de20 9cbc f78d 9dbc
00000090: 10c1 06bd 178e 1dbc a5bb bf3c 0302 efbb
000000a0: 9b3f 64bc ad04 c9bc 8afe b1bb dc74 6dbc
000000b0: 8ad7 0ebc 9523 a53c 5ccc 903b 3c7b 08bd
000000c0: d380 bbbc b6cb 0d3d 0099 93bb 1363 60bc
000000d0: 6ef7 84b9 fe8a d83c b375 9e3c 7e9f eebc
000000e0: 4a9a 6dba b753 9abb 5c33 283b 75f9 d13c
000000f0: 0514 86bc cafd 58bb 0ac5 debc 1e1b f33c
00000100: b340 08bd 136b 06bd e28f 833c 6eb9 6f3a
00000110: 3c03 ba3b 3d84 cb3c eb41 1bbc 1d3f fe3b
00000120: f80b 383c 6a70 11bc ac22 babc f32f 13bc
00000130: 6ee8 803a b137 d83c 62b6 0c3d 3779 c73c
00000140: 0a67 84bc 01f6 f6bc 4eaf f8bc 1007 923c
00000150: 3355 dbbc d0a2 aabc 93bb 103d a7b9 90bc
00000160: e52c 17bc bc33 e6bc 0aef 12bc 5e7e 8b3b
00000170: d354 e2bc c544 9dbb 7db9 ffbc 8c8d 27bd
00000180: 8ef3 d5bc eff5 233c 7b1e 08bd 1960 2e3b
00000190: b262 01bd 64f2 2abc 0925 88bb b7c9 0ebc
000001a0: 2693 6d3c a224 83bc eb4f 8ebc 06fc cbbc
000001b0: 0710 9e3c 3352 a8bc d3f9 f6bc ee36 6b3b
000001c0: 7fa7 02bd 0050 1739 c1f3 b83b 23cb b9bc
000001d0: c1b9 c5bb 2da2 923b 18b1 1fbd e8ca 07bd
000001e0: 0a68 0cbd c036 9438 57a9 d6bc ee6e 99bc
000001f0: 0ef0 c5bb 3014 9f3c e32e 313a 0e98 803a
00000200: f48a 0fbc 0649 30bd f496 e1bc d258 d73a
00000210: 082b b3bb 5b5c 153d 1a6c a7ba c671 9c3c
00000220: 8b5c 4e3c 9c82 493d a8a3 11bd 171e 3ebc
00000230: f7d5 8abb 9a6b ff3c c021 97bc 930c d0b9
00000240: 0fdb afbc c238 c0bc 7eb6 a93c 4c95 28bd
00000250: 00b9 12bd dd8e ebbc c8e8 2b3b f5c8 2abd
00000260: cf67 013c 4b1b 313c 444c babc d487 53bd
00000270: a6d8 97bc 0f81 4cbd 1fb3 7abc 14ba 00bd
00000280: feb0 63bc 450c 53bd 2497 79bc 8fed d83a
00000290: e20e d63c bfdb 3f3d ddf9 c6bb 235d f93c
000002a0: 4ab7 79bb 315f bcbc d7e0 57bc 3706 9cbc
000002b0: 2971 3bbc f052 f3bc 749f b73c 4e07 3f3c
000002c0: 5538 41bd b30c c6bc 62fa 13bd 6adb 2cbd
000002d0: 0f83 1dbd c297 a7bb 3949 3b3c 4d5d deb9
000002e0: 0d92 25bd 0072 fa3b 7267 383c b0cc c43c
000002f0: c36e 0ebd 3e84 86bc 1898 1dbd d8f2 09bd
00000300: 7089 4fbc ffdb abbc 3d4f 5bbc 8dad b1bc
00000310: fa58 a03c ae1c abbb de5c ec3c ff72 7b3c
00000320: 4a23 c5bc e35e 2bbb 2272 293c 3b38 55bd
00000330: d39e 02bd a799 653a a0f6 6dbc 0e69 ecbc
00000340: b797 88bb 1ac5 28bd 2921 0abd daa2 9dbc
00000350: 9a76 00bd 1f68 2bbd c370 6ebb b305 4bbd
00000360: 6792 34bb 4342 a6bc e388 993c 11d1 013c
00000370: 5ea9 42bc 23bc 91bb 3a5e 6e3c fa5d 05bd
00000380: c130 e5bc bc71 493c cf11 e4bc 5ce8 3a3d
00000390: f298 b03c 6923 7a3c 41f0 593c 9a17 83bc
000003a0: 32a2 28bc a094 503c 973b f239 a193 30bd
000003b0: a0a2 d4bb 9cf7 bfbc 80d5 8bbc 2667 093c
000003c0: 318e d0bc 1a16 31bc d261 b1bc 0758 d6bc
000003d0: 2f76 2ebd b908 5cbc 7a6d 09bc 3abf 8dbb
000003e0: 39b2 5dbd b7e9 2abd 68bb d7bc 0c5c cdbc
000003f0: 8e67 033c fa9b bebc 19ff 22bb d9f6 f73c
0.014219724 0.028206546 -0.008504796 -0.024601806 -0.019495884 -0.011709699 -0.025815649 -0.0052211373
0.0014922918 -0.03502257 0.028591009 0.03419239 -0.019188166 0.004103601 0.0011607026 -0.0020865884
-0.020319428 0.02835027 -0.0077360575 0.023605939 0.019199908 0.0050893812 -0.019891387 -0.005194643
0.020461543 0.03167164 -0.026993237 0.0068589197 -0.0009946866 -0.010110719 0.023114912 -0.015159616
0.019613693 -0.011946211 -0.019058641 -0.019232733 -0.032898962 -0.009616396 0.023404906 -0.007293941
-0.01393118 -0.024538362 -0.0054319547 -0.0144931935 -0.008718381 0.020158568 0.004418893 -0.03332065
-0.022888577 0.034618102 -0.004504323 -0.013695496 -0.0002536135 0.026433464 0.019343233 -0.029128786
-0.00090638234 -0.0047096866 0.0025665378 0.025631646 -0.016366968 -0.0033110254 -0.027193565 0.029676016
-0.033264827 -0.032816958 0.01605982 0.00091447576 0.005676655 0.02484333 -0.009476165 0.0077589885
0.011233322 -0.008876899 -0.022721611 -0.0089836 0.0009834894 0.026393743 0.03435362 0.024349792
-0.016162414 -0.0301466 -0.03035703 0.017825633 -0.026774025 -0.020829588 0.035335135 -0.017666651
-0.009227012 -0.02810084 -0.008968124 0.0042570075 -0.027628338 -0.0047994577 -0.031216377 -0.040906474
-0.026117112 0.010007366 -0.033232193 0.0026607572 -0.031588264 -0.010433767 -0.0041548056 -0.008715085
0.014500415 -0.016008679 -0.017372092 -0.024900448 0.019294752 -0.020547008 -0.030148422 0.0035890895
-0.031898018 0.00014430285 0.005644292 -0.022679871 -0.0060341065 0.0044748993 -0.03898725 -0.03315249
-0.034278907 7.067388e-05 -0.026203794 -0.018729653 -0.0060405796 0.019418806 0.0006759001 0.0009810941
-0.008761156 -0.04303839 -0.0275378 0.0016429669 -0.005467776 0.03646503 -0.0012773306 0.01909722
0.012595306 0.049196824 -0.035556465 -0.011603854 -0.0042369324 0.031179238 -0.01844871 -0.0003968222
-0.02146676 -0.023464564 0.020716902 -0.041158006 -0.03582096 -0.028754646 0.0026231278 -0.041695554
0.007898285 0.01080973 -0.022741444 -0.051643208 -0.018535923 -0.049927767 -0.015301495 -0.031427458
-0.013897179 -0.051525373 -0.015233789 0.001655029 0.026130144 0.046840426 -0.0060722665 0.030439919
-0.0038103634 -0.02299461 -0.013176165 -0.019045932 -0.011440554 -0.029702634 0.0224149 0.011659456
-0.047172863 -0.024175977 -0.036127456 -0.042201437 -0.038455065 -0.0051145265 0.011431032 -0.00042412654
-0.040422488 0.0076429844 0.011255132 0.024023384 -0.0347736 -0.01642048 -0.038475126 -0.03367886
-0.012667045 -0.020978926 -0.013385591 -0.0216892 0.019573677 -0.0052219247 0.028852876 0.015347241
-0.024064679 -0.0026149086 0.010342153 -0.05205558 -0.031889748 0.0008758553 -0.014524132 -0.028858688
-0.0041684764 -0.041203596 -0.03372303 -0.019242693 -0.031363107 -0.041847344 -0.003638313 -0.049565982
-0.0027553083 -0.020295268 0.01874203 0.0079233805 -0.011881201 -0.0044474765 0.014548833 -0.032560326
-0.02797735 0.012295183 -0.027840523 0.04563175 0.021557305 0.0152672315 0.01330191 -0.016002465
-0.010292577 0.012730747 0.00046202235 -0.04310954 -0.006489113 -0.023433499 -0.017069578 0.008386409
-0.025458427 -0.010808492 -0.02165309 -0.026165022 -0.042593177 -0.013429814 -0.008387918 -0.0043257745
-0.054125044 -0.041726794 -0.02633448 -0.025068305 0.008020295 -0.023267735 -0.0024871288 0.030269073

encoder.network.1.bias f4 [128]
00000000: 94e8 45bd 2e23 dc3e f238 083f df4a e8bb
00000010: 6c2f 563f 54fb ae3e e4ad 1cbd 4543 123c
00000020: 1b4f f23e e059 963d 75e1 4a3e 469d 253e
00000030: e344 6a3b 0a0d c73e 763c ad3e f83c f7bc
00000040: ef51 8fbc 0694 0c3e c660 303e 829a d13b
00000050: 077e c4bc ae06 f0bc 154c 76bd 22cc bdbc
00000060: 2d52 833d ac13 4c3e 0aec 6d3e f7ca fd3b
00000070: b067 5b3e 206d 923e 3d37 f0bc c727 963e
00000080: 2de6 bf3d f9f1 58bd ab75 01bc 2d9c 353e
00000090: 53bb 813e 978a ae3e b23f 993e 2545 a63e
000000a0: 87f1 743c 3dc6 973e 7600 3abd ff20 513e
000000b0: f120 863e 3095 0a3f a499 923e 9873 ab3e
000000c0: ff1e e23d c1ce 293f 8946 a03e a14a a83e
000000d0: dcf2 503e d738 8bbb f730 d03e 8dec 6a3c
000000e0: b8cf 413e 1c5d 103d 2a57 643c 8099 a33e
000000f0: 5407 953e 7545 ac3c 24c6 79bd 3860 973e
00000100: ed45 3c3c d509 d03c 8e1a 6c3e 4df1 723e
00000110: d647 0cbe 59cf e43e a65d eb3d 1945 de3e
00000120: 5619 8b3e 0053 163e 0336 063e acc6 b8bc
00000130: e933 5439 43b4 6f3e 420d 783e fed4 193f
00000140: d08b 393f 4a84 1abd 3a42 54bc 70b4 763e
00000150: b0da 323e fe33 2c3e 8ed6 9c3e 377d 373e
00000160: 5443 9e3e 7e25 213c da2d 9a3c 78a7 193b
00000170: 2263 223f be21 8d3e a1a8 543e f131 503e
00000180: eb03 ea3d e0de 513e d314 363e 8f40 033f
00000190: 018e 46be eb81 ff3e 085f 963c d02b ae3e
000001a0: 000b 693e 95b6 fa3e 096c 18bd 2e34 1e3e
000001b0: c9e0 9e3b c0da 33bd f95e c8ba 4f25 0e3f
000001c0: 2b9c 463f cef4 61bc c7c4 bf3e 06de b23e
000001d0: 8793 203f 7978 313e c189 0b3b 98d9 313e
000001e0: 61a3 f6ba 497b 5d3e 55f5 8dbc b84c 353f
000001f0: 4404 67bc 709b 8cbe 7b6b cabc b7ec 683e
-0.048317507 0.4299559 0.5321189 -0.0070890035 0.8366611 0.34176123 -0.038251773 0.008927171
0.47325978 0.07341361 0.19812568 0.16173276 0.0035746626 0.38877136 0.3383519 -0.03018044
-0.017495124 0.13728341 0.17224416 0.0063965926 -0.023985876 -0.02930006 -0.06013115 -0.023168627
0.06412158 0.19929379 0.23234573 0.0077451426 0.21426272 0.2859888 -0.029323215 0.29327223
0.093700744 -0.052965138 -0.007901589 0.17735358 0.2533823 0.3409011 0.29931408 0.32474628
0.014950163 0.2964343 -0.045410596 0.20422743 0.26197007 0.5413389 0.28632843 0.3348663
0.11041068 0.66331106 0.31303814 0.32869437 0.20405143 -0.004248719 0.40662357 0.014338625
0.18926895 0.035245046 0.013936797 0.3195305 0.29107153 0.021029213 -0.060979977 0.29565597
0.011491281 0.025395313 0.23057005 0.23724861 -0.13699278 0.44689444 0.114924714 0.43412092
0.27167767 0.146801 0.13106541 -0.022555672 0.00020237234 0.23408608 0.24223807 0.60090625
0.7247896 -0.037723817 -0.012955243 0.24092269 0.17466235 0.16816708 0.30632442 0.1791886
0.30910742 0.009835599 0.018820692 0.0023445766 0.63432515 0.27564806 0.20767452 0.20331551
0.114265285 0.20495176 0.17781381 0.51270384 -0.19390108 0.49903807 0.018355861 0.340178
0.22758102 0.48967424 -0.037212405 0.15449592 0.004848574 -0.043909788 -0.0015287093 0.5552568
0.77582043 -0.013791276 0.37454817 0.34935015 0.6272511 0.17331113 0.0021291825 0.17368162
-0.0018817001 0.21629061 -0.017328897 0.7082019 -0.014100138 -0.2746234 -0.024709454 0.2274655

encoder.network.3.weight f4 [128, 128]
00000000: 0094 4dbd bd9d 7c3d f12c 3bbd 2612 c2bd
00000010: d404 003e a353 5f3d 216e b23d 05fa 42bc
00000020: 7f73 bd38 f163 07bc 8a46 4e3a 9810 423d
00000030: f7a1 dabc ba86 243c c93a 9ebd e53e 763c
00000040: d32b d93c 591d 163d de23 313d 4246 a13d
00000050: 0e6b 9ebd 6460 cb3b e05a ce3d 9a8e 923c
00000060: 3c93 8fbd af58 adbd ffb7 95bd 0039 bc3d
00000070: 116c 313d bef6 15bd ce7c 063d 8766 36bb
00000080: f7de 783c 2df6 98bd 9f08 0f38 6c29 e93d
00000090: cb79 3abc 24bd 053e 12f7 00bd 28b8 643d
000000a0: c5fd 00bd 7f15 953d dcdc ac3d de8d be3d
000000b0: b0e0 b03d 6fb8 1b3d d519 d73c fbfe 873e
000000c0: d169 333c ce5c fdbb 3f89 4a3d 708c 23be
000000d0: f248 c1bc 5f8c 75bd d4a4 d2bc 6ba9 b5bc
000000e0: 35f9 803d a1fc acbd aa4e 36bb 99e0 413e
000000f0: 9234 283e 9d89 6d3d 6b86 c2bc 2678 2239
00000100: bd84 603c 73eb 49bd b871 ec3d 4378 35bc
00000110: 72b3 ac3d 7493 fe3d f258 e13d 09e6 0c3d
00000120: 74db 953d b107 253d 1e69 23bd 139d 0e3d
00000130: 3932 1ebd be85 ee3d 6050 a4bd 84d7 25bd
00000140: 7da4 063e ccf9 b4bc 46d7 8cbb 659c a43d
00000150: 0670 8abc 56b7 8abc 5bc1 093d 48fa 963c
00000160: 0b61 9bbd 4244 33bd 625c 3fbd 2fe2 353c
00000170: c05f fabc eb1d 803d fe77 e93a 6198 1ebd
00000180: 68e5 e3bb 243b 0dbd 95e3 853d 3431 423d
00000190: 075d 74bc 4d29 8e3d 4946 973d 3da1 123e
000001a0: a7cc 463d e4f0 a4bc 696a 873d f744 183c
000001b0: d3c5 a7bd 0c3d ce3c ba4f 02bd 8dda db3d
000001c0: 5b7b aa3c 7c66 5b3d 1a41 253d 3ac0 c33d
000001d0: a6d1 d03d 55d1 5d3d a43a 833d 6a13 0abd
000001e0: 931d 57bc 84df d53c db9f 1cbd 3d5c 983b
000001f0: 0fb9 bbbc 3e14 703c 5d09 ccbc 6b71 f9bc
00000200: f440 343d cd39 b63d a0ae 4dbd 73f9 493d
00000210: 10b4 c13d 3462 3a3e 7251 71bb dd01 ab3d
00000220: 9051 dcbd f46e debe f660 aa3d 7ef5 643d
00000230: 97aa 70bd a695 8f3c 9860 01bd 49c1 63bc
00000240: c051 9c3d bc44 97be da2a 383b 5e7e 75bc
00000250: 9c88 a33c b2f0 303d a96d b4bd be55 ef3a
00000260: c897 7b3d d1de f23b d9ec 63bd e55a 3ebd
00000270: 4fea 14be 946b 07be 6427 a93d c7ca 66be
00000280: 74e1 8dbd 2c1c 8f3d 10d7 95bc 8f3a f23b
00000290: 9890 5dbd 2938 62bd 8d2f 95be 69be b63d
000002a0: ab21 223d 3f4a 52bc 5502 28bd d995 dcbe
000002b0: 018b 993d 1b25 cc3c c451 d3bb 40c0 59be
000002c0: 8253 35bd a442 343c f4ef 9c3b 2e42 683c
000002d0: 4c9f a6bc 792b 4c3c ec58 1fbe caf1 86bb
000002e0: 1d78 0abd 51b9 98bb f976 acbd e2d0 a2be
000002f0: f2f8 fbbd 87da 27bd 3be2 b33d 0680 4dbe
00000300: a5e7 113d 52a3 a43c 9d7c 8dbd 5f46 2abd
00000310: 094a 1bbd 95ef 373d c053 4abe 6e00 0d3e
00000320: e52d 543d 861e debe 9d4e 9e3d 5a8a a93d
00000330: 9bd0 873d f0c4 d3bc 5c3d 82bd d537 14be
00000340: dad4 013e 0139 69bc 6f8e 53bd be4d 043e
00000350: 9508 5cbd 1377 863d f3b0 21be 8b40 93be
00000360: 7d2b d53d 230a 913d 8a04 9bbd 40ac 58bd
00000370: cf83 293e 5656 a4bd 7494 afbd 6ce7 28be
00000380: 34ed c0bc 2f37 ff3c a070 f1bc 43fb d43c
00000390: d757 c13c 0ecc 6fbd e7d5 98bd 023b c53d
000003a0: c455 0bbd b9ec 443d 3bc3 523d e5ba 583d
000003b0: 570f a33b 169e a83d a25c 003d ba44 8f3d
000003c0: 2c31 823e a595 99bd d781 4a3d 8118 2fbf
000003d0: cb62 92be 8a79 093d 49bb e1bc f045 c93d
000003e0: 46ad 3ebe 0a83 893b ddc9 3cbd 2b05 d23d
000003f0: 98e0 073d 6a74 88bc 356a 5d3b 8d1f 633c
-0.050189972 0.06167387 -0.045697156 -0.09476118 0.12501842 0.05452312 0.08712412 -0.01190043
9.033735e-05 -0.008263574 0.00078687875 0.047379106 -0.026688559 0.010041887 -0.07726056 0.015029644
0.026510155 0.03664908 0.043247096 0.07874729 -0.07735263 0.006206559 0.10075927 0.017890263
-0.070105046 -0.08464181 -0.07310485 0.091905594 0.04331595 -0.036612265 0.032833867 -0.0027832107
0.015189878 -0.07468829 3.4101886e-05 0.11384854 -0.011381577 0.13060433 -0.031485625 0.055839688
-0.031492013 0.07279491 0.08440563 0.09304403 0.08636606 0.038017686 0.026257435 0.26561722
0.010950522 -0.0077320104 0.049447294 -0.15971541 -0.023594353 -0.05994832 -0.025713362 -0.022175511
0.062975325 -0.08446623 -0.0027817884 0.18933333 0.16426304 0.057992566 -0.023745736 0.00015494283
0.013703522 -0.049296807 0.11545128 -0.011076036 0.08432664 0.12430468 0.11003293 0.034399066
0.07317248 0.04029054 -0.03989517 0.034817766 -0.038622115 0.11646603 -0.08023143 -0.040488735
0.13148685 -0.022091769 -0.0042981235 0.080376424 -0.01689912 -0.016933125 0.033631664 0.01842989
-0.07586869 -0.043766268 -0.046718962 0.01110129 -0.030563235 0.062557064 0.001781225 -0.03871954
-0.0069548376 -0.03448023 0.065375485 0.047410205 -0.014914758 0.06941471 0.07386453 0.1431932
0.048535015 -0.020134397 0.06612093 0.009293786 -0.08192029 0.025175594 -0.031814314 0.10735045
0.020810774 0.053564534 0.04034529 0.09558149 0.10196237 0.054154713 0.06407669 -0.03370992
-0.01312961 0.026107557 -0.038238388 0.0046496675 -0.022915391 0.014653264 -0.024906809 -0.03044959
0.044007257 0.088977434 -0.050215364 0.04931016 0.09458172 0.18201524 -0.0036822227 0.08349965
-0.10757744 -0.43444026 0.08319275 0.055898182 -0.058756437 0.017527413 -0.03158626 -0.013901063
0.0763278 -0.29544628 0.0028101713 -0.014983742 0.019962601 0.043198295 -0.088099785 0.0018259806
0.061424047 0.0074118157 -0.055645797 -0.046473403 -0.14542507 -0.13224632 0.08259466 -0.22538291
-0.069277674 0.06987795 -0.018291026 0.0073922346 -0.054092973 -0.05522934 -0.2913784 0.089230366
0.03958289 -0.012835084 -0.04101785 -0.43083075 0.07497216 0.024920037 -0.006448956 -0.21264744
-0.044269092 0.0110022165 0.004789347 0.014175935 -0.02033963 0.012461537 -0.15561265 -0.004118179
-0.033805955 -0.0046607633 -0.0842113 -0.3179999 -0.12303342 -0.04097989 0.087833844 -0.20068368
0.035621304 0.020097408 -0.06908534 -0.041571017 -0.037912402 0.044906218 -0.1975851 0.13769695
0.05180158 -0.43382663 0.07729838 0.082783416 0.06631585 -0.025850743 -0.063593596 -0.14474423
0.12678853 -0.014234782 -0.051649507 0.12920281 -0.053719122 0.0656568 -0.15790157 -0.2876018
0.10408685 0.070820116 -0.07569225 -0.052898645 0.16554187 -0.0802428 -0.08573237 -0.1649453
-0.023550607 0.031154243 -0.02947265 0.025998717 0.023601456 -0.05854421 -0.07462674 0.096303955
-0.03401734 0.04807732 0.051455718 0.05291261 0.004976194 0.082332775 0.03133834 0.069955304
0.2542814 -0.074992456 0.04944023 -0.68396765 -0.28590998 0.033563174 -0.027555125 0.09827793
-0.18620786 0.0041965293 -0.04609095 0.10254892 0.033173174 -0.016657073 0.0033785228 0.013862503

encoder.network.3.bias f4 [128]
00000000: 9186 603e c9c2 7c3d 6957 9f3e ec5a 913e
00000010: ae38 1d3e 91dc c23b c79f 98bd f125 0f3d
00000020: 2ba2 33bf 5d37 833e 76a8 ca3e b798 72bc
00000030: 443b 3dbd 77df 273e b3a4 a43d e5f3 96ba
00000040: 4061 2b3e 82fa e6bd dc25 4c3c 41a3 80bd
00000050: 4900 e9bd 1ebd 593d 6626 823e 7aa2 013f
00000060: 4385 e33e e9b5 4f3d e7c0 183f 4ead 1f3e
00000070: e482 363e d471 bdbc 7c17 013f c155 653e
00000080: 16df 1c3d 03b4 193e 2338 603c 7851 c23e
00000090: cc55 7dbc 75ca 123d fe8a bb3e c1b7 0e3f
000000a0: f135 ac3e 98b9 8c3e 58bb 47be 401f 31be
000000b0: 7bed 8d3a d571 a2bd 2ffb 4cba cf35 87bd
000000c0: d9c9 283e 9965 9f3e 86d2 7d3c a924 c63e
000000d0: f44b b8bd 43f0 2cbc 0b87 04bd 3b26 d03d
000000e0: 1e9e 2c3e a255 9fbd 2c3a dcbd 504d a6bb
000000f0: eb81 c73d eb8d a43d 06e2 a0bc 51c4 4e3e
00000100: 1019 a03d 64ef 1a3e adab d1bd aad3 0cbe
00000110: 9cfd 933e d468 3e3e 85df 95bd 5298 f33c
00000120: 12b6 1e3d d12f f23b ea96 923d 26fe 81be
00000130: 9d98 5f3e 6079 6e3d 7907 b43b fb0d 893e
00000140: 7bf5 02bc 6cfc 4bbd 029f 213d cf47 763d
00000150: 646b 8a3e 6be1 b4bc ddd2 e03d 9821 113e
00000160: 86b8 083e e767 9ebd f57e 8a3e 3928 333d
00000170: 61a8 ebbc 0e83 2c3f c168 2cbc b4d4 103e
00000180: 62a8 0bbe 7863 653d 8131 613e 20a5 c13d
00000190: 1802 c53e d5f1 923e 180b 90bd f856 583e
000001a0: c2cf 73bd 3182 d73d c29f 2f3d 2ad0 2b3e
000001b0: 6425 debd edce c2bd 6b26 373c 1c6d ae3c
000001c0: 70a8 873e 5eb7 963d a3b8 f03d b679 403e
000001d0: ce94 8a3e ed65 c5bd 9828 a43e 555a 7dbd
000001e0: 88e5 14bd 96bc 133e bf6e 6b3e e08d 053f
000001f0: 40c2 0f3f 7764 563e 1455 84bd 0c5d dfbd
0.21926333 0.0617092 0.31121376 0.2838968 0.15353653 0.0059467037 -0.0745235 0.034948293
-0.70169324 0.25628176 0.3958165 -0.014806918 -0.0461991 0.16393839 0.080392264 -0.0011516778
0.16736317 -0.11278249 0.012460198 -0.06281138 -0.113770075 0.05315887 0.2541992 0.50638545
0.44437608 0.050710592 0.59669346 0.15593454 0.17823368 -0.023125567 0.5042646 0.22395994
0.03829869 0.15010075 0.013685259 0.3795278 -0.01546235 0.03583761 0.3662948 0.55749136
0.33634904 0.27485347 -0.1950506 -0.17297077 0.0010828221 -0.07931868 -0.00078194117 -0.0660206
0.16483249 0.311322 0.015492087 0.38699844 -0.08998862 -0.01055533 -0.03235535 0.10163542
0.16857192 -0.07780005 -0.10753283 -0.0050751343 0.09741577 0.08034881 -0.019639026 0.20192076
0.0781728 0.15130383 -0.10237823 -0.13752618 0.28904426 0.18594676 -0.073180236 0.029735718
0.038747855 0.007390954 0.07157691 -0.25389212 0.21835561 0.05822122 0.005494055 0.2676848
-0.007993097 -0.049801275 0.039458282 0.060127076 0.27035058 -0.022080144 0.10977719 0.14172971
0.1335164 -0.077346615 0.27049986 0.04373953 -0.028766813 0.67387474 -0.010523022 0.1414364
-0.13638452 0.056003064 0.2199154 0.09455323 0.3847816 0.28700128 -0.07033366 0.21126926
-0.059524305 0.10522879 0.042876966 0.16778627 -0.108469754 -0.09512124 0.011178593 0.021292262
0.26495695 0.07359193 0.11753967 0.18796429 0.27066654 -0.096385814 0.3206222 -0.061853725
-0.03635171 0.14427409 0.22991465 0.5216961 0.56155777 0.20936762 -0.0646154 -0.10906419

encoder.output1.weight f4 [3, 128]
00000000: 25a9 c8bd 7a43 abbd fc51 6bbe ae14 85be
00000010: eef4 183c 5b98 a43c d60e a93c 1bb7 47bc
00000020: 487b 1ebc 538e 2d3e b3a9 c5bd c9d9 833d
00000030: 8065 14bd de9b 1a3d fd95 40be d844 efbb
00000040: 5f16 78bd 611f ffbd 493a 4b3d 891f b13c
00000050: 3d18 983c ce91 a63d f10d 2dbe 6e4b 75bd
00000060: 85da e2bd 3b64 babc 842c be3e 37c1 75be
00000070: c038 3d3d 21fb 883d a708 a93e 7984 a7bd
00000080: 799b adbc d5e2 99bd 52de 27bd 5735 9abd
00000090: 08cb 563d 60be fcbb d515 debd 2eb3 d03d
000000a0: 4d01 883d e41d 353e 9f06 3abe 0933 82bd
000000b0: 33ea c13c fd43 963c cc06 d9bd ce73 d1bd
000000c0: 8b55 313e f442 903e 662d 473e e60c 393d
000000d0: 12f9 74bd 49e6 d7bd ade3 1b3d 6f25 d73b
000000e0: dbdc 923d 1f28 96bc 3a9e 73bd ae52 b83c
000000f0: 6907 583e d460 963e bdcd b6bc 0ee0 7e3e
00000100: 7e21 28bd 83d4 703e 06a8 dd3c 5796 193e
00000110: 7bbd ee3d 7a1e 41bd 4020 33bd 3b06 e03c
00000120: cce5 493c a963 e6ba ff30 6bbd b2e9 39be
00000130: 5331 a5bc 72fe 37bc eaea 70be 1f23 73be
00000140: 73eb d23d 9372 6e3c 5d1d 80bc 2dbb 813d
00000150: 48ca 7d3c aa8e 5ebc f8b3 09bd 4301 f1bc
00000160: 4569 a83d acdf 8e3c 32df 3f3d 07d4 963b
00000170: 930f 25bd ef5d 79bc 0a2f d1bc 08c9 d93c
00000180: 7d9f a8bd 6e6d 0fbd e3ef 203d ea77 33be
00000190: 6ddb ac3d 822b 453c 4f17 9fbd be44 10bd
000001a0: 8a68 e1bd e311 bebd 75d0 6dbc 808e c83d
000001b0: 7cee b8bd 9b50 14bd 612a 6d3d ed38 98bc
000001c0: edd9 1ebd c1e9 4dbd 45e3 363d 0f14 e4bc
000001d0: 7bf7 703e 2c2f 88bd 5092 83be 86d9 d53c
000001e0: e21c eebb ff1b 0a3c ba73 69bd 00d4 1c3d
000001f0: 2d11 033e 8efa 90ba 5f62 60bc 0702 3c3b
00000200: c991 183e acf7 7c3b 8b45 3d3e 411b 923d
00000210: 0dbf 82be bd29 22bd 6c32 843d a912 60bd
00000220: cefb 373b c053 923e 81ff f93d 8c9d db3c
00000230: 0a06 833d 5139 8abd fecd bd3c 0971 90bc
00000240: 5645 05be f2cb ba3c 3da2 cebc 0b32 7f3d
00000250: 9022 1fbd df55 5d3d 577e d23c 19fb 2b3b
00000260: 218e 96be 0a07 90bd 1db4 33bd 7c4c 60bd
00000270: d464 74bd 50be 6d3d f9a5 81be 317a 573d
00000280: 48d7 8ebd 9d62 1cbc 3a0c 39bc ff73 ae3e
00000290: b981 3dbc a7a4 a5bd 7b09 a63e cfee 37be
000002a0: 87aa 273d 86ee 243e 35c1 b9bd c48d a9bd
000002b0: 4afc b53d 84b9 d73a 07e4 693e cfac 9b3c
000002c0: 592a 433e e212 a33d d4de 79bd ee4e 853e
000002d0: 4236 94bd 441f 0a3d adb0 16bd 6f83 d5bd
000002e0: c38b 453d ba6d 7a3d 293c 1fbd b1ef 153d
000002f0: 41a1 973e c15f 4dbd 5a7f 863d a050 22be
00000300: 6d6c 61bd 5e24 863d ed70 3b3d ff94 64bd
00000310: 0446 223d e73d 94bd e862 02bd 652a 3fbd
00000320: 1d72 af3d 5bb2 dd3c a414 1abe 0a9a 72be
00000330: d125 6abb 19f7 47bd 900b 033c 9e0b d9bd
00000340: bfde 1fbe 4162 aa3d a94f 47bd 8947 b7bd
00000350: 7405 bfbc 981f 263d 3f47 83bd 837d 483d
00000360: 999b 3fbe 1680 043c 7ee8 503d 0670 bbbc
00000370: f8b9 96bd 1665 c0bc 3fe1 47bc 7b68 a93d
00000380: 009b 94bd d99f 30bd 81fa 41bd aa8c 3fbe
00000390: 163a df3e 68ef 8b3c 3b0a 92bb 7c11 483b
000003a0: 07e3 033c c3d0 b9bd c4ef 55be 0e4f 56bd
000003b0: 571e 0f3d 2563 cbbd 95bc 4cbd fd5f 22bd
000003c0: ac7e f13c 4ef1 9dbc 878d 0fbe 85c0 8cbd
000003d0: 0420 3cbe 8abb 863d 69b3 f33d f101 84bd
000003e0: f17f 893b 9774 38be 92db e03d 5ec6 52be
000003f0: 166f 9c3d 674c 27bd d12a bebd 8932 ab3c
-0.09797887 -0.083624795 -0.22980493 -0.2599234 0.00933574 0.02009218 0.020636957 -0.012189652
-0.009672947 0.16948824 -0.09651508 0.064380236 -0.03622961 0.037746303 -0.18807216 -0.007301908
-0.06056821 -0.12457157 0.049616132 0.021621482 0.018566245 0.08133279 -0.1689985 -0.05988639
-0.110768355 -0.022752872 0.37143338 -0.23999487 0.0461967 0.06688524 0.33014414 -0.08179564
-0.0211923 -0.07513968 -0.040983506 -0.07529705 0.05243972 -0.007713124 -0.10844008 0.10190426
0.06640873 0.17687184 -0.18166588 -0.063573904 0.023671245 0.018342966 -0.105969995 -0.10227166
0.17317788 0.2817608 0.19450912 0.045178317 -0.059807844 -0.1054197 0.038058925 0.0065657417
0.07171031 -0.018329678 -0.05947707 0.022500362 0.21096577 0.2937075 -0.0223149 0.24890158
-0.041047566 0.23518567 0.027057659 0.14998756 0.11657234 -0.047148205 -0.043731928 0.02734672
0.012322854 -0.0017577308 -0.057419773 -0.18155554 -0.020165121 -0.011230098 -0.23527113 -0.23743866
0.102988146 0.014553684 -0.015639002 0.06334529 0.015490122 -0.013583818 -0.033618897 -0.029419547
0.082232036 0.01744064 0.046843715 0.0046029123 -0.040298056 -0.015220149 -0.025535125 0.026585117
-0.08233545 -0.03501647 0.039291274 -0.17526212 0.0844029 0.012034299 -0.07768118 -0.035221808
-0.11006267 -0.09280755 -0.014515032 0.09792805 -0.09029862 -0.036209684 0.057901744 -0.018581832
-0.03878205 -0.050271753 0.044650335 -0.027841596 0.23531906 -0.06649622 -0.25697565 0.0261047
-0.0072666267 0.008429526 -0.05699513 0.038288116 0.12799521 -0.0011060999 -0.0136953285 0.0028687732
0.14899363 0.0038599772 0.1848356 0.071341045 -0.25536385 -0.039590586 0.0645493 -0.054705296
0.0028073671 0.2857952 0.12206937 0.026808523 0.06397636 -0.067492135 0.023169514 -0.017632024
-0.13014731 0.022802327 -0.025223846 0.062303584 -0.03885132 0.05403697 0.02569501 0.0026242195
-0.2940531 -0.070325926 -0.04387294 -0.05476044 -0.05966647 0.058042824 -0.2532194 0.052606765
-0.069746554 -0.009544996 -0.011294419 0.34072873 -0.011566573 -0.080880456 0.32429108 -0.17962192
0.040934112 0.16106614 -0.090700544 -0.08278993 0.08886011 0.0016458486 0.22840892 0.0190033
0.19059123 0.07962586 -0.06100352 0.2603678 -0.07236911 0.033721223 -0.036789585 -0.104254596
0.04822899 0.0611398 -0.038875733 0.03660554 0.29615214 -0.050140146 0.06567259 -0.15851068
-0.055035044 0.06549905 0.04576199 -0.055806156 0.039617553 -0.072383694 -0.031832606 -0.04667129
0.08566687 0.027062586 -0.15046936 -0.23691574 -0.0035728107 -0.048819635 0.007998362 -0.10597919
-0.15612315 0.08319522 -0.048659954 -0.08949191 -0.02331803 0.040557474 -0.064100735 0.048947822
-0.187117 0.008087179 0.05100297 -0.022880565 -0.073596895 -0.023485702 -0.012199699 0.08271881
-0.072561264 -0.043121193 -0.04735804 -0.18706003 0.43599004 0.017081931 -0.004456786 0.0030528
0.008049733 -0.09073021 -0.20892245 -0.052321486 0.034941044 -0.0993102 -0.049984533 -0.039642323
0.029479347 -0.019280102 -0.14018832 -0.06872658 -0.18371588 0.06578739 0.11899454 -0.06445683
0.00419616 -0.18013225 0.1097938 -0.20583484 0.076383755 -0.040844347 -0.0928551 0.02089812

encoder.output1.bias f4 [3]
00000000: 437c 12bd d829 953b 55d9 86bc
-0.035763036 0.0045521073 -0.016461054

encoder.output2.weight f4 [3, 128]
00000000: 79a5 48be 232d bcbd 1e19 e73d a1cf ff3d
00000010: f486 0cbd b243 1dbd 7f99 1bbd ff7d b7bd
00000020: 93f2 283f 5564 13bd 9e0f 11be 6ee8 903d
00000030: ecc5 623d 9270 ffbd c354 0b3d 1ac9 643d
00000040: 84e3 adbc 5a37 a03d 7c7f d3bd de43 533d
00000050: 0c13 78bd 2ab9 563d 9356 0c3e 9772 37be
00000060: 8686 8bbd d92a 88bb cba7 f3bd e500 c63d
00000070: be28 30be a5df 4dbd b175 28be 1bad 393d
00000080: 5e9d 953b e879 d43d 12d9 18bd a630 f2bd
00000090: 1148 3d3d 1fe9 5fbd d8bc d03c 4533 d1bc
000000a0: 51af a0be a6f2 4f3c c18f fa3d 134c e53c
000000b0: 9d09 32be c07a fcba c98a 2a3d bb0e c23c
000000c0: 6e5c 2bbe cb66 dfba aa05 16be c0ea b63d
000000d0: 222f 54bd 5e86 af3d f1eb b23d e8fb 743d
000000e0: cefe 9ebd 060f 3cbd deae 593c b4ca 08bd
000000f0: 211f 8e3e 5486 2f3d 20e5 a23d b980 2b3e
00000100: 256f 02be 7235 863d fb7f 2c3d 2ab4 7b3d
00000110: 26f8 b23d 083c a3be 2d63 d03c d297 5dbc
00000120: a156 56bd da66 a33d 642a 18bd e135 24be
00000130: 1011 60be 7f0b ca3b 8598 1abe 6b3b 95bd
00000140: 0393 8c3d 0c71 89bd 116a 93bd 752b babd
00000150: badf 3bbe c433 10be 51e8 073d 56eb 14be
00000160: c265 f83c e02f 973d 56b2 7fbe 4f95 6bbe
00000170: 5dae a8bd 33e4 8ebe 72a2 93bd 863f fabd
00000180: 6c78 263d 3460 e93b 7e7e 56be 1191 473d
00000190: 8a5e 3ebd 09bb 52be cef1 0cbc 5055 40be
000001a0: cdb1 c33d 4414 423b 5d23 07bc 13d5 2fbe
000001b0: 1aeb 07bd 8b3d b43d 5a24 28be 1439 7ebc
000001c0: b21d 18bd 8aa3 c0bd 4d9f 923c e6a3 533b
000001d0: 558c 9c3d e792 0abd e252 07be 01fb c83d
000001e0: ab2c 543d fd99 8bbd e4e7 2abc 2aad dcbc
000001f0: 866b acbe 3b04 aebd 552e 2b3d 166a 4bbb
00000200: c425 84be baca e0bd 1761 523d eeca 6e3e
00000210: 9cbd 2f3d 0b0b b73d 8b01 0cbd 8dbb 2a3c
00000220: 7fb0 2b3f 26f5 863d 49de 1abe dab0 ca3c
00000230: 1b9b c43b ec6a 1fbe 1c3b 293d 31c9 4dbc
00000240: 2072 1fbd 6aac ed3b 7067 5dbd 0d55 053e
00000250: 43f1 70bd 183b 343d 8bbe 933d a4dd a03c
00000260: cba0 65bd dcf1 8bbd d628 a8be 89ae fa3c
00000270: e806 e2bd a965 82bd 1731 23be 6e10 9c3d
00000280: 827c 16bd f3f5 d13d 6837 93bc 73e2 f3bb
00000290: 2588 5bbd 5866 4ebd bc99 3dbe f9e1 163e
000002a0: 3a9b 06be bb96 efbd 8ae4 4f3e 2093 bc3d
000002b0: 1c1d 52bd 319b 1b3d 68b6 cb3d ae8b e33c
000002c0: 0a03 84be 96b9 4cbe 0f54 ea3c b617 ac3d
000002d0: f856 f5bb 1deb b43d 98d3 013c 19d2 56bd
000002e0: a5cc 23be 270e ebbc ffd1 973d 6401 84bd
000002f0: 8916 523e 2943 99bc 1904 bcbb b6fc 833e
00000300: 30a0 8b3d 5a27 513d c247 963c 9fd9 fa3d
00000310: 50ee 7a3d 62e0 c0be 2af5 8b3d 6f3a 91bc
00000320: 0c5c 8c3d ea48 263d f874 623d 9736 873d
00000330: 9efe 29be 8716 aa3c bea4 ca3b 637a 94be
00000340: c69e a73d 58f3 c83c 3a43 36be b85c 7fbe
00000350: 4c28 33be cad9 51be 4a21 c5bd ee2c 49be
00000360: 8ed5 71bd 3194 7a3d f0ae b0bd 463e f73c
00000370: 2ce5 bf3d 9833 51be 1b6c 43bb a6a4 59be
00000380: ba1b 3fbc e86d 973d 5269 bfbe 6019 483d
00000390: 44b9 ba3d ce97 0bbe 5252 3e3c 34b0 0dbe
000003a0: 9afe 503c 6a06 483d d747 0d3d 1b26 04be
000003b0: c7d5 4dbd 6d2b 7abd 0c5d 93bd db7c 4d3d
000003c0: ec2c 833c 2ede b8bd ecf8 713d 4dc2 a2bb
000003d0: c85a 87bd 31d5 4e3d 9a31 72be f625 80bd
000003e0: 01b5 0a3c fd3d b53c f423 87bb 5906 f43c
000003f0: 1659 b0be 8bef 5bbe c1ff 8cbd a0f7 2b3d
-0.19594373 -0.09188297 0.112840876 0.12490774 -0.03430839 -0.038394637 -0.037988182 -0.08959579
0.6599514 -0.035984356 -0.14166114 0.070755824 0.055364534 -0.12472643 0.034016382 0.055855848
-0.021226652 0.078230575 -0.1032705 0.051578395 -0.06056504 0.05242268 0.137049 -0.17914806
-0.06812768 -0.0041554985 -0.11897238 0.09668139 -0.17203042 -0.050262112 -0.16451146 0.045331102
0.004565879 0.10374814 -0.03731639 -0.11825685 0.046211306 -0.05466568 0.025480673 -0.025537143
-0.31383756 0.012692129 0.1223445 0.027990377 -0.1738648 -0.0019262657 0.041636262 0.023688665
-0.16734478 -0.0017044184 -0.14650598 0.08931494 -0.05180276 0.085705504 0.087364085 0.05981055
-0.07763444 -0.045912765 0.0132863205 -0.033396438 0.27758124 0.042852715 0.079538584 0.16748323
-0.12737711 0.06553163 0.04211424 0.061451115 0.08738737 -0.31881738 0.025437916 -0.013524966
-0.05232871 0.07978602 -0.0371498 -0.16036178 -0.21881509 0.006165921 -0.15097244 -0.07286724
0.06863978 -0.06711015 -0.07197965 -0.0909032 -0.18347064 -0.14082247 0.03318054 -0.14542899
0.03032196 0.07382178 -0.24970374 -0.23006175 -0.08236382 -0.27908477 -0.07208718 -0.122191474
0.040642187 0.007122064 -0.2094669 0.04872233 -0.04647688 -0.20579161 -0.008602573 -0.18782544
0.09555397 0.002961413 -0.008248177 -0.17171125 -0.033183195 0.08800801 -0.16420117 -0.015516538
-0.037137695 -0.094061926 0.017898226 0.0032293736 0.07643954 -0.033831503 -0.13215211 0.098135
0.05180041 -0.0681648 -0.010431264 -0.02693804 -0.33675784 -0.08496901 0.041792233 -0.0031038574
-0.25810063 -0.10976167 0.051362123 0.23319599 0.042905435 0.08937653 -0.03418116 0.010420692
0.67066187 0.06589727 -0.15123858 0.024742533 0.0059999353 -0.15568131 0.041316137 -0.012560175
-0.038927197 0.0072532194 -0.054053724 0.13020726 -0.058823835 0.04400167 0.072140776 0.019636936
-0.056061547 -0.068332404 -0.32843655 0.030600803 -0.110364735 -0.063670464 -0.15936695 0.07620321
-0.036739834 0.10251989 -0.017970756 -0.0074427663 -0.053596634 -0.05039057 -0.18515676 0.14734639
-0.13145152 -0.116986714 0.20302024 0.09207749 -0.051297292 0.0379898 0.099469006 0.027776565
-0.2578357 -0.1999267 0.028604535 0.0840296 -0.007487174 0.08833907 0.007923983 -0.05244646
-0.15996034 -0.028693272 0.074131005 -0.06445578 0.20516409 -0.018708782 -0.005737793 0.2577874
0.06817663 0.05106292 0.018344764 0.12248539 0.06126243 -0.3767119 0.06833871 -0.017728059
0.06853494 0.04059688 0.05528733 0.06602209 -0.16601035 0.020762695 0.0061841896 -0.28999624
0.081845805 0.024530098 -0.17799082 -0.24937713 -0.17495841 -0.20493236 -0.0962549 -0.19646046
-0.059041552 0.061176483 -0.08627117 0.030181061 0.09369883 -0.20429838 -0.0029819075 -0.21254215
-0.011664325 0.0739401 -0.3738504 0.048852324 0.09117368 -0.13632128 0.011616306 -0.13836747
0.012756014 0.048834242 0.03449234 -0.12905161 -0.050252702 -0.06107657 -0.07195482 0.0501679
0.016012631 -0.090267524 0.05907528 -0.00496701 -0.06609112 0.050496284 -0.23651734 -0.062572405
0.008466006 0.022124285 -0.004124159 0.029788183 -0.34442967 -0.21478097 -0.06884719 0.0419842

encoder.output2.bias f4 [3]
00000000: 05c5 9dbe 2c67 c1be 00b6 55be
-0.30814376 -0.37774026 -0.20870209

decoder.network.0.weight f4 [128, 3]
00000000: 4a53 273f 76c4 363f aef3 42bf b370 b23e
00000010: 825a 74bf 0007 603e 3184 1cbf c155 383f
00000020: 88bf 2fbf 3fdb d23e 254f 59be c350 693e
00000030: d07f 69be 0fec cd3d 5e02 413f 1fba 9f3e
00000040: 22bf 9c3f de38 2d3e e70b f2be f1ec 0abc
00000050: fefb 943e ebf7 9d3d 5c14 84bf 4b23 9d3e
00000060: b2e4 3dbe 1084 c83e 4333 62bf 9ebc 7dbe
00000070: f21d 4bbf 40b4 903e 40fe cf3e 7036 c13e
00000080: 1a1a 653f 577f a0bd 87b8 563d a55b 79bf
00000090: 3519 1b3e 9175 56be a393 3b3f bde7 583e
000000a0: d022 06bd 7f2e 15bf 49e2 91be 3499 9f3e
000000b0: 5b4d 53bf d129 1dbf 844f 0ebf 804c 503f
000000c0: 93f6 21bf c755 33be cc1e 483f 903e 833e
000000d0: 6acb 183e 4b2b 263f 8735 763f e010 e03e
000000e0: 005f 11bf 3314 a73d 4a06 f2bc 14eb 3a3f
000000f0: 8921 b03d a770 6cbf e24e 17bf fdd9 e6be
00000100: 6b59 0e3e 98b6 ef3e 6a2f 7e3e d312 b73e
00000110: ff6a 4e3f 6814 cfbe c01c 2ebf 151c de3e
00000120: a870 9dbd 25b6 3d3f 1060 103f a73d 0bbe
00000130: 20f8 6a3f 744b 2bbf be18 05be 8bfd f9be
00000140: ae27 b73d 2839 82be a7ef 33bf ecee 6f3e
00000150: 5db2 13bd e97a 493e 6ad4 5fbf 2a2b 723f
00000160: bbc4 40bf ba3f 253f b803 d7be e6b7 4dbf
00000170: 0f6e 903f 00a3 7d3e ea2f 32be a14c 4f3f
00000180: 7591 10bf c848 23bf 396f 663f 8024 16be
00000190: b910 6d3f 748b 23bf 62cc f6bd 1040 a83e
000001a0: 73a9 4ebf 196b 253f d434 f43d 39a2 303f
000001b0: 7829 213e ebb3 3f3f 4785 3abf 36df 1e3f
000001c0: c2e2 8cbe 1be4 d43e d076 0dbf 6b5a 5abd
000001d0: 9338 02bf 6685 ae3e afc9 6a3f 78f1 b73e
000001e0: b9a0 7b3e 4e14 aabe a448 1b3d e393 c03e
000001f0: 0c43 063e fe4c 3bbf d95a aebe 3be1 2c3f
00000200: b4c2 383f 584e 913e 84f5 4a3f 4929 f63e
00000210: d05b f73e 6abb 2a3f f8b7 083f 505d 003e
00000220: 0e38 c0bd a521 3d3f 3354 57bf 7050 aabe
00000230: 5696 d6be af81 073f 6214 87bc f457 243f
00000240: 2179 683d aa18 0cbf 5866 273f 2579 d7be
00000250: 7120 54bf f88e 873e c755 94bf 4031 11be
00000260: 04e2 8f3e fa6d f03d 2eff 64be e1f5 1abe
00000270: 71da bdbe 344a c0be 1e46 013f 0c83 1c3e
00000280: 7227 18bf d38b 823f 08e8 55bd 4f8c bd3d
00000290: d129 b33d d1b6 97be abea 4a3e 402a 393f
000002a0: 395f 59bf 9a3d c7be 7340 9cbe a2d9 febd
000002b0: eae3 53be 794a 433f 2ca9 28bf eca0 f63e
000002c0: 53ee debe 0720 3d3f 764f 14bf a3c1 a1be
000002d0: 3a79 f23d 055a e8be 284a 5cbe 9609 463e
000002e0: d635 8ebe aba7 a6bc 87c9 e43e 4373 73be
000002f0: 06a7 873d 98b8 b0be 36f4 2b3f 0954 ee3e
00000300: 3019 23be 8928 45bf 6f74 14be 1c12 edbe
00000310: 7f44 6c3f c5ed 0fbf 4d9d d03e 0770 e73d
00000320: 357a 463f e9d5 8e3e 8cbe 7e3f a2ae ad3e
00000330: b592 67bf e168 94be ff98 ecbe 4b27 febe
00000340: bfff 78bf b09f 2a3e 0ad0 0abf 1eef dabe
00000350: c4f7 eabd 6a96 333e f0d5 c33e 45f7 c33e
00000360: 754a 5e3f 5411 523f ed2e 723e 1557 bf3e
00000370: a912 82be e713 643f 3b95 d9bb eca7 f1ba
00000380: de84 6ebf 19ef 2cbe 2aa5 ec3d 28f9 6cbf
00000390: 29e4 b9be ae49 33bf 26ca bdbe 1623 2f3f
000003a0: 4be6 39be e338 213f dee9 06bf 65c1 1d3f
000003b0: b882 023f 15f9 d43e 3eb0 633f 4da6 b7bd
000003c0: 6798 4a3d a38e 393e aaef 743f d7a9 2ebf
000003d0: be86 be3c 6c9d 5c3f 2b4d ad3d 3a16 e03e
000003e0: 123b 003e 219c a43e 1be9 e2be 7a6c 8d3f
000003f0: c798 2fbf e9da 7f3c 625e 51be bd0e 883f
0.65361464 0.71393526 -0.76153076 0.34851608 -0.95450604 0.2187767 -0.6113921 0.7200585
-0.6865163 0.41182896 -0.21221597 0.22784714 -0.22802663 0.1005479 0.7539424 0.31196687
1.2245829 0.16916224 -0.47274706 -0.008479343 0.29098505 0.07713302 -1.0318713 0.3069099
-0.18544272 0.39163256 -0.8835947 -0.24778983 -0.7934257 0.2826252 0.40623665 0.37736845
0.8949295 -0.07836788 0.052422073 -0.97405463 0.15146334 -0.20943286 0.7327215 0.21182151
-0.032748044 -0.5827407 -0.28492954 0.31171572 -0.8253991 -0.6139193 -0.5559008 0.8136673
-0.6326687 -0.1751319 0.7817199 0.2563367 0.14921346 0.6490981 0.96175426 0.43762875
-0.56785583 0.081581496 -0.029544014 0.7301495 0.08600146 -0.92359394 -0.5910474 -0.45088187
0.13901298 0.46818995 0.24822775 0.3575655 0.80632013 -0.40445256 -0.6801262 0.433808
-0.07687503 0.74106055 0.5639658 -0.13597737 0.9178486 -0.6691201 -0.1299772 -0.4882625
0.08943115 -0.25434232 -0.70287555 0.23430985 -0.036058772 0.19675793 -0.87433493 0.94597113
-0.75300187 0.64550364 -0.41995025 -0.8035873 1.1283587 0.24769211 -0.1740109 0.809763
-0.5647195 -0.6378293 0.9001346 -0.14662361 0.9260364 -0.63884664 -0.12050702 0.32861376
-0.8072731 0.64616543 0.11924139 0.6899753 0.15738475 0.7488391 -0.72859615 0.6205934
-0.27516752 0.4158028 -0.5525942 -0.053308886 -0.50867575 0.3408615 0.91713995 0.35926414
0.2457303 -0.33218616 0.037911072 0.3761283 0.13111514 -0.73164356 -0.34053686 0.67531174
0.72172093 0.28380084 0.7928088 0.48078373 0.48312235 0.6669222 0.53405714 0.12535596
-0.093856916 0.7387946 -0.8411285 -0.33264494 -0.41911572 0.52932256 -0.016489211 0.64196706
0.056756143 -0.54725134 0.6539054 -0.42084613 -0.82862 0.26476264 -1.1588677 -0.14178944
0.28102124 0.11739726 -0.22362968 -0.15132858 -0.3708072 -0.37556612 0.50497615 0.15284365
-0.5943519 1.0198921 -0.052223235 0.09255277 0.0874821 -0.29631665 0.19816081 0.72330093
-0.84910923 -0.38914186 -0.3051792 -0.12443854 -0.20692411 0.7628551 -0.65883136 0.4816965
-0.43541202 0.73876995 -0.5793375 -0.31593046 0.118395284 -0.4538118 -0.21512663 0.19339594
-0.2777545 -0.020343622 0.44685003 -0.23774438 0.06623654 -0.34515834 0.6716951 0.4654849
-0.15927577 -0.77014977 -0.14497541 -0.4630288 0.92292017 -0.5622218 0.4074501 0.113006644
0.77530223 0.27897575 0.995095 0.33922297 -0.9045823 -0.28986266 -0.46210477 -0.49639353
-0.9726524 0.16662478 -0.5422369 -0.42760557 -0.11473039 0.17537847 0.3824916 0.3827459
0.8683236 0.8205769 0.23650713 0.37371126 -0.25404862 0.8909287 -0.006640104 -0.0018436885
-0.9317149 -0.16888084 0.1155494 -0.9256768 -0.36306885 -0.700343 -0.3706829 0.6841291
-0.18154256 0.6297743 -0.52700603 0.6162322 0.5098071 0.41596285 0.889408 -0.08967266
0.04946175 0.18120818 0.956782 -0.68227905 0.02325761 0.86177707 0.08461984 0.43766958
0.12522534 0.32150367 -0.4431847 1.104873 -0.68592495 0.015616157 -0.2044616 1.0629498

decoder.network.0.bias f4 [128]
00000000: 47e1 66be af52 4b3e 1186 44be fc05 fb3e
00000010: 0e9e 3b3f 793d ab3e d07f 313f 812f bcbe
00000020: c2a2 05bf fb23 133f 52de 143e c8ee f4be
00000030: 38b4 bbbd a738 e13e 4306 0ebf fdd0 f13d
00000040: 019b d5bc 06bd 1c3f 892f 3c3e 6ce0 383f
00000050: 47f2 4cbe aad9 013c e596 13bf 438a 213f
00000060: b8a1 b53e a751 213e 76f3 963e 60a6 70bf
00000070: db7c 21bf a812 4f3d 059a ffbe 831f 3d3f
00000080: 0ff0 1ebf 8b49 943e 3769 5e3d 299c 8439
00000090: 0551 11bf 7ff9 af3e c83d 2b3f be5b a83e
000000a0: c7d3 213f b29b dc3e 905d b7be e394 5d3f
000000b0: 3439 353f 0c2e 283f f417 0b3f 8dbb e83d
000000c0: 2c00 05bf 2af6 49bf d14c fabe 23f4 e03e
000000d0: 5570 0e3f 3aad 2ebe fca1 153f 879a 76bf
000000e0: 00c9 12bf 7949 00bd 6ec7 ff3e 4ad0 f2bd
000000f0: 0259 3c3f 5a44 2e3f 4126 0a3f 4a06 ac3e
00000100: d748 bbbe e877 95be ba42 41bf 3a4c 63be
00000110: 3873 3dbf 3eb6 7dbe fccc 143f 0153 f83e
00000120: eee2 a7be cc4f 7cbe 2f86 b33e a02f 703e
00000130: d637 043f c44b d83d a8ad 7c3e 42d5 023f
00000140: a291 02bf ab89 acbe 3587 3c3f 4ca6 1fbe
00000150: 84fd ec3e af93 9c3d f0ca 2d3f 3c4e d2bd
00000160: a697 c33e 2134 483f b97f 0fbf 0434 09bf
00000170: 8ae2 5b3f 82e5 17bf 7be0 d8be 1cab f93e
00000180: 0abe bbbd da2d c83d 0524 163f f3e1 58be
00000190: 5a8f 2e3f 7c53 313f 001e 1a3c d81c 1e3f
000001a0: 1757 31bd 69c8 953e 23a0 d2be 5fd3 a53e
000001b0: f5d3 043f c684 8abe b06e b83e db4d 0cbf
000001c0: c37f 47bf 4963 243e 4fac 23bf 2cd5 243f
000001d0: 120d e7be 434f 00bf cc5a 793e 96d5 463e
000001e0: bb2f 4abf fc41 223f 4bb9 f63e b7ae 493f
000001f0: 0553 113f 2800 22bf 5a5d c6be 5325 36bf
-0.22546874 0.1985576 -0.19191767 0.49028003 0.7328805 0.33445337 0.6933565 -0.36754993
-0.52201474 0.57476777 0.14537933 -0.47838426 -0.091652334 0.43988535 -0.55478305 0.118074395
-0.026074888 0.61225927 0.18377508 0.7221744 -0.20014296 0.00792543 -0.5765212 0.63101596
0.35474944 0.15753804 0.2948262 -0.9400387 -0.6308114 0.0505549 -0.49922195 0.7387621
-0.6208505 0.2896236 0.05429956 0.0002529335 -0.5676425 0.34370038 0.66891146 0.32882494
0.6321377 0.43087536 -0.3581357 0.8655531 0.7079041 0.6569526 0.54333425 0.113638975
-0.5195339 -0.7889124 -0.4888673 0.43936262 0.55640155 -0.17058268 0.58450294 -0.9632954
-0.5733795 -0.03132007 0.4995684 -0.11856134 0.73573315 0.68073046 0.5396462 0.33598548
-0.3657901 -0.29193044 -0.7549244 -0.22197047 -0.74003935 -0.24776551 0.5812528 0.48500827
-0.3279032 -0.24639815 0.3506331 0.23455667 0.516477 0.10561326 0.2467562 0.51106656
-0.5100347 -0.33698782 0.7364381 -0.15590781 0.46287167 0.07645356 0.67887783 -0.10268828
0.38201636 0.7820454 -0.56054264 -0.53594995 0.85892546 -0.59334576 -0.42358765 0.4876336
-0.091671064 0.097743705 0.5864871 -0.21179943 0.6818749 0.6926801 0.009406567 0.6176276
-0.043295946 0.29254463 -0.411378 0.32387826 0.5188592 -0.27054423 0.36021948 -0.548063
-0.77929324 0.160535 -0.639348 0.64387774 -0.4512716 -0.50120944 0.24351043 0.19417414
-0.7897908 0.63381934 0.48188242 0.7878222 0.567673 -0.6328149 -0.38743097 -0.711507

decoder.network.2.weight f4 [128, 128]
00000000: 425e 3d3e 4c7f 563d 1856 e8be 9dd3 a53d
00000010: 5dba dabd 9e94 2c3d 690b ddbd b7b3 49be
00000020: 95af a2be bb68 c13d 9afc e23d deee 4abd
00000030: a843 b53e b1d7 f73d 25f2 eebe 79b8 703d
00000040: 3821 2d3e 5360 bf3c 77a7 a73e 78e2 753d
00000050: d357 6fbe 7877 903d 709f 4c3e 4235 7fbd
00000060: 6fda 5dbe e47c 463d 000b bc3d 85cd ae3d
00000070: 1e1e cbbe 5ea3 0fbe fed5 5f3e 7bfb 153d
00000080: 33f7 a93d c074 ee3c 6142 713e 6e45 883d
00000090: 1c63 87bd 0c92 893d 8019 7bbd 1e36 5e3c
000000a0: 2a18 fb3c 07c8 2d3e a2b2 363e 7502 c8bc
000000b0: 463d 353d f76c 723d 3043 d4bb b7a4 a43d
000000c0: eb68 fb3d 2c75 a3bc 3b7c 9abd 8a3f f0bc
000000d0: b82e b4bd f71d d43d 47e2 633d 316a 933e
000000e0: fff5 adbe 404b aa3b 1e4b 21be 9a85 0e3d
000000f0: 88f1 3c3d b25c 023e 30f6 6d3d fbe6 41be
00000100: 5a19 f4bd 920e b3be dcab 883e 4180 833d
00000110: 77db 97be 7d87 1ebe 02ba 56bb 30dd dbbd
00000120: 73a1 1f3d aa94 c63e 21e4 b83d 5298 f13d
00000130: f8e0 60bd 3e71 5cbd f371 2fbe 70c0 e53d
00000140: b769 f33d 8853 953d 3a97 123e bc38 9c3e
00000150: b806 93be 9ed3 adbd c6fa 393e 7d94 a1bd
00000160: b2f7 9c3e 16aa 2a3e 0adf 373e a670 5dbe
00000170: 8c83 993d 183b 60be f55c 90bd b36e 283e
00000180: 19d6 dd3d 2591 793d 3209 8f3d 1f2a 39be
00000190: 1d6d c1bc d83d 1e3d e7f7 49bd 3bf5 053e
000001a0: 6b5f 1a3e 7cbb 9f3e e1d8 8a3d 4903 a5bd
000001b0: 7c2a c43d f179 0abe 4e1d 76be 82b4 3abe
000001c0: edeb 453e b095 d43d 71a6 b4bd 14f4 53ba
000001d0: 3425 94be 1a34 ad3e e478 683e fca8 03bf
000001e0: 0a65 a13e 6460 49bc e515 47be add6 c73d
000001f0: 5cc6 ff3d 6f22 053e 42fe 8ebb 3613 67bd
00000200: ee13 913c 8f40 23b9 85e1 0cbe bf9c 123e
00000210: d83e 26bd 8bca cd3d da6a 11bd 5a42 69be
00000220: e12f ecbe 5486 5f3d eecb 7cbe 9335 4dbf
00000230: 2c58 893e 5023 1a3e d1ef 3cbf 2b6a 9e3d
00000240: 789b d93b fe1f f43d 1bda d43b 280b e93d
00000250: 4b56 cebe 8f8b ba3d f2a9 803e b68d ed3b
00000260: 54ac a7bd 0b2a a7bc e687 ca3d ce8e b43d
00000270: fa41 3dbf 8e3a 52bd 2b16 ae3c e6b4 9c3c
00000280: 22ca f93d d642 c5bd fc24 2f3e c9f1 5cbc
00000290: 8fbc 4fbd 4d9f b53b 5056 7b3d cf1a a6bc
000002a0: 3d43 323d 0943 5a3e 4e78 20bd ecf7 a93d
000002b0: 0d60 5b3e 2ed1 443c aa03 b6bc b95c 0bbe
000002c0: 4476 08bd cc8d df3c 30c4 21bd 281b 6cbc
000002d0: 5e0c ab3c 743d bf3d b522 4c3e 7fb2 943d
000002e0: 131f b3be e496 5bbd 76cb ebbd 7ea1 c5bd
000002f0: 73ea 893c eacc 073e f502 2cbc ac75 37bd
00000300: a5d3 2ebe 012b a2bd 8c02 3d3e f4b5 1f3d
00000310: 8d3a b3be 5a40 f7bd c934 0d3e afbb b33c
00000320: e6ae 96bd acc8 aa3e 36e3 1d3e f227 a93d
00000330: fdf7 5b3e 0829 1dbe 2148 ad3d cf73 a83d
00000340: c715 3e3e f2a7 8c3d 5753 033e 539b 8e3e
00000350: 252d 47be 5419 bb3c 715b 4a3e 5de4 f13d
00000360: cf0f 4abc 072f f73d 8ed7 e43e 0534 19bf
00000370: a820 d03d 0821 89be 026d fdbe 5de9 4b3d
00000380: dc1a 833d cb60 c83d 4a38 5b3e cde6 813d
00000390: da0c 043e 3ee1 f83c 8fa0 64be 66bc babd
000003a0: cada 4f3c c6c8 263e 473a d9bd 84c8 4cbd
000003b0: 9691 4a3e 0d6d 38be b57d 9cbc cad9 5ebe
000003c0: 0d00 ab3e 7d93 d3bc ff12 f4bb 4059 203e
000003d0: 706a 51bf d671 fd3e b71e 423e 42cc 08be
000003e0: 6ce8 843e 7e49 4ebd 10e2 463d 71e8 a33d
000003f0: 3bfe 2a3e 0473 91bd db28 503d ac39 dcbd
0.18492988 0.052367494 -0.45378184 0.08097003 -0.10680077 0.04213392 -0.10793192 -0.19697462
-0.31774583 0.09443804 0.11083336 -0.049544208 0.3540318 0.12101687 -0.46669117 0.058769677
0.16907203 0.02336136 0.32744953 0.06003043 -0.23373346 0.07054037 0.19982696 -0.06230665
-0.21665357 0.04845895 0.091817856 0.085352935 -0.39671415 -0.14027163 0.21858975 0.036616784
0.08299103 0.029108405 0.23560478 0.06653868 -0.066107005 0.06717309 -0.061303616 0.013562707
0.03065117 0.16970836 0.1784158 -0.024415234 0.044247888 0.05918595 -0.006477736 0.08039229
0.12275871 -0.019953333 -0.07543226 -0.029327173 -0.087979734 0.10357278 0.055635717 0.28791955
-0.33976743 0.005196959 -0.15751311 0.03479538 0.04612878 0.12730673 0.05809611 -0.18935768
-0.11918898 -0.34972054 0.26693618 0.06420947 -0.29659626 -0.15481372 -0.0032764678 -0.107355475
0.03897233 0.38785297 0.09027887 0.11796631 -0.054902047 -0.053818934 -0.17133312 0.11218345
0.11885398 0.07291323 0.14315501 0.30512035 -0.28716063 -0.084876284 0.18162069 -0.0788965
0.30657727 0.16666445 0.17956176 -0.21625003 0.07495794 -0.21897542 -0.0704898 0.16448478
0.108318515 0.060929436 0.06984176 -0.18082474 -0.0236116 0.038633198 -0.049308684 0.13081829
0.15075462 0.31197727 0.067796476 -0.08057267 0.09578416 -0.1352308 -0.24034616 -0.18232921
0.1932828 0.10380113 -0.08820809 -0.00080853817 -0.28934634 0.33828813 0.22702366 -0.51429725
0.315224 -0.012291048 -0.19441946 0.09757743 0.12489006 0.13001417 -0.004363806 -0.056414805
0.017709699 -0.00015568941 -0.13757904 0.14317606 -0.040587276 0.10048398 -0.035502292 -0.22779217
-0.4613028 0.054571465 -0.24687168 -0.8015987 0.26825082 0.15052533 -0.7380343 0.07735094
0.006640848 0.119201645 0.0064957268 0.11379081 -0.4030021 0.0910865 0.25129658 0.0072495593
-0.08187166 -0.02040579 0.09889202 0.088163 -0.739288 -0.051325373 0.021250805 0.019129228
0.12196757 -0.096318886 0.17103952 -0.01348538 -0.050716933 0.005542672 0.06136161 -0.020276455
0.043521155 0.21314634 -0.03917723 0.082992405 0.21423359 0.012012763 -0.022218544 -0.1360959
-0.033315912 0.027289294 -0.03949374 -0.014410771 0.02087992 0.09337893 0.19935115 0.07260608
-0.34984645 -0.053610697 -0.115134165 -0.09649943 0.016835427 0.13261762 -0.010498752 -0.044789955
-0.17072923 -0.079183586 0.18458003 0.038991883 -0.35005608 -0.12072821 0.13789667 0.02194008
-0.07357578 0.33356225 0.15418705 0.08259572 0.21481319 -0.15347683 0.08461023 0.08225214
0.18562995 0.068679705 0.1282476 0.27852878 -0.19450815 0.022839226 0.19761445 0.11811135
-0.012332871 0.12069517 0.44695705 -0.59845 0.10162479 -0.26783013 -0.4949723 0.0497831
0.064016074 0.09784087 0.21408191 0.0634285 0.12895527 0.030380841 -0.22326873 -0.091179654
0.012686441 0.16287526 -0.10606819 -0.049995914 0.19782099 -0.1801035 -0.01910291 -0.21762767
0.33398476 -0.025827164 -0.0074485536 0.15659046 -0.81803036 0.49500912 0.1895703 -0.13359168
0.25958574 -0.050363056 0.048555434 0.08003319 0.16698544 -0.071020156 0.050820213 -0.107531875

decoder.network.2.bias f4 [128]
00000000: 682e e93d d04c bb3d c0dd 6b3e 252d 17be
00000010: 146c 033e 473b dfbd 5353 003e 3972 aabd
00000020: 7e3e 863c f023 2a3d 16da 763c 5646 413e
00000030: 9ec2 693d f0b6 bd3d bb2c 8bbd 1fec 043e
00000040: 1782 2f3e 2127 e4bd e423 033e 3dc1 043e
00000050: 04ea 8cbd 0349 b43d 9441 2ebd 6de0 7dbd
00000060: e41b 98bd a229 153e 78e7 e93d 6be9 643d
00000070: 33ed 8b3c bf15 ae3d dfc9 b8bd eb57 023e
00000080: 4444 0a3e 11e8 593d 5dcd 45bc fd7c 77bc
00000090: f8e4 c73d 85bf 983c 5100 493c 0d46 d93d
000000a0: 2671 cabc 0b34 9f3d 264a ca3d 08f9 db3c
000000b0: 768e b4bd f1db 313e af5d 5e3d 328e ec3d
000000c0: 06f2 8c3d 44ad 27bd ec53 ab3d 8000 403d
000000d0: 60a6 48bd 91af fb3d 50a8 c83d ca4f f93d
000000e0: 0ee3 4c3d 1d33 59bd f05b edbd 2cbd a4bc
000000f0: 6dad f4bc c762 2dbd ea05 f93d d467 cfbc
00000100: 80b2 a8bd ef5e ec3d ab58 653e 01af ce3d
00000110: 615f 8b3d 5bfd 4a3e 791c 16be 4b09 ee3d
00000120: 7a17 cf3d c85c a8bd f3be 3cbc af27 303e
00000130: 3880 5b3d 4ff1 f23c 76f3 503e 3670 8d3d
00000140: 2125 813d e3db 71bd 4394 a9bc ab07 2f3e
00000150: ad87 0f3e c06f 2c3e 8d69 893d 2952 29be
00000160: b611 173d dda5 a83d 4460 513e befa 90bd
00000170: a8e8 c63d e09a 223e 6668 b63c 517e a33d
00000180: 65c8 083e e3a3 d43d fc9a 8a3c 2d59 a1bd
00000190: 5b2c 803d aac8 4c3e 3d55 9a3d bd7b 303e
000001a0: b577 833c ffef a33d d662 853a a52d abbd
000001b0: 7506 873d 6f71 76bd 014c 8dbc b178 8abd
000001c0: f800 96bc 350a ae3d d9d0 043e 88dd 183d
000001d0: 968e e33c 0287 033e 7dc1 d83d f44f 253e
000001e0: 648a cb3d 4d5a 533d 5456 a33d 6e53 22bd
000001f0: 6f4e 24bd 0b4f 593e c309 5e3d ebd1 863e
0.113858044 0.0914551 0.2303381 -0.14763315 0.12834197 -0.10899978 0.12531786 -0.083225675
0.01638722 0.04153818 0.015066644 0.18874487 0.057070367 0.09263408 -0.06795641 0.12980698
0.17139469 -0.11140276 0.1280666 0.1296434 -0.068805724 0.088029884 -0.04254301 -0.061981607
-0.07427195 0.14566663 0.11421102 0.055886667 0.017080879 0.085002415 -0.09022879 0.1272885
0.13502604 0.05319983 -0.012072888 -0.015105483 0.09760469 0.018646011 0.012268142 0.10609064
-0.024712157 0.07773598 0.09877424 0.026852146 -0.08816235 0.17369057 0.054288562 0.11550559
0.068821 -0.040936723 0.08365616 0.046875477 -0.048986793 0.12289346 0.09797728 0.12173422
0.050021224 -0.05302726 -0.11589801 -0.020109735 -0.029867852 -0.04233053 0.12159331 -0.025318064
-0.08237171 0.11541545 0.22397105 0.10091973 0.068053015 0.1982321 -0.14659299 0.11622866
0.101119 -0.082208216 -0.011520135 0.17202638 0.053589076 0.02965608 0.20405373 0.06906168
0.0630591 -0.05904759 -0.02070058 0.17092769 0.140166 0.16839504 0.06709585 -0.16535248
0.036882125 0.08234761 0.20446879 -0.07079075 0.097123444 0.15879393 0.022266578 0.07983077
0.13357694 0.103828214 0.016919605 -0.07878337 0.0625846 0.19998422 0.07535789 0.17234702
0.016048292 0.0800476 0.001017655 -0.083583154 0.065930285 -0.060166772 -0.017248156 -0.06761301
-0.018311009 0.084980406 0.12970294 0.037320644 0.027777951 0.1284447 0.1058378 0.16143781
0.09938505 0.05159979 0.0797545 -0.039630346 -0.040113863 0.21221559 0.05420853 0.2633203
