models/mnist_vae_dims_128/vae_1d.pth (torch, 945306 bytes, 12 tensors)

encoder.network.1.weight f4 [128, 784]
-0.016216874 0.0031864687 0.015986223 0.031646784 -0.0054927426 -0.01137218 -0.013497664 0.011161541
0.019870175 0.0187683 0.028720286 -0.0012482278 0.04588417 0.017720832 -0.014261406 0.031599622
0.035040166 0.004980607 -0.01208374 -0.012241585 0.027251944 -0.0296426 0.0147213815 0.006822378
0.027836146 0.0037788963 -0.005407406 0.026898006 -0.007969162 0.013738863 0.0098388195 0.006484943
-0.07946609 -0.056055162 0.07889634 0.08257207 0.07515577 0.021803346 0.031299893 -0.013442634
0.053290516 0.078065656 0.050706588 0.046325583 0.19743524 0.074005805 -0.12002064 -0.025209345
-0.0002397469 0.014247906 0.040487345 0.039796337 0.00013469374 0.02585254 0.026474813 -0.019972036
0.003612097 -0.023747155 -0.10472809 -0.044254433 -0.04746889 -0.091095105 -0.042153783 0.027384164
0.04978172 -0.03606736 -0.043593768 -0.06365622 -0.1711379 -0.19769432 -0.077084154 -0.07771696
-0.04778026 -0.08419081 -0.09759264 -0.05378824 -0.0603899 0.031752825 0.04521597 -0.030266838
-0.104090765 -0.06156705 0.026547642 0.012316381 0.023397256 -0.0061067003 -0.005773668 -0.112363175
-0.1077564 -0.092338406 -0.021585682 -0.14239474 -0.08851032 -0.10037585 -0.10384013 -0.13386554
-0.10377733 -0.039883845 -0.08882672 -0.0411098 -0.06765742 -0.029270591 -0.1016996 -0.031108534
-0.045712125 -0.07464513 -0.05136169 0.014084842 0.025519768 -0.02916515 -0.07060722 0.025315251
0.016081363 -0.037815258 0.011465259 -0.10848122 -0.06773894 -0.112229235 -0.057065915 -0.09466907
-0.02451216 -0.024213187 -0.03417515 -0.020405753 -0.035555363 -0.048731383 -0.0078113475 -0.032107316
-0.021296306 -0.03339987 0.0037965125 -0.037910048 -0.0005272689 0.01582599 0.0032851875 0.08809665
0.110303804 -0.02425683 0.1284068 -0.10899707 0.028938312 -0.005975728 -0.117505565 -0.14206925
-0.00105947 0.026212597 0.065612435 0.0015002268 -0.004489038 0.01395204 -0.015500861 -0.021638997
-0.0035692484 0.051635217 0.04058336 0.03674837 0.026630616 0.018391345 0.01372598 0.019388068
0.046488445 0.023252841 0.029281748 0.042444296 -0.0008705186 -0.028120816 -0.038259927 -0.023671549
-0.023135727 -0.08182281 -0.14771046 -0.06377947 0.025462596 -0.015597577 -0.060086194 -0.0049375133
-0.017204566 0.0082285125 -0.026182286 0.03647856 0.031817157 -0.008727637 0.024189333 0.06555569
0.037711453 0.04424331 0.023012692 0.029711178 0.006123352 0.026554998 0.0043450696 0.004738532
0.0070546498 -0.10556605 -0.06390624 0.07476014 -0.10364765 0.0022588416 0.05424259 -0.017540429
0.020158192 -0.0048913793 -0.076900296 -0.03909182 0.010402649 0.015289815 0.023654161 0.011813808
0.018642759 0.033820733 0.036917705 0.03853526 0.03881136 0.056949884 0.032459322 0.023273576
0.04253041 0.07041652 0.03534126 0.07459431 0.041206885 0.016750673 0.073105134 0.035027742
0.0332038 0.023587646 0.05011253 0.015271122 -0.030002838 -0.060771424 0.010863251 0.011386234
0.0086295325 0.01702551 -0.012780818 0.0366482 -0.0022375723 -0.027130207 0.006968218 0.04772493
0.020719718 0.015792588 0.03805688 0.026872706 0.0602299 0.045194514 0.037699673 0.043108188
0.061333615 -0.037483696 0.031349335 0.11692553 0.078644045 0.04448236 -0.009970852 0.017216695
00000000: 40d9 84bc 13d4 503b 8af5 823c 0fa0 013d
00000010: 77fc b3bb 6152 3abc 4e25 5dbc e5de 363c
00000020: c7c6 a23c fabf 993c ce46 eb3c 939b a3ba
00000030: 0af1 3b3d 472b 913c aca8 69bc 9b6e 013d
00000040: 4786 0f3d 5c34 a33b e1fa 45bc ee90 48bc
00000050: 783f df3c 0ad5 f2bc f331 713c 418e df3b
00000060: a108 e43c 5ca7 773b 9c30 b1bb 3559 dc3c
00000070: 1791 02bc f818 613c 0033 213c a57f d43b
00000080: 1ebf a2bd 199a 65bd 6894 a13d 8c1b a93d
00000090: 45eb 993d ee9c b23c 5134 003d 7e3e 5cbc
000000a0: 2847 5a3d e3e0 9f3d b6b1 4f3d e5bf 3d3d
000000b0: 772c 4a3e 5b90 973d 62cd f5bd d483 cebc
000000c0: 9264 7bb9 0d70 693c 0fd6 253d 7c01 233d
000000d0: 933c 0d39 b5c8 d33c b5e1 d83c 659c a3bc
000000e0: eeb8 6c3b 6589 c2bc ae7b d6bd 2344 35bd
000000f0: bd6e 42bd 1290 babd 72a9 2cbd c154 e03c
00000100: ebe7 4b3d 5ebb 13bd 618f 32bd 315e 82bd
00000110: c63e 2fbe 6170 4abe 4cde 9dbd 122a 9fbd
00000120: 3cb5 43bd 3b6c acbd a6de c7bd 0f51 5cbd
00000130: 665b 77bd 400f 023d 6234 393d 29f2 f7bc
00000140: 8a2d d5bd bb2d 7cbd 717a d93c a5ca 493c
00000150: 9aab bf3c b71a c8bb 0a31 bdbb aa1e e6bd
00000160: 63af dcbd eb1b bdbd 75d4 b0bc edcf 11be
00000170: e644 b5bd db91 cdbd 22aa d4bd 0c14 09be
00000180: 3589 d4bd 3e5d 23bd c9ea b5bd c062 28bd
00000190: f98f 8abd e1c8 efbc e147 d0bd 53d7 febc
000001a0: a33c 3bbd 8cdf 98bd a360 52bd 1cc4 663c
000001b0: d50e d13c c1eb eebc 859a 90bd ee61 cf3c
000001c0: 10bd 833c 2ce4 1abd c8d8 3b3c 672b debd
000001d0: b7ba 8abd 71d8 e5bd f3bd 69bd dbe1 c1bd
000001e0: bacd c8bc bc5a c6bc 3efb 0bbd f729 a7bc
000001f0: 80a2 11bd 8f9a 47bd 55f6 ffbb f682 03bd
00000200: 9775 aebc 4dce 08bd e9ce 783b 9147 1bbd
00000210: 6b38 0aba 82a5 813c 4d4c 573b 046c b43d
00000220: f6e6 e13d 42b6 c6bc 127d 033e db39 dfbd
00000230: 0a10 ed3c 0ad0 c3bb c2a6 f0bd 9a7a 11be
00000240: eadd 8aba cdbb d63c d05f 863d 42a3 c43a
00000250: c818 93bb 1997 643c 53f7 7dbc 4444 b1bc
00000260: 0dea 69bb 737f 533d bd3a 263d 7585 163d
00000270: 7328 da3c 72a9 963c efe2 603c bad3 9e3c
00000280: ab6a 3e3d be7c be3c 47e0 ef3c 12da 2d3d
00000290: 8433 64ba a05d e6bc 71b6 1cbd d6ea c1bc
000002a0: 2387 bdbc b892 a7bd 6941 17be d09e 82bd
000002b0: ef96 d03c fb8c 7fbc f11c 76bd ddca a1bb
000002c0: 97f0 8cbc e2d0 063c 3c7c d6bc 8b6a 153d
000002d0: b552 023d 5dfe 0ebc b528 c63c 1042 863d
000002e0: 5377 1a3d 7938 353d 1d85 bc3c db64 f33c
000002f0: 66a6 c83b de89 d93c 1661 8e3b b045 9b3b
00000300: b12a e73b 0333 d8bd 46e1 82bd d81b 993d
00000310: 3845 d4bd 1309 143b 7a2d 5e3d f2b0 8fbc
00000320: cb22 a53c dd47 a0bb e77d 9dbd bf1e 20bd
00000330: df6f 2a3c 2282 7a3c 5fc6 c13c b48e 413c
00000340: b3b8 983c 9c87 0a3d 0537 173d 26d7 1d3d
00000350: a9f8 1e3d 4844 693d 11f4 043d 3aa8 be3c
00000360: 5e34 2e3d 8936 903d ffc1 103d e7c4 983d
00000370: 8dc8 283d b538 893c 25b8 953d 4079 0f3d
00000380: b500 083d e13a c13c cc42 4d3d ba33 7a3c
00000390: 83c8 f5bc 75eb 78bd c7fb 313c 548d 3a3c
000003a0: e262 0d3c 1579 8b3c a366 51bc 6c1c 163d
000003b0: 3ca4 12bb 2b40 debc a655 e43b 377b 433d
000003c0: 66bc a93c 755f 813c 88e1 1b3d 2624 dc3c
000003d0: a1b3 763d e21d 393d f96a 1a3d 3692 303d
000003e0: f538 7b3d 8188 19bd 2968 003d a776 ef3d
000003f0: 2110 a13d 2333 363d c95c 23bc 070a 8d3c

encoder.network.1.bias f4 [128]
0.21911275 0.1742431 0.55977345 0.030764729 -0.008506325 -0.037108526 0.28184098 -0.049348768
0.20873143 0.28929096 -0.0052837934 0.019076386 0.043744065 0.0006380661 -0.018521113 0.16009636
-0.0024910031 0.17698915 0.21337178 -0.03568011 0.24801423 0.1729257 0.106526956 -0.040617842
-0.019824982 0.35705587 0.02411063 -0.032165952 0.07740755 -0.05466304 -0.024936829 -0.028238054
-0.0002572252 0.02242989 -0.040090032 -0.13005885 0.14204392 0.032238245 0.08247967 0.05276012
-0.014866889 0.3698571 0.0068972125 0.3285785 0.02037771 0.005148895 -0.018645985 -0.04392433
0.08970216 0.08975964 -0.027213452 -0.018762477 -0.010383658 0.2962735 0.34708095 -0.009152069
0.022756105 0.1982982 0.05808796 0.011440208 -0.0374747 -0.04414919 0.1846895 0.39103773
0.11389428 -0.025838751 0.34645975 0.0014710918 0.09562672 0.12844194 -0.2891615 0.04179245
-0.040169362 0.09747335 0.16109952 0.00942965 0.37345535 0.11920216 -0.026235467 0.22872467
-0.00810846 0.24826881 0.21522903 -0.03717982 -0.022846062 -0.0021957648 -0.016940102 -0.007055833
0.2870433 0.24876116 0.10986292 0.05990116 0.018753348 0.12175283 0.12243696 0.30870202
-0.03863802 0.21792643 0.0055685975 0.02092483 0.110369146 -0.059574343 0.018227628 -0.01897529
0.11145372 -0.007418485 0.01625262 0.045081697 -0.032010507 -0.20150757 0.35619396 0.004743149
-6.169632e-05 0.1365529 0.29907507 0.66945916 0.21885698 0.08792301 0.382212 0.3224233
-0.008758897 0.12832347 0.0884294 0.10877931 0.18955484 0.38781494 0.13072333 0.14326163
00000000: 185f 603e c96c 323e 504d 0f3f 5006 fc3c
00000010: 1d5e 0bbc 1cff 17bd 764d 903e ef21 4abd
00000020: b1bd 553e f21d 943e ac23 adbb 1546 9c3c
00000030: fa2c 333d e443 273a 97b9 97bc 4df0 233e
00000040: 1940 23bb a53c 353e 227e 5a3e 4f25 12bd
00000050: 71f7 7d3e 6f13 313e ce2a da3d e55e 26bd
00000060: 0068 a2bc 07d0 b63e a883 c53c 72c0 03bd
00000070: d987 9e3d 5ae6 5fbd 5248 ccbc 7e53 e7bc
00000080: 2fdc 86b9 e4be b73c 7235 24bd 262e 05be
00000090: f673 113e 400c 043d 1aeb a83d ff1a 583d
000000a0: 4194 73bc e95d bd3e 0302 e23b 713b a83e
000000b0: 28ef a63c 10b8 a83b 77bf 98bc 00ea 33bd
000000c0: c4b5 b73d e7d3 b73d bfee debc c4b3 99bc
000000d0: 3820 2abc 29b1 973e 98b4 b13e 8ff2 15bc
000000e0: 036b ba3c af0e 4b3e a4ed 6d3d b66f 3b3c
000000f0: 127f 19bd c8d5 34bd 3f1f 3d3e 1936 c83e
00000100: 6741 e93d caab d3bc 2c63 b13e a6d1 c03a
00000110: f1d7 c33d 4986 033e fa0c 94be 8f2e 2b3d
00000120: a188 24bd 1ca0 c73d 46f7 243e d27e 1a3c
00000130: 8a35 bf3e 4320 f43d c3eb d6bc cd36 6a3e
00000140: 59d9 04bc 2e3a 7e3e 0065 5c3e de49 18bd
00000150: aa27 bbbc d2e6 0fbb f8c5 8abc 9e34 e7bb
00000160: 57f7 923e 3fbb 7e3e d0ff e03d eb5a 753d
00000170: 9fa0 993c 8c59 f93d 3bc0 fa3d 310e 9e3e
00000180: e742 1ebd 1b28 5f3e c878 b63b 8d6a ab3c
00000190: 3809 e23d 3a04 74bd 1b52 953c 1172 9bbc
000001a0: d941 e43d c316 f3bb 3724 853c 96a7 383d
000001b0: 731d 03bd 0058 4ebe 0e5f b63e 6b6c 9b3b
000001c0: f662 81b8 86d4 0b3e 5e20 993e ad61 2b3f
000001d0: 0b1c 603e fb10 b43d 4bb1 c33e ab14 a53e
000001e0: 7a81 0fbc 3a67 033e 791a b53d b0c7 de3d
000001f0: aa1a 423e ae8f c63e 56dc 053e 2db3 123e

encoder.network.3.weight f4 [128, 128]
-0.006411867 0.034843087 0.061765887 0.027475392 -0.04426865 -0.08202867 -0.07346428 0.04912646
-0.022566482 -0.077704296 -0.027206862 0.010930045 -0.019777704 0.04034449 -0.07215215 0.09943309
-0.08145394 -0.03629213 -0.01671467 -0.010771786 -0.036282416 0.032703053 -0.02477708 0.06097161
-0.042563442 -0.046474066 -0.037253868 -0.048682224 -0.045664348 0.079435244 0.06964947 0.06786775
-0.040327996 -0.08407786 -0.059773088 -0.08545553 -0.007861032 -0.099198975 -0.052521832 -0.10944827
0.07069041 0.05956396 0.039848175 -0.046653025 0.0727502 0.026435161 0.060249384 0.0017928499
0.02427011 0.006486547 -0.008095087 0.027140666 -0.052583702 -0.030339506 0.06336902 0.02002276
0.033754326 -7.867487e-05 0.011236382 -0.09220721 -0.016065817 0.071622536 -0.0391494 -0.02901639
-0.038698055 0.037172075 -0.10308981 0.02899407 0.07579058 0.08498254 -0.14444496 -0.04159282
0.03814466 0.048876807 -0.023304168 0.00095268904 -0.045888674 0.0055380627 -0.013979297 0.0007282481
0.01773134 -0.00506935 -0.040239032 0.028076911 -0.08806393 -0.08909477 0.05857541 0.03183276
0.0047002286 -0.09620675 -0.11115097 -0.016908193 0.06346505 -0.11464346 0.06854966 -0.0588634
-0.017795304 0.007986425 0.041773308 -0.09516349 -0.08486038 -0.0012167349 0.06955126 -0.044658598
-0.04448083 -0.0101710325 -0.09686195 0.06805856 -0.01416869 0.048617635 0.06684059 0.0065560346
-0.00918247 0.0037300705 -0.01549224 0.087695666 0.020876575 0.0842193 0.037868816 -0.046627764
0.0062370347 -0.11313866 0.070922315 -0.1313858 0.08733244 -0.014482661 -0.042924363 0.03331332
0.059188303 -0.2836105 -0.049954712 0.018022792 0.0059752185 0.074215755 -0.002900435 0.048901103
-0.017455459 -0.057542346 -0.06981117 0.03130485 0.049669303 0.06974436 -0.0089983335 -0.14804775
0.052738305 0.050700374 -0.12386291 0.06276949 -0.013800228 -0.14373851 -0.021971185 -0.05346682
0.0059986166 -0.087179475 -0.01931418 -0.03925346 0.03772104 -0.026961 -0.034868654 0.008279484
-0.019530375 -0.0999402 0.052028477 0.045282613 0.009307067 -0.0776903 0.002556696 -0.03318301
0.047468808 -0.035096787 -0.07565085 0.003219499 0.026951833 0.021676825 -0.43969703 -0.08142191
0.074237026 -0.039373975 -0.018938996 0.032895282 -0.057405613 -0.12580992 0.022751257 0.05804732
0.053247582 -0.062155947 0.06450524 -0.039737485 -0.043247823 -0.02253481 -0.06515367 -0.12755948
-0.082426734 -0.0050443783 0.020622285 0.051212117 -0.091265045 -0.008044845 -0.01642763 -0.060282934
-0.029230516 0.09962641 -0.07844515 0.008196969 -0.080553845 0.0041771815 -0.06861744 -0.0063491077
-0.015233489 -0.077178955 -0.048322637 0.07119112 -0.061616443 0.05964515 0.008817164 -0.04964687
0.027209012 -0.14759487 -0.07274749 0.075359076 -0.04117142 0.0815773 -0.066745505 0.0717748
-0.07993204 -0.088007174 0.053554617 -0.018351492 0.028129857 -0.0022088704 -0.02447912 -0.034559295
-0.05784649 -0.07373611 0.016022786 -0.09754751 0.05970458 -0.0141759645 -0.1472933 0.00052083406
0.07950144 0.0030261942 -0.076704614 0.08073026 -0.15020426 -0.09961378 0.0416776 -0.07004448
0.0045349817 0.027598523 0.0694449 0.03154042 0.035152268 -0.070667215 0.054367095 0.044342183
00000000: a41a d2bb a0b7 0e3d 3afe 7c3d 1314 e13c
00000010: 0b53 35bd a6fe a7bd 7174 96bd d438 493d
00000020: 58dd b8bc 6e23 9fbd ede0 debc ee13 333c
00000030: da04 a2bc 4440 253d 82c4 93bd 93a3 cb3d
00000040: 53d1 a6bd 0ea7 14bd 34ed 88bc 257c 30bc
00000050: df9c 14bd a3f3 053d 4ef9 cabc 5ebd 793d
00000060: 0157 2ebd 975b 3ebd 8397 18bd 0367 47bd
00000070: 8a0a 3bbd f2ae a23d 62a4 8e3d 3ffe 8a3d
00000080: f82e 25bd 0331 acbd a0d4 74bd 4f03 afbd
00000090: 8fcb 00bc d528 cbbd 2221 57bd 6a26 e0bd
000000a0: 22c6 903d 57f9 733d d737 233d 3e17 3fbd
000000b0: 0ffe 943d 8d8e d83c 0fc8 763d 0ffe ea3a
000000c0: 1cd2 c63c 1a8d d43b 41a1 04bc 1a56 de3c
000000d0: 0262 57bd 8e8a f8bc 9ec7 813d c506 a43c
000000e0: fa41 0a3d 40fe a4b8 cd18 383c 22d7 bcbd
000000f0: 769c 83bc d6ae 923d 1f5b 20bd c8b3 edbc
00000100: da81 1ebd bf41 183d c020 d3bd f984 ed3c
00000110: 1738 9b3d 530b ae3d 61e9 13be 3c5d 2abd
00000120: 933d 1c3d 0c33 483d 62e8 bebc e1bd 793a
00000130: c3f5 3bbd a378 b53b 6c09 65bc e7e7 3e3a
00000140: 5141 913c ca1c a6bb afd1 24bd 8d01 e63c
00000150: dd5a b4bd 5277 b6bd c5ec 6f3d 1163 023d
00000160: 6004 9a3b 0b08 c5bd 1fa3 e3bd 0d83 8abc
00000170: f7f9 813d 31ca eabd c463 8c3d c01a 71bd
00000180: 75c7 91bc 7fd9 023c 7d1a 2b3d 13e5 c2bd
00000190: 47cb adbd d97a 9fba e470 8e3d efeb 36bd
000001a0: 8831 36bd 67a4 26bc 8f5f c6bd 4962 8b3d
000001b0: cb23 68bc 4923 473d b8e3 883d 01d4 d63b
000001c0: 1272 16bc 3374 743b 2ad3 7dbc c999 b33d
000001d0: 5a05 ab3c 2b7b ac3d 551c 1b3d c1fc 3ebd
000001e0: 0a60 cc3b 3eb5 e7bd b83f 913d 008a 06be
000001f0: 5adb b23d af48 6dbc 75d1 2fbd 8c73 083d
00000200: 6f6f 723d 6535 91be 509d 4cbd 89a4 933c
00000210: c4cb c33b 6efe 973d 3915 3ebb 864c 483d
00000220: c0fe 8ebc 86b1 6bbd 29f9 8ebd 8439 003d
00000230: 0a72 4b3d 22d6 8e3d bf6d 13bc d499 17be
00000240: 1f04 583d 32ab 4f3d d6ab fdbd 4a8d 803d
00000250: 5a1a 62bc 3030 13be eafc b3bc 0600 5bbd
00000260: 0b90 c43b 278b b2bd c538 9ebc 3cc8 20bd
00000270: 6181 1a3d 51dd dcbc 6fd2 0ebd aca6 073c
00000280: 2afe 9fbc 73ad ccbd d01b 553d 437a 393d
00000290: ab7c 183c 181c 9fbd 3e8e 273b e8ea 07bd
000002a0: a76e 423d a6c1 0fbd d5ee 9abd 3bfe 523b
000002b0: 17ca dc3c 9993 b13c f81f e1be 88c0 a6bd
000002c0: 9509 983d 9b46 21bd f425 9bbc 34bd 063d
000002d0: 2622 6bbd 51d4 00be d860 ba3c 07c3 6d3d
000002e0: 231a 5a3d 3c97 7ebd 531b 843d c6c3 22bd
000002f0: a124 31bd ec9a b8bc 4a6f 85bd f49e 02be
00000300: 59cf a8bd 504b a5bb 11f0 a83c ccc3 513d
00000310: 2be9 babd 87ce 03bc 3d93 86bc 3deb 76bd
00000320: d674 efbc ee08 cc3d daa7 a0bd 944c 063c
00000330: 6af9 a4bd bde0 883b 4d87 8cbd 2d0c d0bb
00000340: e295 79bc 0010 9ebd f5ed 45bd a6cc 913d
00000350: 8661 7cbd 794e 743d de75 103c 845a 4bbd
00000360: 6fe5 de3c 1c23 17be a3fc 94bd dc55 9a3d
00000370: 5da3 28bd 0012 a73d deb1 88bd abfe 923d
00000380: 69b3 a3bd 1b3d b4bd 165c 5b3d de55 96bc
00000390: 9670 e63c b2c2 10bb 6f88 c8bc 0c8e 0dbd
000003a0: 71f0 6cbd f502 97bd 3842 833c fdc6 c7bd
000003b0: ca8c 743d 4e42 68bc 0ed4 16be 9588 083a
000003c0: a7d1 a23d 1d53 463b 4f17 9dbd e855 a53d
000003d0: 25cf 19be 4f02 ccbd 22b6 2a3d 7b73 8fbd
000003e0: 2f9a 943b 4c16 e23c 2139 8e3d 8730 013d
000003f0: d3fb 0f3d f9b9 90bd 08b0 5e3d 26a0 353d

encoder.network.3.bias f4 [128]
-0.089548305 0.5186787 -0.119631566 0.044169325 0.10523092 -0.042284347 0.45268917 0.38788673
-0.18422343 -0.07108728 -0.23855495 0.29104698 0.10458759 -0.029850682 -0.048278138 0.18064706
-0.078442484 0.009526973 -0.09395119 -0.11176791 -0.09081242 -0.10401886 -0.08579985 0.28361782
-0.046717662 0.18480092 -0.09778828 0.031999756 0.077041276 -0.048390675 0.48606297 -0.026145767
0.034205914 0.13073325 0.525767 -0.09024107 -0.10172872 -0.17664626 0.42141342 0.060558036
0.03418431 0.11235206 0.20872599 -0.08481249 0.16545686 0.65079033 0.017343104 0.18135434
-0.09668465 -0.13364615 0.22388588 0.13818038 0.12653367 -0.1346979 0.30906746 0.1406844
-0.16871527 0.06204592 0.047015958 -0.08586761 0.40850347 -0.011336696 0.19220605 -0.08894419
0.08392809 -0.061057203 0.24285112 0.38541257 0.10236651 -0.10361048 0.2556615 -0.036347058
-0.06686168 0.24199788 0.18673635 0.34809655 -0.10301588 0.15672284 0.1883631 0.4520947
0.1841205 -0.04637367 0.39481026 -0.09620351 -0.10287445 0.9110169 0.049814247 0.09265308
-0.057532016 0.9234964 0.16577506 0.02524268 0.4219042 -0.014004106 0.39830482 -0.30854386
0.08240477 0.44464192 -0.061252106 -0.10882798 0.30087277 0.3425717 0.18638892 0.10726588
0.34979755 -0.10516271 0.3391433 0.08648995 0.2373843 -0.06299571 0.011659705 0.42294064
0.009539973 0.040048692 -0.010093635 0.098071076 -0.35110798 -0.07597548 0.43790206 -0.08278225
-0.119672984 -0.09299534 0.07582936 -0.01131365 0.32832015 0.37621987 0.06712614 0.23076122
00000000: 1a65 b7bd 21c8 043f 6501 f5bd e5ea 343d
00000010: 4f83 d73d 5a32 2dbd e0c6 e73e 1799 c63e
00000020: 11a5 3cbe 3596 91bd c047 74be 1c04 953e
00000030: 0532 d63d 6b89 f4bc 4cbf 45bd 8bfb 383e
00000040: 74a6 a0bd 0517 1c3c 7b69 c0bd 93e6 e4bd
00000050: ddfb b9bd d707 d5bd d5b7 afbd 5b36 913e
00000060: 055b 3fbd 743c 3d3e 3945 c8bd 2d12 033d
00000070: d1c7 9d3d 4d35 46bd 3fdd f83e a62f d6bc
00000080: 801b 0c3d f0de 053e ab98 063f 4fd0 b8bd
00000090: 2657 d0bd c2e2 34be 80c3 d73e b40b 783d
000000a0: d904 0c3d d618 e63d 44bc 553e 2cb2 adbd
000000b0: 866d 293e 329a 263f 2013 8e3c f4b4 393e
000000c0: 9a02 c6bd 89da 08be 5742 653e 287f 0d3e
000000d0: 0b92 013e 3fee 09be 173e 9e3e 920f 103e
000000e0: b2c3 2cbe dd23 7e3d ce93 403d 5cdb afbd
000000f0: 5e27 d13e 8dbd 39bc aad1 443e 5f28 b6bd
00000100: 7ee2 ab3d 1e17 7abd f7ad 783e cc54 c53e
00000110: 88a5 d13d bb31 d4bd 10e6 823e a7e0 14bd
00000120: c7ee 88bd 4bce 773e d037 3f3e b639 b23e
00000130: fdf9 d2bd f47b 203e 42e2 403e f578 e73e
00000140: 168a 3c3e 51f2 3dbd 9224 ca3e 5906 c5bd
00000150: d7af d2bd 6738 693f 060a 4c3d e6c0 bd3d
00000160: b1a6 6bbd 436a 6c3f f0c0 293e bdc9 ce3c
00000170: d403 d83e 7a71 65bc 9cee cb3e 76f9 9dbe
00000180: d5c3 a83d 1ba8 e33e 7de3 7abd 34e1 debd
00000190: ff0b 9a3e 8f65 af3e bddc 3e3e 37ae db3d
000001a0: aa18 b33e 8c5f d7bd 31a4 ad3e a521 b13d
000001b0: df14 733e e503 81bd 5908 3f3c ad8b d83e
000001c0: 8c4d 1c3c 190a 243d c65f 25bc 7dd9 c83d
000001d0: 6dc4 b3be 0899 9bbd b334 e03e be89 a9bd
000001e0: 1c17 f5bd 5774 bebd 6c4c 9b3d e35c 39bc
000001f0: 9419 a83e e49f c03e 6e79 893d ab4c 6c3e

encoder.output1.weight f4 [1, 128]
-0.01829898 -0.00014733382 -0.022476265 0.107177004 0.06692969 0.040069167 -0.2346853 -0.5517657
-0.02299104 0.052183226 -0.28242207 -0.3272154 -0.18430078 -0.012283266 0.06417034 0.16292651
0.005710409 -0.011751332 0.0035865845 -0.19055352 -0.005277053 -0.00077762356 -0.01604164 0.009589911
-0.0041935337 0.03613905 -0.0053175758 0.088547654 0.10809846 -0.0022989782 0.012349343 0.0038642937
-0.016777152 0.057108346 -0.0023316205 0.047612708 0.01254016 -0.25516978 0.00015112286 0.047298234
-0.057849355 0.10267302 0.110728875 -0.02060492 -0.0056275376 0.0013346471 0.030710176 -0.0075806105
-0.0020851193 -0.0535051 0.1111579 0.017609237 0.09369257 0.021908678 -0.49756154 0.025085885
-0.13050418 0.028704962 0.04849947 -0.032427583 -0.58962667 -0.033526246 0.038610723 0.032460663
0.029889822 -0.022642523 0.07523899 0.14736058 0.06795089 -0.03660328 0.09880575 0.0064949607
-0.020467425 -0.023302682 0.0974478 0.24568565 0.1467935 0.0040786066 -0.083039224 -0.39148787
0.0998771 -0.017599836 -0.32675454 0.027600411 -0.009152358 0.008519326 0.00018180371 0.017816585
-0.008077112 0.008933593 -0.1471979 -0.08172915 0.29085642 0.0046875416 -0.39098784 -0.25504145
0.060029905 -0.42295143 0.006921081 -0.0065371376 0.26660094 0.0026636529 0.049217243 0.0045509273
0.3258553 -0.0024205768 0.04974254 0.012332855 0.014767497 -0.0065625594 0.014327973 -0.5281048
-0.034594458 -0.08904616 -0.015690247 -0.13277191 0.054729797 0.05371912 -0.4505915 -0.035556577
-0.04914367 -0.026134517 0.034926407 0.022231493 -0.027710732 -0.24649495 0.027964542 -0.044801023
00000000: bee7 95bc 9f7d 1ab9 2520 b8bc 9e7f db3d
00000010: 6f12 893d 911f 243d 5851 70be 8440 0dbf
00000020: b557 bcbc 14be 553d a099 90be c788 a7be
00000030: 58b9 3cbe c03f 49bc bd6b 833d 35d6 263e
00000040: 621e bb3b a988 40bc e70c 6b3b 7620 43be
00000050: 21eb acbb 6fd9 4bba c269 83bc 011f 1d3c
00000060: e969 89bb 8a06 143d 0f3f aebb 7958 b53d
00000070: ba62 dd3d 74aa 16bb e654 4a3c 1740 7d3b
00000080: 3d70 89bc 71ea 693d 1ace 18bb 8b05 433d
00000090: 3e75 4d3c 9da5 82be bc76 1e39 cbbb 413d
000000a0: 72f3 6cbd 3b46 d23d d2c5 e23d a6cb a8bc
000000b0: 3567 b8bb 53ef ae3a e893 fb3c c566 f8bb
000000c0: 7fa6 08bb 2a28 5bbd c1a6 e33d 3f41 903c
000000d0: e4e1 bf3d d479 b33c 63c0 febe ea80 cd3c
000000e0: e3a2 05be ab26 eb3c 61a7 463d c9d2 04bd
000000f0: c6f1 16bf d152 09bd 4726 1e3d 79f5 043d
00000100: 80db f43c d07c b9bc e616 9a3d b1e5 163e
00000110: d629 8b3d 52ed 15bd ab5a ca3d aed3 d43b
00000120: 4dab a7bc 44e5 bebc b692 c73d 0595 7b3e
00000130: 0951 163e d5a5 853b 7810 aabd 1971 c8be
00000140: 5d8c cc3d 882d 90bc 5f4c a7be 421a e23c
00000150: c6f3 15bc a594 0b3c 90a2 3e39 16f4 913c
00000160: dd55 04bc 345e 123c 0cbb 16be 9d61 a7bd
00000170: 22eb 943e f399 993b 8f2f c8be cb94 82be
00000180: ebe1 753d 178d d8be 3cca e23b 7c35 d6bb
00000190: eb7f 883e ae90 2e3b 0598 493d f21f 953b
000001a0: 82d6 a63e 8aa2 1ebb d5be 4b3d be0f 4a3c
000001b0: 5ff3 713c bd0a d7bb e0bf 6a3c e031 07bf
000001c0: ebb2 0dbd d55d b6bd d588 80bc 5cf5 07be
000001d0: 5a2c 603d 9408 5c3d eeb3 e6be c6a3 11bd
000001e0: df4a 49bd 0e18 d6bc fe0e 0f3d d21e b63c
000001f0: 9e01 e3bc 2c69 7cbe e515 e53c 4781 37bd

encoder.output2.weight f4 [1, 128]
0.07121182 -0.50747484 -0.0719013 0.024063978 0.0012133883 0.047785226 -0.42028502 0.37910998
0.096241735 0.0756692 0.037443317 0.10092416 0.31317604 0.07795894 -0.08773082 -0.006959427
-0.05650814 -0.07404195 -0.016263848 0.36142623 0.058770947 -0.05142818 0.060048603 -0.27055877
0.023902772 0.007508568 0.07725266 0.028783021 0.024472503 0.15438722 -0.86582613 -0.007133757
0.02118157 -0.029825857 -0.6002703 -0.036305543 0.07135457 0.07017709 -0.19724686 -0.09090237
0.12145697 0.042208843 0.002107492 -0.08053663 -0.36144516 -0.3893228 -0.091399096 -0.33116615
-0.020066895 -0.13958669 0.006806578 -0.10697761 -0.07674623 0.099798754 0.3361941 -0.10894182
0.045072436 -0.09983075 -0.08242246 -0.026084986 0.38467282 0.07730602 -0.13670757 -0.022219982
-0.09188578 -0.016279701 -0.04658284 -0.38215372 -0.09529262 0.028435916 0.020934975 -0.019484174
0.005340302 -0.3976912 0.05153216 -0.18978147 0.010222298 -0.069822125 -0.40975937 0.0742135
0.07576233 0.047349915 -0.49865723 0.022916071 -0.013135227 -0.6863147 0.0164719 -0.114614524
0.0021574923 -0.82641065 0.04811508 0.08408873 -0.18300207 -0.013978535 0.47741765 0.03832996
0.06160735 0.0086404085 -0.017897485 0.014408462 -0.019037034 -0.18013154 0.015614614 -0.046527278
-0.03781124 0.0416916 -0.01480161 -0.008259097 -0.18824701 -0.046004992 0.034864455 0.41604936
0.03463602 -0.022300836 -0.01360772 0.051497962 0.7648337 -0.015227304 0.17161003 -0.045692842
-0.02830323 0.100803554 -0.12421116 0.021338787 -0.4663402 -0.31805873 0.04964423 -0.42769212
00000000: 81d7 913d dfe9 01bf fd40 93bd d221 c53c
00000010: 8e0a 9f3a 71ba 433d 992f d7be b41a c23e
00000020: 631a c53d 74f8 9a3d 2a5e 193d 53b1 ce3d
00000030: 9c58 a03e f0a8 9f3d 37ac b3bd e80b e4bb
00000040: 1475 67bd 4ea3 97bd c33b 85bc dc0c b93e
00000050: ceb9 703d 5ba6 52bd 86f5 753d ae86 8abe
00000060: bfcf c33c 6f0a f63b a536 9e3d 5fca eb3c
00000070: 8f7a c83c af17 1e3e c8a6 5dbf 4bc2 e9bb
00000080: f984 ad3c 5b55 f4bc 50ab 19bf 1fb5 14bd
00000090: 5822 923d 02b9 8f3d 15fb 49be 062b babd
000000a0: 6fbe f83d 2ee3 2c3d d91d 0a3b 63f0 a4bd
000000b0: 570f b9be 5155 c7be 732f bbbd 9c8e a9be
000000c0: 5463 a4bc d0ef 0ebe b709 df3b 1417 dbbd
000000d0: 212d 9dbd 4a63 cc3d a221 ac3e e41c dfbd
000000e0: e09d 383d 1074 ccbd 1bcd a8bd 2eb0 d5bc
000000f0: d6f3 c43e 9e52 9e3d 12fd 0bbe ae06 b6bc
00000100: 9d2e bcbd 025d 85bc a6cd 3ebd a7a9 c3be
00000110: c728 c3bd 70f2 e83c d37f ab3c 469d 9fbc
00000120: b3fd ae3b 2e9e cbbe 6313 533d 1356 42be
00000130: 6d7b 273c e7fe 8ebd fbcb d1be 3ffd 973d
00000140: 4829 9b3d fcf1 413d 0050 ffbe 7cba bb3c
00000150: 2335 57bc 52b2 2fbf 14f0 863c 05bb eabd
00000160: b764 0d3b a68f 53bf 5114 453d b636 ac3d
00000170: e564 3bbe 3a06 65bc 1670 f43e e0ff 1c3d
00000180: fd57 7c3d 8090 0d3c bf9d 92bc 7811 6c3c
00000190: 8ef3 9bbc 6774 38be 70d4 7f3c 6393 3ebd
000001a0: f5df 1abd d0c4 2a3d 7482 72bc 2a51 07bc
000001b0: d3c3 40be bb6f 3cbd 08ce 0e3d 6c04 d53e
000001c0: 80de 0d3d 3eb0 b6bc eaf2 5ebc 87ef 523d
000001d0: 24cc 433f f17b 79bc 8aba 2f3e 6b28 3bbd
000001e0: 2ddc e7bc 1872 ce3d 6c62 febd aece ae3c
000001f0: 25c4 eebe 98d8 a2be c057 4b3d 76fa dabe

decoder.network.0.weight f4 [128, 1]
0.96410984 -0.5931695 -0.9004442 1.5557767 0.9030447 0.92446285 -1.178313 1.232945
0.8184095 0.5243247 0.004233636 -0.6727471 -0.99056035 0.7808762 -1.0060467 -0.5271618
-0.9857367 -0.8952094 1.4286531 -0.39897066 -0.98841774 -0.55048984 -0.79042673 -0.029015899
-0.88550186 -1.2746143 0.09594684 1.1370592 -0.063781984 -0.5392511 0.9772065 0.7181697
-0.57226473 1.0090693 1.0193881 1.3412251 0.9369839 -0.9620715 -0.053506255 -0.19466521
0.47734296 -1.1560892 -1.057591 -0.15158968 -0.5565228 0.1278703 0.58629435 1.0936325
1.3363934 0.02207736 -0.76136565 0.2805982 -0.03758049 0.27027878 0.95637506 -1.2099322
0.027759552 -1.0926365 -0.48300007 0.708739 -1.2899457 0.23153633 1.2549075 -1.1296269
-0.08875526 -0.80758435 -0.47115943 -0.4199479 1.2442122 0.10198415 -1.3694878 0.07696724
-0.6382951 -0.92669874 0.959887 1.105407 1.319874 1.0815568 0.025286792 0.22625153
0.79550624 0.60436565 1.309001 -0.6854255 -0.1852283 0.018225199 1.0452064 1.044549
0.68661994 -0.9427558 -0.10225762 0.7403473 -1.1833369 0.20158064 -1.1148208 1.1179549
1.2567891 0.2218529 -1.0706588 -0.85398215 -0.30678347 -0.9304948 -1.1609195 1.2817899
-0.5573382 1.0592785 -1.068119 1.2515372 1.3077415 1.0642165 0.72392386 0.011614919
-0.87535214 -0.6049403 1.4435649 -1.1298821 0.42878368 1.1113421 -0.49408722 -0.55817825
-0.96164525 -0.5138136 0.8121061 0.50320953 0.70022696 0.7232591 1.2356699 0.9776418
00000000: e7cf 763f f5d9 17bf 8383 66bf b123 c73f
00000010: f02d 673f 99a9 6c3f f6d2 96bf 24d1 9d3f
00000020: 4983 513f 253a 063f 50ba 8a3b 2739 2cbf
00000030: 5d95 7dbf 81e7 473f 23c6 80bf 13f4 06bf
00000040: 3e59 7cbf 712c 65bf 1bde b63f e245 ccbe
00000050: f208 7dbf e7ec 0cbf 6859 4abf c0b2 edbc
00000060: 40b0 62bf 9026 a3bf c77f c43d 288b 913f
00000070: 21a0 82bd 5c0c 0abf 352a 7a3f f8d9 373f
00000080: f17f 12bf 2f29 813f 4f7b 823f 44ad ab3f
00000090: 2dde 6f3f 514a 76bf 6029 5bbd 5156 47be
000000a0: 4c66 f43e bbfa 93bf 245f 87bf 533a 1bbe
000000b0: 4778 0ebf 6ff0 023e 6317 163f 26fc 8b3f
000000c0: f00e ab3f 94db b43c dce8 42bf 91aa 8f3e
000000d0: 00ee 19bd fb61 8a3e ffd4 743f 0fdf 9abf
000000e0: 0068 e33c 83db 8bbf c94b f7be eb6f 353f
000000f0: f11c a5bf dc17 6d3e cfa0 a03f 9d97 90bf
00000100: 51c5 b5bd d9bd 4ebf cf3b f1be 6903 d7be
00000110: 5842 9f3f 11dd d03d 604b afbf 00a1 9d3d
00000120: 4f67 23bf 213c 6dbf 28bb 753f fa7d 8d3f
00000130: a2f1 a83f 7470 8a3f 3f26 cf3c 7bae 673e
00000140: 4ca6 4b3f b5b7 1a3f 588d a73f 0c78 2fbf
00000150: 7dac 3dbe 034d 953c 53c9 853f c8b3 853f
00000160: 53c6 2f3f 7258 71bf 716c d1bd 6787 3d3f
00000170: 9577 97bf 286b 4e3e 73b2 8ebf 2519 8f3f
00000180: 77de a03f 682d 633e 590b 89bf 939e 5abf
00000190: b912 9dbe e834 6ebf 0399 94bf b111 a43f
000001a0: b7ad 0ebf 7096 873f 20b8 88bf 5f32 a03f
000001b0: 1364 a73f 3f38 883f 1353 393f 804c 3e3c
000001c0: 1417 60bf 5edd 1abf bcc6 b83f fa9f 90bf
000001d0: 8989 db3e 7540 8e3f 00f9 fcbe c5e4 0ebf
000001e0: 622e 76bf 4a89 03bf 2fe6 4f3f 57d2 003f
000001f0: 1342 333f 8227 393f 6e2a 9e3f bc46 7a3f

decoder.network.0.bias f4 [128]
-0.04021357 0.39357254 0.7403133 -0.6253184 0.4107909 0.98969173 0.13619398 -0.53782386
0.74200577 -0.026907511 -0.056536075 0.52940863 -0.27523783 1.0193319 -0.7076266 0.4894875
0.5169475 0.75200117 -0.69895643 -0.7424793 -0.3100477 0.103590205 -0.24134648 -0.9273013
-0.7125691 0.17181027 1.0896497 -0.5439827 0.89380604 0.053253084 0.29305404 0.79452413
-0.20648628 0.2731281 0.92464584 0.4449834 -0.48005638 0.09663584 -0.8729713 1.0329185
0.9325206 0.11879634 -0.70843524 1.0742941 -1.0495906 1.0466225 0.7844729 -0.48191836
-0.09165419 0.49234673 0.5872124 0.2068164 -0.6122329 0.502617 0.3267832 -0.9818586
-0.57217526 -0.85719115 -0.91221637 0.9330454 0.104780406 0.43392286 -0.054029696 -0.38647938
0.7758809 0.69766194 -0.42346576 0.75257015 -0.08000213 0.5574464 0.14270519 -0.78327215
-0.3278895 0.7963607 -0.04517307 -0.4935149 -0.51119745 -0.9600087 0.96952295 0.29601055
-0.04407006 0.8393337 -0.061934024 0.26882845 0.95978135 0.9499045 1.0916892 -0.047055595
-0.02919848 -0.4862873 0.9444199 0.92063147 -0.9251144 0.8155405 0.096645385 -0.048115335
-0.052802444 0.90745324 -0.32582867 0.07019038 0.50130117 0.76247734 -0.5489617 -0.051540863
0.42955682 -0.9930638 0.102182195 -0.9386482 -0.047281485 -0.5294713 -0.036091227 -0.45841503
-0.7689949 0.91047025 -0.63138896 0.19022939 0.8394557 0.3572221 0.7793805 0.446145
-0.6070801 -0.16016792 -0.27656186 0.96524453 -0.03187763 0.8323922 -0.052297905 0.7264594
00000000: fcb6 24bd 5782 c93e 2c85 3d3f de14 20bf
00000010: 2f53 d23e 705c 7d3f 6f76 0b3e d3ae 09bf
00000020: 17f4 3d3f 246d dcbc 5f92 67bd 5387 073f
00000030: f9eb 8cbe 7879 823f 0427 35bf 1b9e fa3e
00000040: ac56 043f 2683 403f cfee 32bf 2013 3ebf
00000050: 92be 9ebe 1a27 d43d 8823 77be 9e63 6dbf
00000060: ee6a 36bf 08ef 2f3e a479 8b3f 7342 0bbf
00000070: 79d0 643f e81f 5a3d 2e0b 963e ef65 4b3f
00000080: 2471 53be 72d7 8b3e 97b5 6c3f ddd4 e33e
00000090: f3c9 f5be 03e9 c53d 0c7b 5fbf ac36 843f
000000a0: acb9 6e3f 7f4b f33d 035c 35bf 7882 893f
000000b0: fc58 86bf baf7 853f 37d3 483f 01be f6be
000000c0: 31b5 bbbd df14 fc3e 8d53 163f aec7 533e
000000d0: 4cbb 1cbf 82ab 003f 2150 a73e 165b 7bbf
000000e0: 147a 12bf e170 5bbf 0387 69bf 10dc 6e3f
000000f0: 1c97 d63d 232b de3e 3e4e 5dbd a0e0 c5be
00000100: 21a0 463f f999 323f 81d0 d8be 70a8 403f
00000110: 28d8 a3bd cfb4 0e3f 4f21 123e 8684 48bf
00000120: 22e1 a7be 4bde 4b3f 6607 39bd fcad fcbe
00000130: d6dd 02bf 21c3 75bf a832 783f b28e 973e
00000140: cf82 34bd 93de 563f 88ae 7dbd e2a3 893e
00000150: 3bb4 753f f12c 733f 79bc 8b3f 5ebd 40bd
00000160: a731 efbc a6fa f8be 81c5 713f 81ae 6b3f
00000170: 4cd4 6cbf 43c7 503f 04ee c53d 9614 45bd
00000180: 6047 58bd db4e 683f 04d3 a6be f9bf 8f3d
00000190: 4655 003f b731 433f c188 0cbf 831c 53bd
000001a0: dfee db3e 6e39 7ebf e644 d13d 404b 70bf
000001b0: 3baa 41bd 6e8b 07bf 65d4 13bd 60b5 eabe
000001c0: dadc 44bf 9414 693f b5a2 21bf 7ecb 423e
000001d0: 92e6 563f d1e5 b63e 7b85 473f 1e6d e43e
000001e0: 9a69 1bbf 0f03 24be 8499 8dbe 441a 773f
000001f0: 1e92 02bd a817 553f 5436 56bd 3ef9 393f

decoder.network.2.weight f4 [128, 128]
0.012580454 0.060396284 0.047257975 0.0431611 0.05608008 -0.016287819 -0.014658221 0.015923627
-0.020380087 0.032269713 0.049508892 0.015304142 -0.07468146 -0.08522153 0.008136523 -0.025270576
-0.0013800564 -0.08785328 0.01162506 0.006541412 0.07309245 -0.08332423 0.08814684 0.08666967
0.0763642 -0.05982941 0.06949235 -0.037843253 0.041138273 -0.027935753 0.0879644 -0.021460554
0.07530979 0.046477973 -0.083546475 -0.08408158 0.017734824 0.02907299 0.015348049 0.013903961
0.010094508 0.005769556 -0.04924071 0.06433796 0.08352369 0.085136704 0.06362622 -0.0073065353
-0.078301385 -0.024878135 0.06904437 0.030257886 0.032956462 -0.030931488 0.0062140995 0.07207969
0.00702962 0.07710122 -0.029867468 0.008201714 -0.08723842 0.039412625 -0.051639784 0.06103191
0.00568385 -0.03275807 -0.071065605 0.027593752 -0.0128802555 -0.03874041 0.072284855 0.06499758
0.05185215 -0.032818835 0.033259016 -0.0091262255 0.054343775 0.08276606 -0.087011725 -0.0057676695
0.07359681 -0.040759742 0.0670795 -0.06443752 -0.0607276 -0.08641706 -0.038432047 -0.058208812
-0.06867064 -0.01478307 0.07525208 -0.06491426 -0.07266228 0.010932734 0.0068296334 0.016172547
-0.08393625 -0.007489379 -0.055290796 -0.015204539 -0.025864203 -0.059789393 -0.008165488 0.029737435
0.042917978 -0.08566573 -0.08586769 -0.047306623 0.031261593 0.055572726 0.055951163 -0.0819095
-0.08233927 0.031154698 -0.04890932 -0.037446294 -0.06472693 -0.04431998 0.055049084 -0.08822496
0.006330636 0.0031999152 -0.06423045 0.013322092 0.08833755 -0.04310199 -0.08219738 0.032562643
-0.022718837 -0.04699183 0.046800483 0.08253262 0.06303027 0.03281307 -0.016716473 0.011679292
-0.022158347 -0.022722926 -0.08819181 -0.04130133 0.03839913 0.028630532 0.007319601 -0.04775733
0.006071938 -0.03779249 -0.04044069 -0.025328085 -0.016167983 -0.0498369 0.063345246 -0.07823723
0.011615608 -0.044923082 -0.023229046 -0.023483519 0.0037591828 0.058133833 0.040505186 -0.02774115
-0.014083232 -0.011945997 -0.07661053 -0.07786311 -0.01257663 0.02644956 -0.02556869 0.06628715
0.02635748 -0.0625308 -0.036249768 0.06736718 -0.0025626337 0.021668874 -0.07091504 -0.08598057
-0.06660361 -0.011151824 -0.01763148 0.05776449 0.044656724 -0.060407087 0.06341199 -0.06525825
-0.07394406 0.022884294 -0.04657942 -0.05804997 -0.08399957 0.027692607 0.07026301 0.082932025
-0.02787467 -0.018661033 -0.03702546 -0.077207744 0.08142635 0.040365342 0.06900822 0.036888007
0.06859719 -0.05178499 -0.020125668 0.06941709 -0.017515091 -0.081975736 0.015605987 0.054451555
0.05620061 0.08019844 -0.05268316 0.0042126616 -0.0495264 0.035581674 -0.081324585 -0.03266251
0.02072469 -0.0048426413 0.068291984 -0.04510716 -0.056263387 -0.028792156 -0.08710457 0.085362695
-0.01816605 -0.022712199 0.03641649 -0.06707336 0.059627905 -0.014714866 -0.08582999 -0.020030426
-0.07046111 0.055496514 -0.045345258 -0.07250596 0.036531318 -0.02624187 -0.08122903 0.03418808
-0.071426444 -0.071460985 0.007945998 -0.04154323 -0.046436384 -0.0069737546 -0.034181643 0.018770289
0.0153636215 0.03990686 -0.056692537 -0.081493504 0.07756127 -0.047876395 0.041759677 -0.076115645
00000000: 401e 4e3c 1862 773d 9491 413d b2c9 303d
00000010: 3ab4 653d 086e 85bc 0929 70bc 4472 823c
00000020: 24f4 a6bc 3f2d 043d d6c9 4a3d 39be 7a3c
00000030: 98f2 98bd a088 aebd 0d4f 053c 3d04 cfbc
00000040: 02e3 b4ba 6cec b3bd 0977 3e3c 5759 d63b
00000050: 7fb1 953d e5a5 aabd 5586 b43d de7f b13d
00000060: d564 9c3d af0f 75bd 0152 8e3d 8701 1bbd
00000070: 9b80 283d 85d9 e4bc ae26 b43d 0bce afbc
00000080: 053c 9a3d b05f 3e3d 6a1a abbd f732 acbd
00000090: 9f48 913c 7b2a ee3c 6276 7b3c 70cd 633c
000000a0: 6f63 253c 8b0e bd3b a0b0 49bd 9fc3 833d
000000b0: 780e ab3d 275c ae3d 774e 823d a96b efbb
000000c0: 7a5c a0bd 3bcd cbbc 2267 8d3d 63df f73c
000000d0: 5bfd 063d 0864 fdbc a59f cb3b 849e 933d
000000e0: ba58 e63b 3fe7 9d3d 9fac f4bc 7b60 063c
000000f0: 0faa b2bd 226f 213d 3d84 53bd 99fc 793d
00000100: 973f ba3b 532d 06bd d88a 91bd 4b0c e23c
00000110: b507 53bc 44ae 1ebd 150a 943d 741d 853d
00000120: ec62 543d 0b6d 06bd 9b3a 083d 2a86 15bc
00000130: 9497 5e3d 4181 a93d 3433 b2bd b8fe bcbb
00000140: edb9 963d b0f3 26bd fa60 893d d2f7 83bd
00000150: 81bd 78bd 6dfb b0bd ec6a 1dbd 5d6c 6ebd
00000160: 31a3 8cbd b134 72bc c31d 9a3d c4f1 84bd
00000170: f6cf 94bd 361f 333c 1ecb df3b 4a7c 843c
00000180: c5e6 abbd 7769 f5bb 9a78 62bd 751c 79bc
00000190: 2ae1 d3bc b9e5 74bd 8ac8 05bc ec9b f33c
000001a0: c3ca 2f3d 8471 afbd 66db afbd 97c4 41bd
000001b0: 280c 003d 3aa0 633d 0c2d 653d 2bc0 a7bd
000001c0: 7ea1 a8bd 2338 ff3c 2455 48bd 4961 19bd
000001d0: 8d8f 84bd de88 35bd 267b 613d 4aaf b4bd
000001e0: 3971 cf3b abb5 513b 418b 83bd e744 5a3c
000001f0: 51ea b43d b68b 30bd 1a57 a8bd 6860 053d
00000200: db1c babc 817a 40bd ddb1 3f3d dd06 a93d
00000210: 0416 813d ff66 063d fcf0 88bc 805a 3f3c
00000220: 6c85 b5bc 6e25 babc e89d b4bd 952b 29bd
00000230: 6848 1d3d 948a ea3c 43d9 ef3b 319d 43bd
00000240: 1cf7 c63b 4ccc 1abd 23a5 25bd d87c cfbc
00000250: b872 84bc c721 4cbd 27bb 813d d73a a0bd
00000260: 644f 3e3c 4401 38bd d74a bebc 8260 c0bc
00000270: 9f5c 763b be1d 6e3d c4e8 253d 6941 e3bc
00000280: 5bbd 66bc 25b9 43bc fbe5 9cbd b276 9fbd
00000290: 360e 4ebc bfac d83c 6e75 d1bc 8fc1 873d
000002a0: a4eb d73c 2610 80bd a37a 14bd cef7 893d
000002b0: dcf1 27bb ec82 b13c e83b 91bd 9516 b0bd
000002c0: 7967 88bd 24b6 36bc e56f 90bc 759a 6c3d
000002d0: f8e9 363d 6c6d 77bd 25de 813d 1ea6 85bd
000002e0: fc6f 97bd d877 bb3c 10ca 3ebd cec5 6dbd
000002f0: f707 acbd 9bdb e23c 0ee6 8f3d 44d8 a93d
00000300: 6c59 e4bc 06df 98bc 02a8 17bd 181f 9ebd
00000310: dcc2 a63d 2156 253d 2f54 8d3d e117 173d
00000320: af7c 8c3d 7f1c 54bd 96de a4bc 8c2a 8e3d
00000330: cf7b 8fbc e5e2 a7bd 41b0 7f3c 9808 5f3d
00000340: 9c32 663d 143f a43d 4cca 57bd 5e0a 8a3b
00000350: 32dc 4abd 17be 113d 818d a6bd 20c9 05bd
00000360: d3c6 a93c 05af 9ebb abdc 8b3d 49c2 38bd
00000370: 7074 66bd 87dd ebbc e163 b2bd a3d2 ae3d
00000380: f8d0 94bc ef0e babc 7529 153d c25d 89bd
00000390: 643c 743d 9f16 71bc a2c7 afbd d916 a4bc
000003a0: ea4d 90bd 5050 633d f3bb 39bd 017e 94bd
000003b0: dda1 153d 31f9 d6bc 685b a6bd cd08 0c3d
000003c0: 0748 92bd 235a 92bd ee2f 023c 3c29 2abd
000003d0: 1434 3ebd 1884 e4bb 0d02 0cbd 26c4 993c
000003e0: b3b7 7b3c 6075 233d 6f36 68bd 11e6 a6bd
000003f0: 71d8 9e3d 0a1a 44bd 320c 2b3d 85e2 9bbd

decoder.network.2.bias f4 [128]
-0.024692606 -0.0689053 0.062175862 -0.04766122 0.012898716 0.21390039 -0.039797716 0.05449304
0.025520807 -0.021377789 0.11535213 0.12670621 -0.003152932 0.018500159 -0.08987836 0.0809308
0.10307493 0.029118793 0.12897469 0.039033715 0.0014075919 -0.059766803 0.0013838123 0.051618766
0.01105961 0.07933825 0.036733758 0.06170562 -0.060056858 -0.08762365 -0.038664285 -0.019883776
0.06910391 0.06122631 -0.048820045 -0.005477717 0.16013724 -0.019746935 0.038092 -0.057702597
0.037575457 -0.021055873 0.1568768 -0.084229544 -0.13193737 0.031159103 0.08090453 0.1098611
0.055603366 0.040618867 0.009520621 -0.043940064 -0.071181804 -0.032375902 -0.06843068 -0.039355498
0.1580651 -0.023385156 0.028870728 0.15227911 -0.018431997 -0.083047666 0.0733181 -0.059157897
0.16884238 0.109643444 -0.020109663 -0.014013974 0.07457547 -0.090658665 -0.0481818 -0.06860714
-0.032657478 0.04479765 0.19753644 0.050764546 0.03317255 0.03344757 0.20815094 -0.09842676
-0.057261486 -0.04939326 -0.057788625 0.11655057 0.009521829 0.00047268605 0.058727678 -0.009552994
-0.018790318 0.07726306 -0.030432789 -0.05734644 0.055744532 0.0040385216 0.06706603 0.08293584
0.049183074 -0.048388384 0.07637443 -0.039196905 -0.04328438 0.07553249 -0.019906864 -0.026454564
-0.020611241 0.20177536 -0.03409037 0.07328601 0.04379799 -0.04171892 0.0054398365 -0.022582898
0.06497119 0.010470008 0.16438653 -0.0545165 -0.04386028 -0.042088628 0.030623976 0.00579309
-0.06889031 0.24649583 0.0852363 0.069761455 0.10438331 0.054587796 0.11932508 -0.003077923
00000000: 2648 cabc 391e 8dbd 1eac 7e3d 6938 43bd
00000010: 2355 533c b408 5b3e ee02 23bd 1834 5f3d
00000020: 0311 d13c 7920 afbc bd3d ec3d 46bf 013e
00000030: 6ca1 4ebb a58d 973c 2512 b8bd 0cbf a53d
00000040: f318 d33d 898a ee3c f111 043e d1e1 1f3d
00000050: f27e b83a 09ce 74bd 0961 b53a 336e 533d
00000060: 5e33 353c 187c a23d 2376 163d 08bf 7c3d
00000070: 2efe 75bd 0774 b3bd 715e 1ebd 4de3 a2bc
00000080: 5a86 8d3d 70c8 7a3d 87f7 47bd 6c7e b3bb
00000090: 04fb 233e 53c4 a1bc 5b06 1c3d 8f59 6cbd
000000a0: b9e8 193d 5e7d acbc 50a4 203e 8a80 acbd
000000b0: 971a 07be 6041 ff3c 46b1 a53d dbfe e03d
000000c0: 5bc0 633d f85f 263d 61fc 1b3c 7ffa 33bd
000000d0: c4c7 91bd 989c 04bd 6225 8cbd 3b33 21bd
000000e0: d1db 213e 3a92 bfbc 4e82 ec3c 0eef 1b3e
000000f0: b3fe 96bc e514 aabd cd27 963d 8d4f 72bd
00000100: 04e5 2c3e be8c e03d 05bd a4bc de9a 65bc
00000110: 06bb 983d 40ab b9bd 475a 45bd e681 8cbd
00000120: d9c3 05bd be7d 373d fe46 4a3e 7cee 4f3d
00000130: f1df 073d 5200 093d 8525 553e f893 c9bd
00000140: 058b 6abd 9650 4abd c4b3 6cbd 11b2 ee3d
00000150: 7201 1c3c d9d2 f739 6f8c 703d 2984 1cbc
00000160: 27ee 99bc 183c 9e3d 2f4e f9bc 1ae4 6abd
00000170: 6154 643d 9355 843b ea59 893d 44da a93d
00000180: 3174 493d e632 46bd 326a 9c3d ef8c 20bd
00000190: f64a 31bd c7b0 9a3d b813 a3bc 3eb7 d8bc
000001a0: e8d8 a8bc 339e 4e3e 58a2 0bbd fa16 963d
000001b0: 8565 333d 75e1 2abd a840 b23b c5ff b8bc
000001c0: 9e0f 853d 658a 2b3c f154 283e b24c 5fbd
000001d0: d6a6 33bd 2065 2cbd 22df fa3c f6d3 bd3b
000001e0: 5d16 8dbd 6769 7c3e 5f90 ae3d 18df 8e3d
000001f0: ebc6 d53d 7497 5f3d b560 f43d fbb6 49bb

decoder.network.4.weight f4 [784, 128]
0.056893323 -0.061481494 -0.13382918 -0.11438864 -0.079998635 0.030874483 0.031046031 -0.053524386
0.0032981928 -0.13874827 -0.108690865 -0.05176215 -0.03574692 0.06356419 -0.02767164 -0.05208594
-0.1890872 -0.13107707 -0.061810166 -0.004623583 -0.120946355 0.045151997 0.024337785 -0.13342172
-0.011204755 -0.07959523 -0.0015253471 -0.036206193 -0.12657836 -0.06810277 0.0027777774 -0.012374735
-0.046392336 -0.13470465 -0.07879022 0.02831176 -0.09495614 -0.046691976 -0.067732506 -0.04066848
0.032815266 -0.026586663 -0.6254127 0.07992508 -0.012679075 -0.43103302 -0.07489338 -0.060733393
-0.13690309 -0.028795902 0.01213914 -0.11995786 -0.058861297 -0.023802584 -0.071506545 -0.12256056
-0.005430371 -0.042517688 0.0076584555 -0.17835248 -0.03438109 -0.07617501 -0.023769362 0.06389673
-0.09616487 -0.02294028 0.013533637 -0.013589372 -0.05512616 -0.007661508 -0.0951499 0.030857386
-0.060227823 -0.039251395 -0.25963783 -0.11328808 0.03162898 -0.043980543 -0.5545095 -0.019802578
-0.020580275 -0.02220453 -0.13591783 -0.1300702 0.04479139 -0.09749651 -0.09121968 0.0057174815
0.020074058 -0.09634464 -0.010112651 0.04549381 -0.11741421 -0.07181672 -0.10864622 -0.11119757
-0.07948359 -0.094133675 -0.12062557 -0.08607741 -0.041545425 -0.09763044 -0.12179971 0.07997653
0.022483025 -0.10380235 0.0024892539 -0.12215999 0.025614228 -0.04928738 -0.13144736 -0.0830011
-0.19674377 -0.08423511 -0.059065115 -0.114137575 -0.124919824 0.06875382 -0.007779001 -0.06690336
-0.2421295 -0.08561527 -0.023166023 -0.03993139 0.022242779 0.007230566 -0.15944882 -0.005194074
0.08700635 -0.067349665 -0.00012701727 -0.06393135 0.08389093 -0.10302222 -0.0313475 -0.088149205
-0.12948473 -0.12867682 -0.08435983 -0.17682701 -0.08113225 -0.01055453 -0.05079407 -0.064429305
-0.23826922 -0.108283736 -0.1267691 -0.13182491 -0.09352992 -0.055032182 -0.12656228 -0.14450583
-0.058274265 -0.12528193 -0.07606832 -0.010994326 -0.020374091 -0.039428882 0.025743142 -0.07678752
-0.117501765 -0.12340635 0.0017864342 -0.06296846 -0.063571624 -0.114265285 0.07577057 -0.0015454696
-0.00076006603 -0.12239266 -0.6344026 0.07060898 -0.023887128 -0.55557275 0.027382594 -0.035804696
0.01392378 0.0053778696 -0.05021334 -0.06900401 -0.045218803 -0.11204894 0.0016906889 -0.05011515
-0.1409798 -0.1201862 0.046432696 -0.2196501 0.04502847 0.013574948 0.012129335 -0.03764708
-0.13281134 -0.050397854 -0.079319954 0.04805856 -0.04910849 -0.060007103 0.016558228 0.05052337
0.0003376033 -0.08320847 -0.24002334 -0.14546077 -0.05528259 -0.07179847 -0.49210072 -0.025548272
0.04094271 0.032050446 -0.07302321 -0.059728492 -0.023212485 0.0006750082 -0.10240654 0.042116072
0.051001944 -0.012178823 -0.01293331 -0.024623327 -0.08444667 0.009562898 -0.03267494 -0.09353863
0.03079385 0.03613315 -0.07900111 -0.07775936 0.03874188 -0.018175207 -0.14568526 -0.04206817
0.0037141382 -0.10311116 0.031087033 -0.06261444 -0.04944518 -0.06645723 -0.12209961 -0.038287852
-0.15139782 -0.053151235 -0.0779184 0.008331887 -0.02472213 0.073327616 0.03290476 -0.00055234146
-0.227063 -0.12331292 0.0011255798 -0.092815645 -0.07769945 -0.03280935 -0.009965563 0.04569176
00000000: f908 693d 05d4 7bbd 840a 09be 9744 eabd
00000010: 53d6 a3bd 7cec fc3c 3f54 fe3c 633c 5bbd
00000020: 7e26 583b 0714 0ebe 5199 debd 8c04 54bd
00000030: 5d6b 12bd f12d 823d a3af e2bc 1158 55bd
00000040: 13a0 41be 1139 06be a82c 7dbd 6d81 97bb
00000050: b9b2 f7bd 4df1 383d 0960 c73c b49f 08be
00000060: 2694 37bc d302 a3bd 28ee c7ba f24c 14bd
00000070: c29d 01be 7779 8bbd 5f0b 363b 67bf 4abc
00000080: e405 3ebd 04f0 09be c45c a1bd 10ee e73c
00000090: 5d78 c2bd 1640 3fbd 57b7 8abd fe93 26bd
000000a0: 4d69 063d 46cc d9bc 0c1b 20bf c3af a33d
000000b0: e5bb 4fbc 5cb0 dcbe b361 99bd 94c3 78bd
000000c0: 5330 0cbe 62e5 ebbc 3ee3 463c 77ac f5bd
000000d0: 8b18 71bd a3fd c2bc 0672 92bd 0801 fbbd
000000e0: 41f1 b1bb 0727 2ebd c8f3 fa3b 08a2 36be
000000f0: 30d3 0cbd a501 9cbd f7b7 c2bc 4adc 823d
00000100: 16f2 c4bd 41ed bbbc 30bc 5d3c f5a5 5ebc
00000110: f8cb 61bd 630d fbbb f3dd c2bd a1c8 fc3c
00000120: 73b1 76bd 12c6 20bd 40ef 84be 9503 e8bd
00000130: 648d 013d f124 34bd 56f4 0dbf 0439 a2bc
00000140: f797 a8bc 46e6 b5bc 0b2e 0bbe 1f31 05be
00000150: 2d77 373d 40ac c7bd 62d1 babd b659 bb3b
00000160: 5a72 a43c 5750 c5bd 88af 25bc b857 3a3d
00000170: dd76 f0bd a514 93bd e981 debd 8dbb e3bd
00000180: 4bc8 a2bd 28c9 c0bd 8a0a f7bd 5a49 b0bd
00000190: 892b 2abd 78f2 c7bd 2072 f9bd bcca a33d
000001a0: 522e b83c 5496 d4bd c022 233b 042f fabd
000001b0: eed4 d13c 90e1 49bd 239a 06be 7bfc a9bd
000001c0: 3377 49be 7583 acbd 43ee 71bd f6c0 e9bd
000001d0: f7d5 ffbd cece 8c3d fde6 febb a104 89bd
000001e0: ccf0 77be 0f57 afbd acc6 bdbc 198f 23bd
000001f0: 7d36 b63c 62ee ec3b 8d46 23be 0d33 aabb
00000200: 6330 b23d 9fee 89bd f02f 05b9 71ee 82bd
00000210: 02cf ab3d 50fd d2bd 3c66 00bd 9287 b4bd
00000220: a597 04be dbc3 03be d9c4 acbd 2412 35be
00000230: aa28 a6bd e8ec 2cbc 710d 50bd 83f3 83bd
00000240: d9fc 73be ddc3 ddbd c2cf 01be 1cfd 06be
00000250: 9d8c bfbd 6d69 61bd 8b99 01be 56f9 13be
00000260: ffb0 6ebd e849 00be b5c9 9bbd 8c21 34bc
00000270: 91e7 a6bc 2e80 21bd 48e3 d23c c642 9dbd
00000280: c4a4 f0bd 78bc fcbd c926 ea3a 9cf5 80bd
00000290: d731 82bd eb03 eabd 9a2d 9b3d 5b91 caba
000002a0: 2b3f 47ba 01a9 fabd 3568 22bf 719b 903d
000002b0: f0ae c3bc 043a 0ebf 7651 e03c f2a7 12bd
000002c0: 9120 643c d738 b03b 81ac 4dbd f951 8dbd
000002d0: 5a37 39bd ea79 e5bd 1b9a dd3a 8b45 4dbd
000002e0: 025d 10be 2f24 f6bd 3630 3e3d f5eb 60be
000002f0: c66f 383d 7569 5e3c 1eba 463c d333 1abd
00000300: b2ff 07be fb6d 4ebd 8072 a2bd 0dd9 443d
00000310: fc25 49bd 02ca 75bd 1fa5 873c 98f1 4e3d
00000320: 5900 b139 3469 aabd aec8 75be abf3 14be
00000330: ff6f 62bd 140b 93bd a0f4 fbbe 9c4a d1bc
00000340: 8bb3 273d 5447 033d 318d 95bd dda5 74bd
00000350: 1c28 bebc 09f3 303a 85ba d1bd e781 2c3d
00000360: 6ae7 503d b089 47bc 3ce6 53bc dcb6 c9bc
00000370: 60f2 acbd b4ad 1c3c 28d6 05bd 2e91 bfbd
00000380: 6243 fc3c 5b00 143d 55cb a1bd 4d40 9fbd
00000390: ceaf 1e3d 2ce4 94bc 842e 15be ac4f 2cbd
000003a0: e668 733b f22b d3bd 3caa fe3c 003c 80bd
000003b0: 0787 4abd ba1a 88bd 5c0f fabd b9d3 1cbd
000003c0: 0808 1bbe 1cb5 59bd af93 9fbd 7882 083c
000003d0: 1086 cabc ca2c 963d 24c7 063d 02cb 10ba
000003e0: 3483 68be 7c8b fcbd 3188 933a 2116 bebd
000003f0: e420 9fbd 1963 06bd 9a46 23bc 4827 3b3d
